{
    "author": "ddunl",
    "message": "Delete `xla/tests/fuzz`\n\nThese tests haven't demonstrated much value, and the generated HLOs are no longer used anywhere else.\n\nPiperOrigin-RevId: 818759915",
    "sha": "2b947eb9a4081059388295715c9f36b813a53bc6",
    "files": [
        {
            "sha": "293679962b8ddc1c6c5cc6c988405d5b7575e6b1",
            "filename": "third_party/xla/xla/tests/fuzz/BUILD",
            "status": "removed",
            "additions": 0,
            "deletions": 42,
            "changes": 42,
            "blob_url": "https://github.com/tensorflow/tensorflow/blob/fcd421e9df0946288cbb745ae7193b8b2795d00c/third_party%2Fxla%2Fxla%2Ftests%2Ffuzz%2FBUILD",
            "raw_url": "https://github.com/tensorflow/tensorflow/raw/fcd421e9df0946288cbb745ae7193b8b2795d00c/third_party%2Fxla%2Fxla%2Ftests%2Ffuzz%2FBUILD",
            "contents_url": "https://api.github.com/repos/tensorflow/tensorflow/contents/third_party%2Fxla%2Fxla%2Ftests%2Ffuzz%2FBUILD?ref=fcd421e9df0946288cbb745ae7193b8b2795d00c",
            "patch": "@@ -1,42 +0,0 @@\n-load(\"@rules_cc//cc:cc_library.bzl\", \"cc_library\")\n-load(\"//xla/tests/fuzz:build_defs.bzl\", \"hlo_test\")\n-\n-# copybara:uncomment package(default_applicable_licenses = [\"//tensorflow:license\"])\n-\n-cc_library(\n-    name = \"hlo_test_lib\",\n-    testonly = True,\n-    srcs = [\"hlo_test_lib.cc\"],\n-    deps = [\n-        \"//xla:error_spec\",\n-        \"//xla/hlo/testlib:verified_hlo_module\",\n-        \"//xla/service:hlo_module_config\",\n-        \"//xla/tests:hlo_pjrt_interpreter_reference_mixin\",\n-        \"//xla/tests:hlo_pjrt_test_base\",\n-        \"//xla/tsl/platform:env\",\n-        \"//xla/tsl/platform:status\",\n-        \"//xla/tsl/platform:statusor\",\n-        \"//xla/tsl/platform:test\",\n-    ],\n-    alwayslink = True,  # This library registers test cases at dynamic initialization time.\n-)\n-\n-[hlo_test(\n-    name = hlo + \"_test\",\n-    hlo = hlo,\n-    tags = (\n-        [\"cuda-only\"] if hlo == \"rand_000079.hlo\" else []  # No int8\n-    ) + [\n-        \"test_migrated_to_hlo_runner_pjrt\",\n-    ],\n-) for hlo in glob(\n-    include = [\"rand_*.hlo\"],\n-    exclude = [\n-        \"rand_000001.hlo\",  # fails on GPU\n-        \"rand_000004.hlo\",  # times out during coverage\n-        # These fail on all platforms\n-        \"rand_000060.hlo\",\n-        \"rand_000067.hlo\",\n-        \"rand_000072.hlo\",\n-    ],\n-)]"
        },
        {
            "sha": "e7560870b9cdf8f036202d400df9b69babbced67",
            "filename": "third_party/xla/xla/tests/fuzz/build_defs.bzl",
            "status": "removed",
            "additions": 0,
            "deletions": 53,
            "changes": 53,
            "blob_url": "https://github.com/tensorflow/tensorflow/blob/fcd421e9df0946288cbb745ae7193b8b2795d00c/third_party%2Fxla%2Fxla%2Ftests%2Ffuzz%2Fbuild_defs.bzl",
            "raw_url": "https://github.com/tensorflow/tensorflow/raw/fcd421e9df0946288cbb745ae7193b8b2795d00c/third_party%2Fxla%2Fxla%2Ftests%2Ffuzz%2Fbuild_defs.bzl",
            "contents_url": "https://api.github.com/repos/tensorflow/tensorflow/contents/third_party%2Fxla%2Fxla%2Ftests%2Ffuzz%2Fbuild_defs.bzl?ref=fcd421e9df0946288cbb745ae7193b8b2795d00c",
            "patch": "@@ -1,53 +0,0 @@\n-\"\"\"Build rules for XLA generated regression testing.\"\"\"\n-\n-load(\"//xla/tests:build_defs.bzl\", \"xla_test\")\n-load(\"//xla/tsl:package_groups.bzl\", \"DEFAULT_LOAD_VISIBILITY\")\n-\n-visibility(DEFAULT_LOAD_VISIBILITY)\n-\n-def hlo_test(name, hlo, **kwargs):\n-    \"\"\"Wrapper around `xla_test` which runs an HLO through `hlo_test_lib`.\n-\n-    `srcs = []` because `hlo_test_lib` linked with `tsl/platform:test_main`\n-    makes usable test binary where the path to the HLO is given via `HLO_PATH`\n-    environment variable.\n-\n-    This has the following nice properties:\n-      * adding an HLO to this directory with the appropriate prefix for a test\n-      suite (e.g. rand) will have it automatically create the corresponding test\n-      * `hlo_test_lib` only needs to be compiled once instead of for every\n-      target\n-      * automated tools can easily create reproducer CLs by appending one line\n-      to the `xla/tests/fuzz` BUILD file like `hlo_test(name = ..., hlo = ...)`.\n-      * plays nicely with `xla_test`, so we have easy testing against all\n-      platforms and a `test_suite` generated for each HLO which includes tests\n-      against all platforms. This is particularly useful for pruning the set of\n-      HLOs, as we can prune against `test_suites` representing all the tests\n-      associated with a particular HLO, rather than individual targets.\n-\n-    In the future it may make sense to reformulate this to use `hlo-opt` and\n-    `run_hlo_module` or similar to accomplish the same thing.\n-\n-    Args:\n-      name:\n-        The name of the macro. This really could be generated from `hlo`, but\n-        tools like build_cleaner assume that all macros have a name attribute.\n-      hlo:\n-        The hlo to test.\n-      **kwargs:\n-        Additional arguments passed to `xla_test`.\n-    \"\"\"\n-    backend_kwargs = {}\n-    xla_test(\n-        name = name,\n-        srcs = [],\n-        backend_kwargs = backend_kwargs,\n-        env = {\"HLO_PATH\": \"$(location {})\".format(hlo)},\n-        data = [hlo],\n-        real_hardware_only = True,\n-        deps = [\n-            \"//xla/tests/fuzz:hlo_test_lib\",\n-            \"@com_google_googletest//:gtest_main\",\n-        ],\n-        **kwargs\n-    )"
        },
        {
            "sha": "f669c606f63d0a1c617a56c67a3693cec048a0d5",
            "filename": "third_party/xla/xla/tests/fuzz/hlo_test_lib.cc",
            "status": "removed",
            "additions": 0,
            "deletions": 52,
            "changes": 52,
            "blob_url": "https://github.com/tensorflow/tensorflow/blob/fcd421e9df0946288cbb745ae7193b8b2795d00c/third_party%2Fxla%2Fxla%2Ftests%2Ffuzz%2Fhlo_test_lib.cc",
            "raw_url": "https://github.com/tensorflow/tensorflow/raw/fcd421e9df0946288cbb745ae7193b8b2795d00c/third_party%2Fxla%2Fxla%2Ftests%2Ffuzz%2Fhlo_test_lib.cc",
            "contents_url": "https://api.github.com/repos/tensorflow/tensorflow/contents/third_party%2Fxla%2Fxla%2Ftests%2Ffuzz%2Fhlo_test_lib.cc?ref=fcd421e9df0946288cbb745ae7193b8b2795d00c",
            "patch": "@@ -1,52 +0,0 @@\n-/* Copyright 2017 The OpenXLA Authors.\n-\n-Licensed under the Apache License, Version 2.0 (the \"License\");\n-you may not use this file except in compliance with the License.\n-You may obtain a copy of the License at\n-\n-    http://www.apache.org/licenses/LICENSE-2.0\n-\n-Unless required by applicable law or agreed to in writing, software\n-distributed under the License is distributed on an \"AS IS\" BASIS,\n-WITHOUT WARRANTIES OR CONDITIONS OF ANY KIND, either express or implied.\n-See the License for the specific language governing permissions and\n-limitations under the License.\n-==============================================================================*/\n-\n-#include <cstdlib>\n-#include <iostream>\n-#include <memory>\n-#include <ostream>\n-#include <string>\n-#include <utility>\n-\n-#include \"xla/error_spec.h\"\n-#include \"xla/hlo/testlib/verified_hlo_module.h\"\n-#include \"xla/service/hlo_module_config.h\"\n-#include \"xla/tests/hlo_pjrt_interpreter_reference_mixin.h\"\n-#include \"xla/tests/hlo_pjrt_test_base.h\"\n-#include \"xla/tsl/platform/env.h\"\n-#include \"xla/tsl/platform/status.h\"\n-#include \"xla/tsl/platform/statusor.h\"\n-#include \"xla/tsl/platform/test.h\"\n-\n-namespace xla {\n-namespace {\n-\n-class HloTest : public HloPjRtInterpreterReferenceMixin<HloPjRtTestBase> {};\n-\n-TEST_F(HloTest, HloTest) {\n-  std::string path_to_hlo = std::getenv(\"HLO_PATH\");\n-  std::cout << path_to_hlo << std::endl;\n-  std::string hlo;\n-  TF_CHECK_OK(tsl::ReadFileToString(tsl::Env::Default(), path_to_hlo, &hlo));\n-  std::cerr << hlo << std::endl;\n-  HloModuleConfig config;\n-\n-  TF_ASSERT_OK_AND_ASSIGN(std::unique_ptr<VerifiedHloModule> module,\n-                          ParseAndReturnVerifiedModule(hlo, config));\n-  EXPECT_TRUE(RunAndCompare(std::move(module), ErrorSpec{0.01, 0.01}));\n-}\n-\n-}  // namespace\n-}  // namespace xla"
        },
        {
            "sha": "18141540c126db4dde169fcd435aa2c73ca7d5d4",
            "filename": "third_party/xla/xla/tests/fuzz/rand_000000.hlo",
            "status": "removed",
            "additions": 0,
            "deletions": 16,
            "changes": 16,
            "blob_url": "https://github.com/tensorflow/tensorflow/blob/fcd421e9df0946288cbb745ae7193b8b2795d00c/third_party%2Fxla%2Fxla%2Ftests%2Ffuzz%2Frand_000000.hlo",
            "raw_url": "https://github.com/tensorflow/tensorflow/raw/fcd421e9df0946288cbb745ae7193b8b2795d00c/third_party%2Fxla%2Fxla%2Ftests%2Ffuzz%2Frand_000000.hlo",
            "contents_url": "https://api.github.com/repos/tensorflow/tensorflow/contents/third_party%2Fxla%2Fxla%2Ftests%2Ffuzz%2Frand_000000.hlo?ref=fcd421e9df0946288cbb745ae7193b8b2795d00c",
            "patch": "@@ -1,16 +0,0 @@\n-/* This file is autogenerated! Please don't edit! */\n-HloModule xla_computation_unknown, entry_computation_layout={(s8[10,1]{1,0},s8[10,1]{1,0})->(s8[10,1]{1,0})}\n-\n-ENTRY main.11 {\n-  Arg_0.1 = s8[10,1]{1,0} parameter(0)\n-  constant.3 = s8[] constant(1)\n-  broadcast.4 = s8[5,1]{1,0} broadcast(constant.3), dimensions={}\n-  constant.5 = s32[] constant(5)\n-  constant.6 = s32[] constant(0)\n-  dynamic-update-slice.7 = s8[10,1]{1,0} dynamic-update-slice(Arg_0.1, broadcast.4, constant.5, constant.6)\n-  Arg_1.2 = s8[10,1]{1,0} parameter(1)\n-  sign.8 = s8[10,1]{1,0} sign(Arg_1.2)\n-  maximum.9 = s8[10,1]{1,0} maximum(dynamic-update-slice.7, sign.8)\n-  ROOT tuple.10 = (s8[10,1]{1,0}) tuple(maximum.9)\n-}\n-"
        },
        {
            "sha": "87f3aa2ca63866fb14c7e191a515e67b63032c98",
            "filename": "third_party/xla/xla/tests/fuzz/rand_000001.hlo",
            "status": "removed",
            "additions": 0,
            "deletions": 40,
            "changes": 40,
            "blob_url": "https://github.com/tensorflow/tensorflow/blob/fcd421e9df0946288cbb745ae7193b8b2795d00c/third_party%2Fxla%2Fxla%2Ftests%2Ffuzz%2Frand_000001.hlo",
            "raw_url": "https://github.com/tensorflow/tensorflow/raw/fcd421e9df0946288cbb745ae7193b8b2795d00c/third_party%2Fxla%2Fxla%2Ftests%2Ffuzz%2Frand_000001.hlo",
            "contents_url": "https://api.github.com/repos/tensorflow/tensorflow/contents/third_party%2Fxla%2Fxla%2Ftests%2Ffuzz%2Frand_000001.hlo?ref=fcd421e9df0946288cbb745ae7193b8b2795d00c",
            "patch": "@@ -1,40 +0,0 @@\n-/* This file is autogenerated! Please don't edit! */\n-HloModule xla_computation_unknown, entry_computation_layout={(s16[8,12,16]{2,1,0},s32[1,3]{1,0},s32[3,11,2,4]{3,2,1,0},s16[3,3,11,2,1,9,4]{6,5,4,3,2,1,0})->(s16[8,12,16]{2,1,0})}\n-\n-region_0.21 {\n-  Arg_0.22 = s16[] parameter(0)\n-  ROOT Arg_1.23 = s16[] parameter(1)\n-}\n-\n-region_1.26 {\n-  Arg_0.27 = s16[] parameter(0)\n-  ROOT Arg_1.28 = s16[] parameter(1)\n-}\n-\n-ENTRY main.31 {\n-  Arg_0.1 = s16[8,12,16]{2,1,0} parameter(0)\n-  constant.11 = s16[] constant(1)\n-  broadcast.12 = s16[8,12,16]{2,1,0} broadcast(constant.11), dimensions={}\n-  and.17 = s16[8,12,16]{2,1,0} and(Arg_0.1, broadcast.12)\n-  constant.5 = s32[] constant(0)\n-  broadcast.6 = s32[1,3]{1,0} broadcast(constant.5), dimensions={}\n-  Arg_1.2 = s32[1,3]{1,0} parameter(1)\n-  constant.13 = s32[] constant(1)\n-  broadcast.14 = s32[1,3]{1,0} broadcast(constant.13), dimensions={}\n-  shift-right-logical.18 = s32[1,3]{1,0} shift-right-logical(Arg_1.2, broadcast.14)\n-  constant.7 = s32[1,3]{1,0} constant({ { 1, 1, 5 } })\n-  clamp.25 = s32[1,3]{1,0} clamp(broadcast.6, shift-right-logical.18, constant.7)\n-  constant.15 = s16[] constant(1)\n-  broadcast.16 = s16[3,1,11,15]{3,2,1,0} broadcast(constant.15), dimensions={}\n-  constant.8 = s32[] constant(0)\n-  broadcast.9 = s32[3,11,2,4]{3,2,1,0} broadcast(constant.8), dimensions={}\n-  Arg_2.3 = s32[3,11,2,4]{3,2,1,0} parameter(2)\n-  constant.10 = s32[4]{0} constant({2, 0, 11, 0})\n-  broadcast.19 = s32[3,11,2,4]{3,2,1,0} broadcast(constant.10), dimensions={3}\n-  clamp.20 = s32[3,11,2,4]{3,2,1,0} clamp(broadcast.9, Arg_2.3, broadcast.19)\n-  Arg_3.4 = s16[3,3,11,2,1,9,4]{6,5,4,3,2,1,0} parameter(3)\n-  scatter.24 = s16[3,1,11,15]{3,2,1,0} scatter(broadcast.16, clamp.20, Arg_3.4), update_window_dims={1,4,5,6}, inserted_window_dims={}, scatter_dims_to_operand_dims={2,0,3,1}, index_vector_dim=3, to_apply=region_0.21\n-  scatter.29 = s16[8,12,16]{2,1,0} scatter(and.17, clamp.25, scatter.24), update_window_dims={0,2,3}, inserted_window_dims={}, scatter_dims_to_operand_dims={1,2,0}, index_vector_dim=1, to_apply=region_1.26\n-  ROOT tuple.30 = (s16[8,12,16]{2,1,0}) tuple(scatter.29)\n-}\n-"
        },
        {
            "sha": "970fb8e69543cb0fc050ed37c90f78fb13fcceaf",
            "filename": "third_party/xla/xla/tests/fuzz/rand_000003.hlo",
            "status": "removed",
            "additions": 0,
            "deletions": 24,
            "changes": 24,
            "blob_url": "https://github.com/tensorflow/tensorflow/blob/fcd421e9df0946288cbb745ae7193b8b2795d00c/third_party%2Fxla%2Fxla%2Ftests%2Ffuzz%2Frand_000003.hlo",
            "raw_url": "https://github.com/tensorflow/tensorflow/raw/fcd421e9df0946288cbb745ae7193b8b2795d00c/third_party%2Fxla%2Fxla%2Ftests%2Ffuzz%2Frand_000003.hlo",
            "contents_url": "https://api.github.com/repos/tensorflow/tensorflow/contents/third_party%2Fxla%2Fxla%2Ftests%2Ffuzz%2Frand_000003.hlo?ref=fcd421e9df0946288cbb745ae7193b8b2795d00c",
            "patch": "@@ -1,24 +0,0 @@\n-/* This file is autogenerated! Please don't edit! */\n-HloModule xla_computation_unknown, entry_computation_layout={(s32[6,11,8,2]{3,2,1,0},s16[6,11,8,3,5]{4,3,2,1,0})->(s16[3,2,2,14,16]{4,3,2,1,0})}\n-\n-region_0.10 {\n-  Arg_0.11 = s16[] parameter(0)\n-  Arg_1.12 = s16[] parameter(1)\n-  ROOT maximum.13 = s16[] maximum(Arg_0.11, Arg_1.12)\n-}\n-\n-ENTRY main.17 {\n-  constant.3 = s16[] constant(1)\n-  broadcast.4 = s16[3,2,2,14,16]{4,3,2,1,0} broadcast(constant.3), dimensions={}\n-  constant.5 = s32[] constant(0)\n-  broadcast.6 = s32[6,11,8,2]{3,2,1,0} broadcast(constant.5), dimensions={}\n-  Arg_0.1 = s32[6,11,8,2]{3,2,1,0} parameter(0)\n-  constant.7 = s32[2]{0} constant({11, 0})\n-  broadcast.8 = s32[6,11,8,2]{3,2,1,0} broadcast(constant.7), dimensions={3}\n-  clamp.9 = s32[6,11,8,2]{3,2,1,0} clamp(broadcast.6, Arg_0.1, broadcast.8)\n-  Arg_1.2 = s16[6,11,8,3,5]{4,3,2,1,0} parameter(1)\n-  scatter.14 = s16[3,2,2,14,16]{4,3,2,1,0} scatter(broadcast.4, clamp.9, Arg_1.2), update_window_dims={3,4}, inserted_window_dims={1,2,3}, scatter_dims_to_operand_dims={4,0}, index_vector_dim=3, to_apply=region_0.10\n-  shift-right-arithmetic.15 = s16[3,2,2,14,16]{4,3,2,1,0} shift-right-arithmetic(scatter.14, broadcast.4)\n-  ROOT tuple.16 = (s16[3,2,2,14,16]{4,3,2,1,0}) tuple(shift-right-arithmetic.15)\n-}\n-"
        },
        {
            "sha": "54d5459a21264d1e66186f5e81fb7063e1cf0c13",
            "filename": "third_party/xla/xla/tests/fuzz/rand_000004.hlo",
            "status": "removed",
            "additions": 0,
            "deletions": 17,
            "changes": 17,
            "blob_url": "https://github.com/tensorflow/tensorflow/blob/fcd421e9df0946288cbb745ae7193b8b2795d00c/third_party%2Fxla%2Fxla%2Ftests%2Ffuzz%2Frand_000004.hlo",
            "raw_url": "https://github.com/tensorflow/tensorflow/raw/fcd421e9df0946288cbb745ae7193b8b2795d00c/third_party%2Fxla%2Fxla%2Ftests%2Ffuzz%2Frand_000004.hlo",
            "contents_url": "https://api.github.com/repos/tensorflow/tensorflow/contents/third_party%2Fxla%2Fxla%2Ftests%2Ffuzz%2Frand_000004.hlo?ref=fcd421e9df0946288cbb745ae7193b8b2795d00c",
            "patch": "@@ -1,17 +0,0 @@\n-/* This file is autogenerated! Please don't edit! */\n-HloModule xla_computation_unknown, entry_computation_layout={(s32[9,8,1,5,16]{4,3,2,1,0})->(s32[7,11,11,8,15]{4,3,2,1,0})}\n-\n-region_0.4 {\n-  Arg_0.5 = s32[] parameter(0)\n-  Arg_1.6 = s32[] parameter(1)\n-  ROOT maximum.7 = s32[] maximum(Arg_0.5, Arg_1.6)\n-}\n-\n-ENTRY main.10 {\n-  Arg_0.1 = s32[9,8,1,5,16]{4,3,2,1,0} parameter(0)\n-  abs.3 = s32[9,8,1,5,16]{4,3,2,1,0} abs(Arg_0.1)\n-  constant.2 = s32[] constant(-2147483648)\n-  reduce-window.8 = s32[7,11,11,8,15]{4,3,2,1,0} reduce-window(abs.3, constant.2), window={size=6x12x2x2x13 pad=2_6x6_1x4_7x3_4x6_5 lhs_dilate=1x2x4x1x1 rhs_dilate=2x1x1x4x1}, to_apply=region_0.4\n-  ROOT tuple.9 = (s32[7,11,11,8,15]{4,3,2,1,0}) tuple(reduce-window.8)\n-}\n-"
        },
        {
            "sha": "ac5cdc4ae8ebff2bba82c568594f9dc9e826bd6c",
            "filename": "third_party/xla/xla/tests/fuzz/rand_000005.hlo",
            "status": "removed",
            "additions": 0,
            "deletions": 38,
            "changes": 38,
            "blob_url": "https://github.com/tensorflow/tensorflow/blob/fcd421e9df0946288cbb745ae7193b8b2795d00c/third_party%2Fxla%2Fxla%2Ftests%2Ffuzz%2Frand_000005.hlo",
            "raw_url": "https://github.com/tensorflow/tensorflow/raw/fcd421e9df0946288cbb745ae7193b8b2795d00c/third_party%2Fxla%2Fxla%2Ftests%2Ffuzz%2Frand_000005.hlo",
            "contents_url": "https://api.github.com/repos/tensorflow/tensorflow/contents/third_party%2Fxla%2Fxla%2Ftests%2Ffuzz%2Frand_000005.hlo?ref=fcd421e9df0946288cbb745ae7193b8b2795d00c",
            "patch": "@@ -1,38 +0,0 @@\n-/* This file is autogenerated! Please don't edit! */\n-HloModule xla_computation_unknown, entry_computation_layout={(u16[5,3,2,12,3,6]{5,4,3,2,1,0},s32[6,2]{1,0},u16[6,3,1]{2,1,0},u16[6,3,1]{2,1,0})->(u16[6,3,12,14,3]{4,3,2,1,0})}\n-\n-region_0.15 {\n-  Arg_0.16 = u16[] parameter(0)\n-  ROOT Arg_1.17 = u16[] parameter(1)\n-}\n-\n-region_1.23 {\n-  Arg_0.24 = u16[] parameter(0)\n-  Arg_1.25 = u16[] parameter(1)\n-  ROOT minimum.26 = u16[] minimum(Arg_0.24, Arg_1.25)\n-}\n-\n-ENTRY main.29 {\n-  constant.5 = u16[] constant(1)\n-  broadcast.6 = u16[6,3,12,14,3]{4,3,2,1,0} broadcast(constant.5), dimensions={}\n-  constant.7 = s32[] constant(1)\n-  broadcast.8 = s32[6,5]{1,0} broadcast(constant.7), dimensions={}\n-  Arg_0.1 = u16[5,3,2,12,3,6]{5,4,3,2,1,0} parameter(0)\n-  scatter.18 = u16[6,3,12,14,3]{4,3,2,1,0} scatter(broadcast.6, broadcast.8, Arg_0.1), update_window_dims={0,1,2,3,4}, inserted_window_dims={}, scatter_dims_to_operand_dims={3,2,0,4,1}, index_vector_dim=1, to_apply=region_0.15\n-  Arg_1.2 = s32[6,2]{1,0} parameter(1)\n-  constant.9 = s32[] constant(1)\n-  broadcast.10 = s32[6,2]{1,0} broadcast(constant.9), dimensions={}\n-  xor.19 = s32[6,2]{1,0} xor(Arg_1.2, broadcast.10)\n-  Arg_2.3 = u16[6,3,1]{2,1,0} parameter(2)\n-  constant.11 = u16[] constant(0)\n-  broadcast.12 = u16[6,3,1]{2,1,0} broadcast(constant.11), dimensions={}\n-  Arg_3.4 = u16[6,3,1]{2,1,0} parameter(3)\n-  compare.20 = pred[6,3,1]{2,1,0} compare(broadcast.12, Arg_3.4), direction=EQ\n-  constant.13 = u16[] constant(1)\n-  broadcast.14 = u16[6,3,1]{2,1,0} broadcast(constant.13), dimensions={}\n-  select.21 = u16[6,3,1]{2,1,0} select(compare.20, broadcast.14, Arg_3.4)\n-  divide.22 = u16[6,3,1]{2,1,0} divide(Arg_2.3, select.21)\n-  scatter.27 = u16[6,3,12,14,3]{4,3,2,1,0} scatter(scatter.18, xor.19, divide.22), update_window_dims={1,2}, inserted_window_dims={2,3,4}, scatter_dims_to_operand_dims={4,0}, index_vector_dim=1, to_apply=region_1.23\n-  ROOT tuple.28 = (u16[6,3,12,14,3]{4,3,2,1,0}) tuple(scatter.27)\n-}\n-"
        },
        {
            "sha": "c509094781f3da6c57389043a257e6cc4b67fb94",
            "filename": "third_party/xla/xla/tests/fuzz/rand_000006.hlo",
            "status": "removed",
            "additions": 0,
            "deletions": 20,
            "changes": 20,
            "blob_url": "https://github.com/tensorflow/tensorflow/blob/fcd421e9df0946288cbb745ae7193b8b2795d00c/third_party%2Fxla%2Fxla%2Ftests%2Ffuzz%2Frand_000006.hlo",
            "raw_url": "https://github.com/tensorflow/tensorflow/raw/fcd421e9df0946288cbb745ae7193b8b2795d00c/third_party%2Fxla%2Fxla%2Ftests%2Ffuzz%2Frand_000006.hlo",
            "contents_url": "https://api.github.com/repos/tensorflow/tensorflow/contents/third_party%2Fxla%2Fxla%2Ftests%2Ffuzz%2Frand_000006.hlo?ref=fcd421e9df0946288cbb745ae7193b8b2795d00c",
            "patch": "@@ -1,20 +0,0 @@\n-/* This file is autogenerated! Please don't edit! */\n-HloModule xla_computation_unknown, entry_computation_layout={()->(u8[4]{0})}\n-\n-region_0.6 {\n-  Arg_0.7 = u8[] parameter(0)\n-  Arg_1.8 = u8[] parameter(1)\n-  ROOT multiply.9 = u8[] multiply(Arg_0.7, Arg_1.8)\n-}\n-\n-ENTRY main.13 {\n-  constant.1 = u8[] constant(1)\n-  broadcast.2 = u8[14,4,5,6,1]{4,3,2,1,0} broadcast(constant.1), dimensions={}\n-  constant.5 = u8[] constant(1)\n-  reduce.10 = u8[4,1]{1,0} reduce(broadcast.2, constant.5), dimensions={0,2,3}, to_apply=region_0.6\n-  constant.3 = u8[] constant(1)\n-  broadcast.4 = u8[4,1]{1,0} broadcast(constant.3), dimensions={}\n-  dot.11 = u8[4]{0} dot(reduce.10, broadcast.4), lhs_batch_dims={0}, lhs_contracting_dims={1}, rhs_batch_dims={0}, rhs_contracting_dims={1}\n-  ROOT tuple.12 = (u8[4]{0}) tuple(dot.11)\n-}\n-"
        },
        {
            "sha": "a71e77bd92f501db3683ae5c5c5af4ce04db2a02",
            "filename": "third_party/xla/xla/tests/fuzz/rand_000007.hlo",
            "status": "removed",
            "additions": 0,
            "deletions": 53,
            "changes": 53,
            "blob_url": "https://github.com/tensorflow/tensorflow/blob/fcd421e9df0946288cbb745ae7193b8b2795d00c/third_party%2Fxla%2Fxla%2Ftests%2Ffuzz%2Frand_000007.hlo",
            "raw_url": "https://github.com/tensorflow/tensorflow/raw/fcd421e9df0946288cbb745ae7193b8b2795d00c/third_party%2Fxla%2Fxla%2Ftests%2Ffuzz%2Frand_000007.hlo",
            "contents_url": "https://api.github.com/repos/tensorflow/tensorflow/contents/third_party%2Fxla%2Fxla%2Ftests%2Ffuzz%2Frand_000007.hlo?ref=fcd421e9df0946288cbb745ae7193b8b2795d00c",
            "patch": "@@ -1,53 +0,0 @@\n-/* This file is autogenerated! Please don't edit! */\n-HloModule xla_computation_unknown, entry_computation_layout={(pred[])->(u16[7,11,11,3]{3,2,1,0})}\n-\n-region_1.9 {\n-  Arg_0.10 = s32[] parameter(0)\n-  Arg_1.11 = s32[] parameter(1)\n-  ROOT add.12 = s32[] add(Arg_0.10, Arg_1.11)\n-}\n-\n-region_0.13 {\n-  arg_empty_tuple.14 = () parameter(0)\n-  constant.16 = s32[] constant(1)\n-  broadcast.17 = s32[5]{0} broadcast(constant.16), dimensions={}\n-  constant.15 = s32[] constant(0)\n-  reduce.18 = s32[] reduce(broadcast.17, constant.15), dimensions={0}, to_apply=region_1.9\n-  ROOT broadcast.19 = s32[4]{0} broadcast(reduce.18), dimensions={}\n-}\n-\n-region_3.20 {\n-  Arg_0.21 = s32[] parameter(0)\n-  Arg_1.22 = s32[] parameter(1)\n-  ROOT add.23 = s32[] add(Arg_0.21, Arg_1.22)\n-}\n-\n-region_2.24 {\n-  arg_empty_tuple.25 = () parameter(0)\n-  constant.27 = s32[] constant(1)\n-  broadcast.28 = s32[5]{0} broadcast(constant.27), dimensions={}\n-  constant.26 = s32[] constant(0)\n-  reduce.29 = s32[] reduce(broadcast.28, constant.26), dimensions={0}, to_apply=region_3.20\n-  ROOT broadcast.30 = s32[4]{0} broadcast(reduce.29), dimensions={}\n-}\n-\n-region_4.32 {\n-  Arg_0.33 = u16[] parameter(0)\n-  Arg_1.34 = u16[] parameter(1)\n-  ROOT multiply.35 = u16[] multiply(Arg_0.33, Arg_1.34)\n-}\n-\n-ENTRY main.38 {\n-  constant.4 = u16[] constant(1)\n-  broadcast.5 = u16[7,11,11,3]{3,2,1,0} broadcast(constant.4), dimensions={}\n-  Arg_0.1 = pred[] parameter(0)\n-  convert.6 = s32[] convert(Arg_0.1)\n-  tuple.7 = () tuple()\n-  tuple.8 = () tuple()\n-  conditional.31 = s32[4]{0} conditional(convert.6, tuple.7, tuple.8), branch_computations={region_0.13, region_2.24}\n-  constant.2 = u16[] constant(1)\n-  broadcast.3 = u16[6,8,7,2]{3,2,1,0} broadcast(constant.2), dimensions={}\n-  scatter.36 = u16[7,11,11,3]{3,2,1,0} scatter(broadcast.5, conditional.31, broadcast.3), update_window_dims={0,1,2,3}, inserted_window_dims={}, scatter_dims_to_operand_dims={2,0,1,3}, index_vector_dim=0, to_apply=region_4.32\n-  ROOT tuple.37 = (u16[7,11,11,3]{3,2,1,0}) tuple(scatter.36)\n-}\n-"
        },
        {
            "sha": "e241a7eceb0d04133ac213b2c5a0ea6fbfd7330b",
            "filename": "third_party/xla/xla/tests/fuzz/rand_000008.hlo",
            "status": "removed",
            "additions": 0,
            "deletions": 128,
            "changes": 128,
            "blob_url": "https://github.com/tensorflow/tensorflow/blob/fcd421e9df0946288cbb745ae7193b8b2795d00c/third_party%2Fxla%2Fxla%2Ftests%2Ffuzz%2Frand_000008.hlo",
            "raw_url": "https://github.com/tensorflow/tensorflow/raw/fcd421e9df0946288cbb745ae7193b8b2795d00c/third_party%2Fxla%2Fxla%2Ftests%2Ffuzz%2Frand_000008.hlo",
            "contents_url": "https://api.github.com/repos/tensorflow/tensorflow/contents/third_party%2Fxla%2Fxla%2Ftests%2Ffuzz%2Frand_000008.hlo?ref=fcd421e9df0946288cbb745ae7193b8b2795d00c",
            "patch": "@@ -1,128 +0,0 @@\n-/* This file is autogenerated! Please don't edit! */\n-HloModule xla_computation_unknown, entry_computation_layout={(f16[16,2,11]{2,1,0})->(f16[13,2]{1,0})}\n-\n-region_0.115 {\n-  Arg_0.116 = f16[] parameter(0)\n-  Arg_1.117 = f16[] parameter(1)\n-  ROOT minimum.118 = f16[] minimum(Arg_0.116, Arg_1.117)\n-}\n-\n-ENTRY main.121 {\n-  constant.4 = f16[] constant(1)\n-  broadcast.5 = f16[13,2]{1,0} broadcast(constant.4), dimensions={}\n-  log-plus-one.54 = f16[13,2]{1,0} log-plus-one(broadcast.5)\n-  constant.2 = s32[] constant(0)\n-  broadcast.3 = s32[16,11,1]{2,1,0} broadcast(constant.2), dimensions={}\n-  Arg_0.1 = f16[16,2,11]{2,1,0} parameter(0)\n-  constant.52 = f16[] constant(0.0078125)\n-  broadcast.53 = f16[16,2,11]{2,1,0} broadcast(constant.52), dimensions={}\n-  maximum.55 = f16[16,2,11]{2,1,0} maximum(Arg_0.1, broadcast.53)\n-  convert.56 = f32[16,2,11]{2,1,0} convert(maximum.55)\n-  abs.111 = f32[16,2,11]{2,1,0} abs(convert.56)\n-  constant.6 = f32[] constant(inf)\n-  broadcast.7 = f32[16,2,11]{2,1,0} broadcast(constant.6), dimensions={}\n-  compare.112 = pred[16,2,11]{2,1,0} compare(abs.111, broadcast.7), direction=EQ\n-  constant.50 = f32[] constant(0.5)\n-  broadcast.51 = f32[16,2,11]{2,1,0} broadcast(constant.50), dimensions={}\n-  compare.57 = pred[16,2,11]{2,1,0} compare(convert.56, broadcast.51), direction=LT\n-  abs.96 = f32[16,2,11]{2,1,0} abs(convert.56)\n-  floor.97 = f32[16,2,11]{2,1,0} floor(abs.96)\n-  subtract.98 = f32[16,2,11]{2,1,0} subtract(abs.96, floor.97)\n-  compare.99 = pred[16,2,11]{2,1,0} compare(broadcast.51, subtract.98), direction=LT\n-  constant.48 = f32[] constant(1)\n-  broadcast.49 = f32[16,2,11]{2,1,0} broadcast(constant.48), dimensions={}\n-  subtract.100 = f32[16,2,11]{2,1,0} subtract(broadcast.49, subtract.98)\n-  select.101 = f32[16,2,11]{2,1,0} select(compare.99, subtract.100, subtract.98)\n-  constant.10 = f32[] constant(3.14159274)\n-  broadcast.11 = f32[16,2,11]{2,1,0} broadcast(constant.10), dimensions={}\n-  multiply.102 = f32[16,2,11]{2,1,0} multiply(select.101, broadcast.11)\n-  sine.103 = f32[16,2,11]{2,1,0} sine(multiply.102)\n-  log.104 = f32[16,2,11]{2,1,0} log(sine.103)\n-  is-finite.107 = pred[16,2,11]{2,1,0} is-finite(log.104)\n-  constant.8 = f32[] constant(1.14472985)\n-  broadcast.9 = f32[16,2,11]{2,1,0} broadcast(constant.8), dimensions={}\n-  subtract.105 = f32[16,2,11]{2,1,0} subtract(broadcast.9, log.104)\n-  negate.58 = f32[16,2,11]{2,1,0} negate(convert.56)\n-  subtract.59 = f32[16,2,11]{2,1,0} subtract(convert.56, broadcast.49)\n-  select.60 = f32[16,2,11]{2,1,0} select(compare.57, negate.58, subtract.59)\n-  add.90 = f32[16,2,11]{2,1,0} add(select.60, broadcast.51)\n-  constant.16 = f32[] constant(7.5)\n-  broadcast.17 = f32[16,2,11]{2,1,0} broadcast(constant.16), dimensions={}\n-  add.85 = f32[16,2,11]{2,1,0} add(select.60, broadcast.17)\n-  divide.86 = f32[16,2,11]{2,1,0} divide(select.60, broadcast.17)\n-  log-plus-one.87 = f32[16,2,11]{2,1,0} log-plus-one(divide.86)\n-  constant.14 = f32[] constant(2.01490307)\n-  broadcast.15 = f32[16,2,11]{2,1,0} broadcast(constant.14), dimensions={}\n-  add.88 = f32[16,2,11]{2,1,0} add(log-plus-one.87, broadcast.15)\n-  divide.89 = f32[16,2,11]{2,1,0} divide(add.85, add.88)\n-  subtract.91 = f32[16,2,11]{2,1,0} subtract(add.90, divide.89)\n-  multiply.92 = f32[16,2,11]{2,1,0} multiply(subtract.91, add.88)\n-  constant.12 = f32[] constant(0.918938518)\n-  broadcast.13 = f32[16,2,11]{2,1,0} broadcast(constant.12), dimensions={}\n-  add.94 = f32[16,2,11]{2,1,0} add(multiply.92, broadcast.13)\n-  constant.46 = f32[] constant(676.520386)\n-  broadcast.47 = f32[16,2,11]{2,1,0} broadcast(constant.46), dimensions={}\n-  add.61 = f32[16,2,11]{2,1,0} add(select.60, broadcast.49)\n-  divide.62 = f32[16,2,11]{2,1,0} divide(broadcast.47, add.61)\n-  add.63 = f32[16,2,11]{2,1,0} add(divide.62, broadcast.49)\n-  constant.44 = f32[] constant(-1259.13916)\n-  broadcast.45 = f32[16,2,11]{2,1,0} broadcast(constant.44), dimensions={}\n-  constant.42 = f32[] constant(2)\n-  broadcast.43 = f32[16,2,11]{2,1,0} broadcast(constant.42), dimensions={}\n-  add.64 = f32[16,2,11]{2,1,0} add(select.60, broadcast.43)\n-  divide.65 = f32[16,2,11]{2,1,0} divide(broadcast.45, add.64)\n-  add.66 = f32[16,2,11]{2,1,0} add(add.63, divide.65)\n-  constant.40 = f32[] constant(771.323425)\n-  broadcast.41 = f32[16,2,11]{2,1,0} broadcast(constant.40), dimensions={}\n-  constant.38 = f32[] constant(3)\n-  broadcast.39 = f32[16,2,11]{2,1,0} broadcast(constant.38), dimensions={}\n-  add.67 = f32[16,2,11]{2,1,0} add(select.60, broadcast.39)\n-  divide.68 = f32[16,2,11]{2,1,0} divide(broadcast.41, add.67)\n-  add.69 = f32[16,2,11]{2,1,0} add(add.66, divide.68)\n-  constant.36 = f32[] constant(-176.615036)\n-  broadcast.37 = f32[16,2,11]{2,1,0} broadcast(constant.36), dimensions={}\n-  constant.34 = f32[] constant(4)\n-  broadcast.35 = f32[16,2,11]{2,1,0} broadcast(constant.34), dimensions={}\n-  add.70 = f32[16,2,11]{2,1,0} add(select.60, broadcast.35)\n-  divide.71 = f32[16,2,11]{2,1,0} divide(broadcast.37, add.70)\n-  add.72 = f32[16,2,11]{2,1,0} add(add.69, divide.71)\n-  constant.32 = f32[] constant(12.5073433)\n-  broadcast.33 = f32[16,2,11]{2,1,0} broadcast(constant.32), dimensions={}\n-  constant.30 = f32[] constant(5)\n-  broadcast.31 = f32[16,2,11]{2,1,0} broadcast(constant.30), dimensions={}\n-  add.73 = f32[16,2,11]{2,1,0} add(select.60, broadcast.31)\n-  divide.74 = f32[16,2,11]{2,1,0} divide(broadcast.33, add.73)\n-  add.75 = f32[16,2,11]{2,1,0} add(add.72, divide.74)\n-  constant.28 = f32[] constant(-0.138571098)\n-  broadcast.29 = f32[16,2,11]{2,1,0} broadcast(constant.28), dimensions={}\n-  constant.26 = f32[] constant(6)\n-  broadcast.27 = f32[16,2,11]{2,1,0} broadcast(constant.26), dimensions={}\n-  add.76 = f32[16,2,11]{2,1,0} add(select.60, broadcast.27)\n-  divide.77 = f32[16,2,11]{2,1,0} divide(broadcast.29, add.76)\n-  add.78 = f32[16,2,11]{2,1,0} add(add.75, divide.77)\n-  constant.24 = f32[] constant(9.98436917e-06)\n-  broadcast.25 = f32[16,2,11]{2,1,0} broadcast(constant.24), dimensions={}\n-  constant.22 = f32[] constant(7)\n-  broadcast.23 = f32[16,2,11]{2,1,0} broadcast(constant.22), dimensions={}\n-  add.79 = f32[16,2,11]{2,1,0} add(select.60, broadcast.23)\n-  divide.80 = f32[16,2,11]{2,1,0} divide(broadcast.25, add.79)\n-  add.81 = f32[16,2,11]{2,1,0} add(add.78, divide.80)\n-  constant.20 = f32[] constant(1.50563267e-07)\n-  broadcast.21 = f32[16,2,11]{2,1,0} broadcast(constant.20), dimensions={}\n-  constant.18 = f32[] constant(8)\n-  broadcast.19 = f32[16,2,11]{2,1,0} broadcast(constant.18), dimensions={}\n-  add.82 = f32[16,2,11]{2,1,0} add(select.60, broadcast.19)\n-  divide.83 = f32[16,2,11]{2,1,0} divide(broadcast.21, add.82)\n-  add.84 = f32[16,2,11]{2,1,0} add(add.81, divide.83)\n-  log.93 = f32[16,2,11]{2,1,0} log(add.84)\n-  add.95 = f32[16,2,11]{2,1,0} add(add.94, log.93)\n-  subtract.106 = f32[16,2,11]{2,1,0} subtract(subtract.105, add.95)\n-  negate.108 = f32[16,2,11]{2,1,0} negate(log.104)\n-  select.109 = f32[16,2,11]{2,1,0} select(is-finite.107, subtract.106, negate.108)\n-  select.110 = f32[16,2,11]{2,1,0} select(compare.57, select.109, add.95)\n-  select.113 = f32[16,2,11]{2,1,0} select(compare.112, broadcast.7, select.110)\n-  convert.114 = f16[16,2,11]{2,1,0} convert(select.113)\n-  scatter.119 = f16[13,2]{1,0} scatter(log-plus-one.54, broadcast.3, convert.114), update_window_dims={1}, inserted_window_dims={0}, scatter_dims_to_operand_dims={1}, index_vector_dim=2, to_apply=region_0.115\n-  ROOT tuple.120 = (f16[13,2]{1,0}) tuple(scatter.119)\n-}\n-"
        },
        {
            "sha": "df67d82e5dd521f5e325bc33958eae6d5f0a1da7",
            "filename": "third_party/xla/xla/tests/fuzz/rand_000009.hlo",
            "status": "removed",
            "additions": 0,
            "deletions": 254,
            "changes": 254,
            "blob_url": "https://github.com/tensorflow/tensorflow/blob/fcd421e9df0946288cbb745ae7193b8b2795d00c/third_party%2Fxla%2Fxla%2Ftests%2Ffuzz%2Frand_000009.hlo",
            "raw_url": "https://github.com/tensorflow/tensorflow/raw/fcd421e9df0946288cbb745ae7193b8b2795d00c/third_party%2Fxla%2Fxla%2Ftests%2Ffuzz%2Frand_000009.hlo",
            "contents_url": "https://api.github.com/repos/tensorflow/tensorflow/contents/third_party%2Fxla%2Fxla%2Ftests%2Ffuzz%2Frand_000009.hlo?ref=fcd421e9df0946288cbb745ae7193b8b2795d00c",
            "patch": "@@ -1,254 +0,0 @@\n-/* This file is autogenerated! Please don't edit! */\n-HloModule xla_computation_unknown, entry_computation_layout={(bf16[])->(bf16[])}\n-\n-region_0.38 {\n-  arg_tuple.39 = (pred[], f32[], f32[], f32[], f32[], /*index=5*/f32[], f32[]) parameter(0)\n-  get-tuple-element.40 = pred[] get-tuple-element(arg_tuple.39), index=0\n-  get-tuple-element.42 = f32[] get-tuple-element(arg_tuple.39), index=2\n-  get-tuple-element.46 = f32[] get-tuple-element(arg_tuple.39), index=6\n-  get-tuple-element.41 = f32[] get-tuple-element(arg_tuple.39), index=1\n-  constant.48 = f32[] constant(1)\n-  add.49 = f32[] add(get-tuple-element.41, constant.48)\n-  divide.57 = f32[] divide(get-tuple-element.46, add.49)\n-  multiply.58 = f32[] multiply(get-tuple-element.42, divide.57)\n-  get-tuple-element.43 = f32[] get-tuple-element(arg_tuple.39), index=3\n-  add.59 = f32[] add(get-tuple-element.43, multiply.58)\n-  divide.60 = f32[] divide(multiply.58, add.59)\n-  constant.47 = f32[] constant(1.1920929e-07)\n-  compare.61 = pred[] compare(divide.60, constant.47), direction=GT\n-  and.62 = pred[] and(get-tuple-element.40, compare.61)\n-  select.63 = f32[] select(get-tuple-element.40, add.49, get-tuple-element.41)\n-  select.64 = f32[] select(get-tuple-element.40, multiply.58, get-tuple-element.42)\n-  select.65 = f32[] select(get-tuple-element.40, add.59, get-tuple-element.43)\n-  get-tuple-element.44 = f32[] get-tuple-element(arg_tuple.39), index=4\n-  divide.50 = f32[] divide(get-tuple-element.46, add.49)\n-  multiply.51 = f32[] multiply(get-tuple-element.44, divide.50)\n-  multiply.52 = f32[] multiply(get-tuple-element.42, get-tuple-element.46)\n-  multiply.53 = f32[] multiply(add.49, add.49)\n-  divide.54 = f32[] divide(multiply.52, multiply.53)\n-  subtract.55 = f32[] subtract(multiply.51, divide.54)\n-  select.66 = f32[] select(get-tuple-element.40, subtract.55, get-tuple-element.44)\n-  get-tuple-element.45 = f32[] get-tuple-element(arg_tuple.39), index=5\n-  add.56 = f32[] add(get-tuple-element.45, subtract.55)\n-  select.67 = f32[] select(get-tuple-element.40, add.56, get-tuple-element.45)\n-  ROOT tuple.68 = (pred[], f32[], f32[], f32[], f32[], /*index=5*/f32[], f32[]) tuple(and.62, select.63, select.64, select.65, select.66, select.67, get-tuple-element.46)\n-}\n-\n-region_1.69 {\n-  arg_tuple.70 = (pred[], f32[], f32[], f32[], f32[], /*index=5*/f32[], f32[]) parameter(0)\n-  ROOT get-tuple-element.71 = pred[] get-tuple-element(arg_tuple.70), index=0\n-  get-tuple-element.72 = f32[] get-tuple-element(arg_tuple.70), index=1\n-  get-tuple-element.73 = f32[] get-tuple-element(arg_tuple.70), index=2\n-  get-tuple-element.74 = f32[] get-tuple-element(arg_tuple.70), index=3\n-  get-tuple-element.75 = f32[] get-tuple-element(arg_tuple.70), index=4\n-  get-tuple-element.76 = f32[] get-tuple-element(arg_tuple.70), index=5\n-  get-tuple-element.77 = f32[] get-tuple-element(arg_tuple.70), index=6\n-}\n-\n-region_2.99 {\n-  arg_tuple.100 = (pred[], f32[], f32[], f32[], f32[], /*index=5*/f32[], f32[], f32[], f32[], f32[], /*index=10*/f32[], f32[], f32[], f32[], f32[]) parameter(0)\n-  get-tuple-element.101 = pred[] get-tuple-element(arg_tuple.100), index=0\n-  get-tuple-element.108 = f32[] get-tuple-element(arg_tuple.100), index=7\n-  get-tuple-element.105 = f32[] get-tuple-element(arg_tuple.100), index=4\n-  constant.119 = f32[] constant(2)\n-  add.123 = f32[] add(get-tuple-element.105, constant.119)\n-  multiply.128 = f32[] multiply(get-tuple-element.108, add.123)\n-  get-tuple-element.110 = f32[] get-tuple-element(arg_tuple.100), index=9\n-  get-tuple-element.104 = f32[] get-tuple-element(arg_tuple.100), index=3\n-  constant.120 = f32[] constant(1)\n-  add.122 = f32[] add(get-tuple-element.104, constant.120)\n-  get-tuple-element.106 = f32[] get-tuple-element(arg_tuple.100), index=5\n-  add.121 = f32[] add(get-tuple-element.106, constant.120)\n-  multiply.124 = f32[] multiply(add.122, add.121)\n-  multiply.129 = f32[] multiply(get-tuple-element.110, multiply.124)\n-  subtract.130 = f32[] subtract(multiply.128, multiply.129)\n-  constant.118 = f32[] constant(0)\n-  compare.131 = pred[] compare(subtract.130, constant.118), direction=NE\n-  get-tuple-element.102 = f32[] get-tuple-element(arg_tuple.100), index=1\n-  get-tuple-element.107 = f32[] get-tuple-element(arg_tuple.100), index=6\n-  multiply.125 = f32[] multiply(get-tuple-element.107, add.123)\n-  get-tuple-element.109 = f32[] get-tuple-element(arg_tuple.100), index=8\n-  multiply.126 = f32[] multiply(get-tuple-element.109, multiply.124)\n-  subtract.127 = f32[] subtract(multiply.125, multiply.126)\n-  divide.132 = f32[] divide(subtract.127, subtract.130)\n-  subtract.133 = f32[] subtract(get-tuple-element.102, divide.132)\n-  divide.134 = f32[] divide(subtract.133, divide.132)\n-  abs.135 = f32[] abs(divide.134)\n-  select.136 = f32[] select(compare.131, abs.135, constant.120)\n-  constant.116 = f32[] constant(1.1920929e-07)\n-  compare.172 = pred[] compare(select.136, constant.116), direction=GT\n-  and.173 = pred[] and(get-tuple-element.101, compare.172)\n-  select.137 = f32[] select(compare.131, divide.132, get-tuple-element.102)\n-  select.174 = f32[] select(get-tuple-element.101, select.137, get-tuple-element.102)\n-  get-tuple-element.103 = f32[] get-tuple-element(arg_tuple.100), index=2\n-  select.175 = f32[] select(get-tuple-element.101, select.136, get-tuple-element.103)\n-  select.176 = f32[] select(get-tuple-element.101, add.122, get-tuple-element.104)\n-  select.177 = f32[] select(get-tuple-element.101, add.123, get-tuple-element.105)\n-  abs.154 = f32[] abs(subtract.127)\n-  constant.117 = f32[] constant(8388608)\n-  compare.155 = pred[] compare(abs.154, constant.117), direction=GT\n-  multiply.158 = f32[] multiply(subtract.127, constant.116)\n-  select.159 = f32[] select(compare.155, multiply.158, subtract.127)\n-  select.178 = f32[] select(get-tuple-element.101, select.159, get-tuple-element.107)\n-  multiply.162 = f32[] multiply(subtract.130, constant.116)\n-  select.163 = f32[] select(compare.155, multiply.162, subtract.130)\n-  select.179 = f32[] select(get-tuple-element.101, select.163, get-tuple-element.108)\n-  multiply.156 = f32[] multiply(get-tuple-element.107, constant.116)\n-  select.157 = f32[] select(compare.155, multiply.156, get-tuple-element.107)\n-  select.180 = f32[] select(get-tuple-element.101, select.157, get-tuple-element.109)\n-  multiply.160 = f32[] multiply(get-tuple-element.108, constant.116)\n-  select.161 = f32[] select(compare.155, multiply.160, get-tuple-element.108)\n-  select.181 = f32[] select(get-tuple-element.101, select.161, get-tuple-element.110)\n-  get-tuple-element.113 = f32[] get-tuple-element(arg_tuple.100), index=12\n-  multiply.164 = f32[] multiply(get-tuple-element.113, constant.116)\n-  select.165 = f32[] select(compare.155, multiply.164, get-tuple-element.113)\n-  get-tuple-element.111 = f32[] get-tuple-element(arg_tuple.100), index=10\n-  select.182 = f32[] select(get-tuple-element.101, select.165, get-tuple-element.111)\n-  get-tuple-element.114 = f32[] get-tuple-element(arg_tuple.100), index=13\n-  multiply.166 = f32[] multiply(get-tuple-element.114, constant.116)\n-  select.167 = f32[] select(compare.155, multiply.166, get-tuple-element.114)\n-  get-tuple-element.112 = f32[] get-tuple-element(arg_tuple.100), index=11\n-  select.183 = f32[] select(get-tuple-element.101, select.167, get-tuple-element.112)\n-  multiply.138 = f32[] multiply(get-tuple-element.113, add.123)\n-  subtract.139 = f32[] subtract(multiply.138, get-tuple-element.107)\n-  multiply.140 = f32[] multiply(get-tuple-element.111, multiply.124)\n-  subtract.141 = f32[] subtract(subtract.139, multiply.140)\n-  multiply.142 = f32[] multiply(get-tuple-element.109, add.121)\n-  add.143 = f32[] add(subtract.141, multiply.142)\n-  multiply.168 = f32[] multiply(add.143, constant.116)\n-  select.169 = f32[] select(compare.155, multiply.168, add.143)\n-  select.184 = f32[] select(get-tuple-element.101, select.169, get-tuple-element.113)\n-  multiply.144 = f32[] multiply(get-tuple-element.114, add.123)\n-  subtract.145 = f32[] subtract(multiply.144, get-tuple-element.108)\n-  multiply.146 = f32[] multiply(get-tuple-element.112, multiply.124)\n-  subtract.147 = f32[] subtract(subtract.145, multiply.146)\n-  multiply.148 = f32[] multiply(get-tuple-element.110, add.121)\n-  add.149 = f32[] add(subtract.147, multiply.148)\n-  multiply.170 = f32[] multiply(add.149, constant.116)\n-  select.171 = f32[] select(compare.155, multiply.170, add.149)\n-  select.185 = f32[] select(get-tuple-element.101, select.171, get-tuple-element.114)\n-  multiply.150 = f32[] multiply(select.137, add.149)\n-  subtract.151 = f32[] subtract(add.143, multiply.150)\n-  divide.152 = f32[] divide(subtract.151, subtract.130)\n-  get-tuple-element.115 = f32[] get-tuple-element(arg_tuple.100), index=14\n-  select.153 = f32[] select(compare.131, divide.152, get-tuple-element.115)\n-  select.186 = f32[] select(get-tuple-element.101, select.153, get-tuple-element.115)\n-  ROOT tuple.187 = (pred[], f32[], f32[], f32[], f32[], /*index=5*/f32[], f32[], f32[], f32[], f32[], /*index=10*/f32[], f32[], f32[], f32[], f32[]) tuple(and.173, select.174, select.175, select.176, select.177, add.121, select.178, select.179, select.180, select.181, select.182, select.183, select.184, select.185, select.186)\n-}\n-\n-region_3.188 {\n-  arg_tuple.189 = (pred[], f32[], f32[], f32[], f32[], /*index=5*/f32[], f32[], f32[], f32[], f32[], /*index=10*/f32[], f32[], f32[], f32[], f32[]) parameter(0)\n-  get-tuple-element.191 = f32[] get-tuple-element(arg_tuple.189), index=1\n-  get-tuple-element.192 = f32[] get-tuple-element(arg_tuple.189), index=2\n-  get-tuple-element.193 = f32[] get-tuple-element(arg_tuple.189), index=3\n-  get-tuple-element.194 = f32[] get-tuple-element(arg_tuple.189), index=4\n-  get-tuple-element.196 = f32[] get-tuple-element(arg_tuple.189), index=6\n-  get-tuple-element.197 = f32[] get-tuple-element(arg_tuple.189), index=7\n-  get-tuple-element.198 = f32[] get-tuple-element(arg_tuple.189), index=8\n-  get-tuple-element.199 = f32[] get-tuple-element(arg_tuple.189), index=9\n-  get-tuple-element.200 = f32[] get-tuple-element(arg_tuple.189), index=10\n-  get-tuple-element.201 = f32[] get-tuple-element(arg_tuple.189), index=11\n-  get-tuple-element.202 = f32[] get-tuple-element(arg_tuple.189), index=12\n-  get-tuple-element.203 = f32[] get-tuple-element(arg_tuple.189), index=13\n-  get-tuple-element.204 = f32[] get-tuple-element(arg_tuple.189), index=14\n-  get-tuple-element.195 = f32[] get-tuple-element(arg_tuple.189), index=5\n-  constant.205 = f32[] constant(2000)\n-  compare.206 = pred[] compare(get-tuple-element.195, constant.205), direction=LT\n-  get-tuple-element.190 = pred[] get-tuple-element(arg_tuple.189), index=0\n-  ROOT and.207 = pred[] and(compare.206, get-tuple-element.190)\n-}\n-\n-ENTRY main.241 {\n-  Arg_0.1 = bf16[] parameter(0)\n-  constant.15 = bf16[] constant(0)\n-  maximum.16 = bf16[] maximum(Arg_0.1, constant.15)\n-  convert.17 = f32[] convert(maximum.16)\n-  constant.2 = f32[] constant(0)\n-  compare.18 = pred[] compare(convert.17, constant.2), direction=LE\n-  log.22 = f32[] log(convert.17)\n-  subtract.23 = f32[] subtract(log.22, convert.17)\n-  constant.6 = f32[] constant(0.5)\n-  constant.7 = f32[] constant(7.5)\n-  log-plus-one.24 = f32[] log-plus-one(constant.2)\n-  constant.14 = f32[] constant(2.01490307)\n-  add.25 = f32[] add(log-plus-one.24, constant.14)\n-  divide.26 = f32[] divide(constant.7, add.25)\n-  subtract.27 = f32[] subtract(constant.6, divide.26)\n-  multiply.28 = f32[] multiply(subtract.27, add.25)\n-  constant.13 = f32[] constant(0.918938518)\n-  add.29 = f32[] add(multiply.28, constant.13)\n-  constant.5 = f32[] constant(5.57361031)\n-  add.30 = f32[] add(add.29, constant.5)\n-  subtract.31 = f32[] subtract(subtract.23, add.30)\n-  constant.3 = f32[] constant(-88.7228394)\n-  compare.32 = pred[] compare(subtract.31, constant.3), direction=LT\n-  or.33 = pred[] or(compare.18, compare.32)\n-  not.34 = pred[] not(or.33)\n-  constant.4 = f32[] constant(1)\n-  compare.19 = pred[] compare(convert.17, constant.4), direction=LT\n-  compare.20 = pred[] compare(convert.17, constant.4), direction=LT\n-  or.21 = pred[] or(compare.19, compare.20)\n-  and.36 = pred[] and(not.34, or.21)\n-  tuple.37 = (pred[], f32[], f32[], f32[], f32[], /*index=5*/f32[], f32[]) tuple(and.36, constant.4, constant.4, constant.4, constant.2, constant.2, convert.17)\n-  while.78 = (pred[], f32[], f32[], f32[], f32[], /*index=5*/f32[], f32[]) while(tuple.37), condition=region_1.69, body=region_0.38\n-  get-tuple-element.79 = pred[] get-tuple-element(while.78), index=0\n-  get-tuple-element.80 = f32[] get-tuple-element(while.78), index=1\n-  get-tuple-element.81 = f32[] get-tuple-element(while.78), index=2\n-  get-tuple-element.83 = f32[] get-tuple-element(while.78), index=4\n-  get-tuple-element.84 = f32[] get-tuple-element(while.78), index=5\n-  get-tuple-element.85 = f32[] get-tuple-element(while.78), index=6\n-  not.88 = pred[] not(or.21)\n-  and.89 = pred[] and(not.34, not.88)\n-  add.91 = f32[] add(convert.17, constant.4)\n-  add.90 = f32[] add(convert.17, constant.4)\n-  multiply.92 = f32[] multiply(add.90, convert.17)\n-  divide.93 = f32[] divide(add.91, multiply.92)\n-  negate.94 = f32[] negate(convert.17)\n-  multiply.95 = f32[] multiply(divide.93, negate.94)\n-  subtract.96 = f32[] subtract(constant.2, multiply.95)\n-  divide.97 = f32[] divide(subtract.96, multiply.92)\n-  tuple.98 = (pred[], f32[], f32[], f32[], f32[], /*index=5*/f32[], f32[], f32[], f32[], f32[], /*index=10*/f32[], f32[], f32[], f32[], f32[]) tuple(and.89, divide.93, constant.4, constant.2, add.90, constant.2, add.91, multiply.92, constant.4, convert.17, constant.2, constant.2, constant.2, negate.94, divide.97)\n-  while.208 = (pred[], f32[], f32[], f32[], f32[], /*index=5*/f32[], f32[], f32[], f32[], f32[], /*index=10*/f32[], f32[], f32[], f32[], f32[]) while(tuple.98), condition=region_3.188, body=region_2.99\n-  get-tuple-element.209 = pred[] get-tuple-element(while.208), index=0\n-  get-tuple-element.211 = f32[] get-tuple-element(while.208), index=2\n-  get-tuple-element.212 = f32[] get-tuple-element(while.208), index=3\n-  get-tuple-element.213 = f32[] get-tuple-element(while.208), index=4\n-  get-tuple-element.214 = f32[] get-tuple-element(while.208), index=5\n-  get-tuple-element.215 = f32[] get-tuple-element(while.208), index=6\n-  get-tuple-element.216 = f32[] get-tuple-element(while.208), index=7\n-  get-tuple-element.217 = f32[] get-tuple-element(while.208), index=8\n-  get-tuple-element.218 = f32[] get-tuple-element(while.208), index=9\n-  get-tuple-element.219 = f32[] get-tuple-element(while.208), index=10\n-  get-tuple-element.220 = f32[] get-tuple-element(while.208), index=11\n-  get-tuple-element.221 = f32[] get-tuple-element(while.208), index=12\n-  get-tuple-element.222 = f32[] get-tuple-element(while.208), index=13\n-  get-tuple-element.223 = f32[] get-tuple-element(while.208), index=14\n-  constant.11 = bf16[] constant(-1)\n-  constant.12 = f32[] constant(inf)\n-  compare.227 = pred[] compare(convert.17, constant.12), direction=EQ\n-  get-tuple-element.82 = f32[] get-tuple-element(while.78), index=3\n-  exponential.35 = f32[] exponential(subtract.31)\n-  multiply.86 = f32[] multiply(get-tuple-element.82, exponential.35)\n-  divide.87 = f32[] divide(multiply.86, constant.4)\n-  subtract.225 = f32[] subtract(constant.4, divide.87)\n-  get-tuple-element.210 = f32[] get-tuple-element(while.208), index=1\n-  multiply.224 = f32[] multiply(get-tuple-element.210, exponential.35)\n-  select.226 = f32[] select(or.21, subtract.225, multiply.224)\n-  select.228 = f32[] select(compare.227, constant.2, select.226)\n-  select.229 = f32[] select(compare.18, constant.4, select.228)\n-  convert.230 = bf16[] convert(select.229)\n-  constant.8 = bf16[] constant(1)\n-  clamp.231 = bf16[] clamp(constant.11, convert.230, constant.8)\n-  compare.232 = pred[] compare(clamp.231, constant.11), direction=NE\n-  multiply.233 = bf16[] multiply(clamp.231, clamp.231)\n-  subtract.234 = bf16[] subtract(constant.8, multiply.233)\n-  sqrt.235 = bf16[] sqrt(subtract.234)\n-  add.236 = bf16[] add(clamp.231, constant.8)\n-  atan2.237 = bf16[] atan2(sqrt.235, add.236)\n-  constant.10 = bf16[] constant(2)\n-  multiply.238 = bf16[] multiply(atan2.237, constant.10)\n-  constant.9 = bf16[] constant(3.141)\n-  select.239 = bf16[] select(compare.232, multiply.238, constant.9)\n-  ROOT tuple.240 = (bf16[]) tuple(select.239)\n-}\n-"
        },
        {
            "sha": "0ae31e850a98ecd83f34cd0a6bdbebeffe9292f0",
            "filename": "third_party/xla/xla/tests/fuzz/rand_000013.hlo",
            "status": "removed",
            "additions": 0,
            "deletions": 14,
            "changes": 14,
            "blob_url": "https://github.com/tensorflow/tensorflow/blob/fcd421e9df0946288cbb745ae7193b8b2795d00c/third_party%2Fxla%2Fxla%2Ftests%2Ffuzz%2Frand_000013.hlo",
            "raw_url": "https://github.com/tensorflow/tensorflow/raw/fcd421e9df0946288cbb745ae7193b8b2795d00c/third_party%2Fxla%2Fxla%2Ftests%2Ffuzz%2Frand_000013.hlo",
            "contents_url": "https://api.github.com/repos/tensorflow/tensorflow/contents/third_party%2Fxla%2Fxla%2Ftests%2Ffuzz%2Frand_000013.hlo?ref=fcd421e9df0946288cbb745ae7193b8b2795d00c",
            "patch": "@@ -1,14 +0,0 @@\n-/* This file is autogenerated! Please don't edit! */\n-HloModule xla_computation_unknown, entry_computation_layout={(c64[9,15,10,13,6]{4,3,2,1,0},s32[8,24,1,1,1]{4,3,2,1,0})->(c64[5,8,12,1]{3,2,1,0})}\n-\n-ENTRY main.9 {\n-  Arg_0.1 = c64[9,15,10,13,6]{4,3,2,1,0} parameter(0)\n-  reverse.3 = c64[9,15,10,13,6]{4,3,2,1,0} reverse(Arg_0.1), dimensions={3,1}\n-  Arg_1.2 = s32[8,24,1,1,1]{4,3,2,1,0} parameter(1)\n-  transpose.4 = s32[1,1,24,1,8]{0,1,3,2,4} transpose(Arg_1.2), dimensions={4,3,1,2,0}\n-  reshape.5 = s32[12,8,2]{2,1,0} reshape(transpose.4)\n-  gather.6 = c64[5,12,8,1]{3,2,1,0} gather(reverse.3, reshape.5), offset_dims={0,3}, collapsed_slice_dims={0,2,3}, start_index_map={0,3}, index_vector_dim=2, slice_sizes={1,5,1,1,1}\n-  reshape.7 = c64[5,8,12,1]{3,2,1,0} reshape(gather.6)\n-  ROOT tuple.8 = (c64[5,8,12,1]{3,2,1,0}) tuple(reshape.7)\n-}\n-"
        },
        {
            "sha": "9407a9d3ef73c6a4f67b150ac772abd2f4d2771a",
            "filename": "third_party/xla/xla/tests/fuzz/rand_000015.hlo",
            "status": "removed",
            "additions": 0,
            "deletions": 32,
            "changes": 32,
            "blob_url": "https://github.com/tensorflow/tensorflow/blob/fcd421e9df0946288cbb745ae7193b8b2795d00c/third_party%2Fxla%2Fxla%2Ftests%2Ffuzz%2Frand_000015.hlo",
            "raw_url": "https://github.com/tensorflow/tensorflow/raw/fcd421e9df0946288cbb745ae7193b8b2795d00c/third_party%2Fxla%2Fxla%2Ftests%2Ffuzz%2Frand_000015.hlo",
            "contents_url": "https://api.github.com/repos/tensorflow/tensorflow/contents/third_party%2Fxla%2Fxla%2Ftests%2Ffuzz%2Frand_000015.hlo?ref=fcd421e9df0946288cbb745ae7193b8b2795d00c",
            "patch": "@@ -1,32 +0,0 @@\n-/* This file is autogenerated! Please don't edit! */\n-HloModule xla_computation_unknown, entry_computation_layout={(c64[10,10,3]{2,1,0},s32[2]{0},c64[9,5]{1,0})->(c64[10,10,3]{2,1,0})}\n-\n-region_0.10 {\n-  Arg_0.11 = c64[] parameter(0)\n-  real.13 = f32[] real(Arg_0.11)\n-  Arg_1.12 = c64[] parameter(1)\n-  real.14 = f32[] real(Arg_1.12)\n-  compare.15 = pred[] compare(real.13, real.14), direction=EQ\n-  imag.17 = f32[] imag(Arg_0.11)\n-  imag.18 = f32[] imag(Arg_1.12)\n-  compare.19 = pred[] compare(imag.17, imag.18), direction=LT\n-  compare.16 = pred[] compare(real.13, real.14), direction=LT\n-  select.20 = pred[] select(compare.15, compare.19, compare.16)\n-  ROOT select.21 = c64[] select(select.20, Arg_0.11, Arg_1.12)\n-}\n-\n-ENTRY main.25 {\n-  constant.4 = c64[] constant((1, 0))\n-  broadcast.5 = c64[10,10,3]{2,1,0} broadcast(constant.4), dimensions={}\n-  negate.6 = c64[10,10,3]{2,1,0} negate(broadcast.5)\n-  exponential.7 = c64[10,10,3]{2,1,0} exponential(negate.6)\n-  add.8 = c64[10,10,3]{2,1,0} add(exponential.7, broadcast.5)\n-  divide.9 = c64[10,10,3]{2,1,0} divide(broadcast.5, add.8)\n-  Arg_0.1 = c64[10,10,3]{2,1,0} parameter(0)\n-  Arg_1.2 = s32[2]{0} parameter(1)\n-  Arg_2.3 = c64[9,5]{1,0} parameter(2)\n-  scatter.22 = c64[10,10,3]{2,1,0} scatter(Arg_0.1, Arg_1.2, Arg_2.3), update_window_dims={0,1}, inserted_window_dims={2}, scatter_dims_to_operand_dims={0,1}, index_vector_dim=0, to_apply=region_0.10\n-  add.23 = c64[10,10,3]{2,1,0} add(divide.9, scatter.22)\n-  ROOT tuple.24 = (c64[10,10,3]{2,1,0}) tuple(add.23)\n-}\n-"
        },
        {
            "sha": "c93c340d49ac1104b0c5fbbe90b12cb9c739c44a",
            "filename": "third_party/xla/xla/tests/fuzz/rand_000016.hlo",
            "status": "removed",
            "additions": 0,
            "deletions": 19,
            "changes": 19,
            "blob_url": "https://github.com/tensorflow/tensorflow/blob/fcd421e9df0946288cbb745ae7193b8b2795d00c/third_party%2Fxla%2Fxla%2Ftests%2Ffuzz%2Frand_000016.hlo",
            "raw_url": "https://github.com/tensorflow/tensorflow/raw/fcd421e9df0946288cbb745ae7193b8b2795d00c/third_party%2Fxla%2Fxla%2Ftests%2Ffuzz%2Frand_000016.hlo",
            "contents_url": "https://api.github.com/repos/tensorflow/tensorflow/contents/third_party%2Fxla%2Fxla%2Ftests%2Ffuzz%2Frand_000016.hlo?ref=fcd421e9df0946288cbb745ae7193b8b2795d00c",
            "patch": "@@ -1,19 +0,0 @@\n-/* This file is autogenerated! Please don't edit! */\n-HloModule xla_computation_unknown, entry_computation_layout={(s16[8,8,8,9,14,2,3]{6,5,4,3,2,1,0})->(s16[8,14,3]{2,1,0})}\n-\n-region_0.6 {\n-  Arg_0.7 = s16[] parameter(0)\n-  Arg_1.8 = s16[] parameter(1)\n-  ROOT add.9 = s16[] add(Arg_0.7, Arg_1.8)\n-}\n-\n-ENTRY main.12 {\n-  Arg_0.1 = s16[8,8,8,9,14,2,3]{6,5,4,3,2,1,0} parameter(0)\n-  constant.3 = s16[] constant(1)\n-  broadcast.4 = s16[8,8,8,9,14,2,3]{6,5,4,3,2,1,0} broadcast(constant.3), dimensions={}\n-  shift-left.5 = s16[8,8,8,9,14,2,3]{6,5,4,3,2,1,0} shift-left(Arg_0.1, broadcast.4)\n-  constant.2 = s16[] constant(0)\n-  reduce.10 = s16[8,14,3]{2,1,0} reduce(shift-left.5, constant.2), dimensions={0,2,3,5}, to_apply=region_0.6\n-  ROOT tuple.11 = (s16[8,14,3]{2,1,0}) tuple(reduce.10)\n-}\n-"
        },
        {
            "sha": "b90698f52911ba76ac6ea32bd45199add79ffac7",
            "filename": "third_party/xla/xla/tests/fuzz/rand_000017.hlo",
            "status": "removed",
            "additions": 0,
            "deletions": 16,
            "changes": 16,
            "blob_url": "https://github.com/tensorflow/tensorflow/blob/fcd421e9df0946288cbb745ae7193b8b2795d00c/third_party%2Fxla%2Fxla%2Ftests%2Ffuzz%2Frand_000017.hlo",
            "raw_url": "https://github.com/tensorflow/tensorflow/raw/fcd421e9df0946288cbb745ae7193b8b2795d00c/third_party%2Fxla%2Fxla%2Ftests%2Ffuzz%2Frand_000017.hlo",
            "contents_url": "https://api.github.com/repos/tensorflow/tensorflow/contents/third_party%2Fxla%2Fxla%2Ftests%2Ffuzz%2Frand_000017.hlo?ref=fcd421e9df0946288cbb745ae7193b8b2795d00c",
            "patch": "@@ -1,16 +0,0 @@\n-/* This file is autogenerated! Please don't edit! */\n-HloModule xla_computation_unknown, entry_computation_layout={(u32[1080,2,2]{2,1,0},u32[6,5,12,12]{3,2,1,0},u32[6,5,12,12]{3,2,1,0})->(u32[6,5,12,12]{3,2,1,0})}\n-\n-ENTRY main.11 {\n-  Arg_0.1 = u32[1080,2,2]{2,1,0} parameter(0)\n-  transpose.6 = u32[2,1080,2]{2,0,1} transpose(Arg_0.1), dimensions={1,0,2}\n-  reshape.7 = u32[6,5,12,12]{3,2,1,0} reshape(transpose.6)\n-  Arg_1.2 = u32[6,5,12,12]{3,2,1,0} parameter(1)\n-  constant.4 = u32[] constant(1)\n-  broadcast.5 = u32[6,5,12,12]{3,2,1,0} broadcast(constant.4), dimensions={}\n-  Arg_2.3 = u32[6,5,12,12]{3,2,1,0} parameter(2)\n-  clamp.8 = u32[6,5,12,12]{3,2,1,0} clamp(Arg_1.2, broadcast.5, Arg_2.3)\n-  remainder.9 = u32[6,5,12,12]{3,2,1,0} remainder(reshape.7, clamp.8)\n-  ROOT tuple.10 = (u32[6,5,12,12]{3,2,1,0}) tuple(remainder.9)\n-}\n-"
        },
        {
            "sha": "af9e259c162260375c64a40f94117c788aa144d2",
            "filename": "third_party/xla/xla/tests/fuzz/rand_000018.hlo",
            "status": "removed",
            "additions": 0,
            "deletions": 19,
            "changes": 19,
            "blob_url": "https://github.com/tensorflow/tensorflow/blob/fcd421e9df0946288cbb745ae7193b8b2795d00c/third_party%2Fxla%2Fxla%2Ftests%2Ffuzz%2Frand_000018.hlo",
            "raw_url": "https://github.com/tensorflow/tensorflow/raw/fcd421e9df0946288cbb745ae7193b8b2795d00c/third_party%2Fxla%2Fxla%2Ftests%2Ffuzz%2Frand_000018.hlo",
            "contents_url": "https://api.github.com/repos/tensorflow/tensorflow/contents/third_party%2Fxla%2Fxla%2Ftests%2Ffuzz%2Frand_000018.hlo?ref=fcd421e9df0946288cbb745ae7193b8b2795d00c",
            "patch": "@@ -1,19 +0,0 @@\n-/* This file is autogenerated! Please don't edit! */\n-HloModule xla_computation_unknown, entry_computation_layout={(s8[11,6]{1,0},s8[1,7,9,2,9,4,16]{6,5,4,3,2,1,0})->(s8[11,6]{1,0})}\n-\n-region_0.5 {\n-  Arg_0.6 = s8[] parameter(0)\n-  Arg_1.7 = s8[] parameter(1)\n-  ROOT add.8 = s8[] add(Arg_0.6, Arg_1.7)\n-}\n-\n-ENTRY main.12 {\n-  Arg_0.1 = s8[11,6]{1,0} parameter(0)\n-  constant.3 = s32[] constant(1)\n-  broadcast.4 = s32[1,7,9,2,16,2]{5,4,3,2,1,0} broadcast(constant.3), dimensions={}\n-  Arg_1.2 = s8[1,7,9,2,9,4,16]{6,5,4,3,2,1,0} parameter(1)\n-  scatter.9 = s8[11,6]{1,0} scatter(Arg_0.1, broadcast.4, Arg_1.2), update_window_dims={4,5}, inserted_window_dims={}, scatter_dims_to_operand_dims={0,1}, index_vector_dim=5, to_apply=region_0.5\n-  abs.10 = s8[11,6]{1,0} abs(scatter.9)\n-  ROOT tuple.11 = (s8[11,6]{1,0}) tuple(abs.10)\n-}\n-"
        },
        {
            "sha": "42eb753d14f08b36cf4e0deca12cdcfe1cda1657",
            "filename": "third_party/xla/xla/tests/fuzz/rand_000019.hlo",
            "status": "removed",
            "additions": 0,
            "deletions": 21,
            "changes": 21,
            "blob_url": "https://github.com/tensorflow/tensorflow/blob/fcd421e9df0946288cbb745ae7193b8b2795d00c/third_party%2Fxla%2Fxla%2Ftests%2Ffuzz%2Frand_000019.hlo",
            "raw_url": "https://github.com/tensorflow/tensorflow/raw/fcd421e9df0946288cbb745ae7193b8b2795d00c/third_party%2Fxla%2Fxla%2Ftests%2Ffuzz%2Frand_000019.hlo",
            "contents_url": "https://api.github.com/repos/tensorflow/tensorflow/contents/third_party%2Fxla%2Fxla%2Ftests%2Ffuzz%2Frand_000019.hlo?ref=fcd421e9df0946288cbb745ae7193b8b2795d00c",
            "patch": "@@ -1,21 +0,0 @@\n-/* This file is autogenerated! Please don't edit! */\n-HloModule xla_computation_unknown, entry_computation_layout={(c64[5,16]{1,0})->(c64[5,16]{1,0})}\n-\n-ENTRY main.16 {\n-  constant.4 = c64[] constant((1, 0))\n-  broadcast.5 = c64[5,16]{1,0} broadcast(constant.4), dimensions={}\n-  constant.6 = c64[] constant((0, 0))\n-  broadcast.7 = c64[5,16]{1,0} broadcast(constant.6), dimensions={}\n-  Arg_0.1 = c64[5,16]{1,0} parameter(0)\n-  compare.10 = pred[5,16]{1,0} compare(broadcast.7, Arg_0.1), direction=EQ\n-  select.11 = c64[5,16]{1,0} select(compare.10, broadcast.5, Arg_0.1)\n-  divide.12 = c64[5,16]{1,0} divide(broadcast.5, select.11)\n-  constant.8 = f32[] constant(1)\n-  broadcast.9 = f32[5,16]{1,0} broadcast(constant.8), dimensions={}\n-  constant.2 = f32[] constant(0)\n-  broadcast.3 = f32[5,16]{1,0} broadcast(constant.2), dimensions={}\n-  complex.13 = c64[5,16]{1,0} complex(broadcast.9, broadcast.3)\n-  subtract.14 = c64[5,16]{1,0} subtract(divide.12, complex.13)\n-  ROOT tuple.15 = (c64[5,16]{1,0}) tuple(subtract.14)\n-}\n-"
        },
        {
            "sha": "1bdff0506648286111bf74eedcd72ab0bbec708b",
            "filename": "third_party/xla/xla/tests/fuzz/rand_000020.hlo",
            "status": "removed",
            "additions": 0,
            "deletions": 15,
            "changes": 15,
            "blob_url": "https://github.com/tensorflow/tensorflow/blob/fcd421e9df0946288cbb745ae7193b8b2795d00c/third_party%2Fxla%2Fxla%2Ftests%2Ffuzz%2Frand_000020.hlo",
            "raw_url": "https://github.com/tensorflow/tensorflow/raw/fcd421e9df0946288cbb745ae7193b8b2795d00c/third_party%2Fxla%2Fxla%2Ftests%2Ffuzz%2Frand_000020.hlo",
            "contents_url": "https://api.github.com/repos/tensorflow/tensorflow/contents/third_party%2Fxla%2Fxla%2Ftests%2Ffuzz%2Frand_000020.hlo?ref=fcd421e9df0946288cbb745ae7193b8b2795d00c",
            "patch": "@@ -1,15 +0,0 @@\n-/* This file is autogenerated! Please don't edit! */\n-HloModule xla_computation_unknown, entry_computation_layout={(f16[],f16[])->(f16[])}\n-\n-ENTRY main.10 {\n-  Arg_0.1 = f16[] parameter(0)\n-  cosine.5 = f16[] cosine(Arg_0.1)\n-  constant.3 = f16[] constant(0)\n-  maximum.7 = f16[] maximum(cosine.5, constant.3)\n-  Arg_1.2 = f16[] parameter(1)\n-  constant.4 = f16[] constant(1)\n-  maximum.6 = f16[] maximum(Arg_1.2, constant.4)\n-  power.8 = f16[] power(maximum.7, maximum.6)\n-  ROOT tuple.9 = (f16[]) tuple(power.8)\n-}\n-"
        },
        {
            "sha": "cbc4a650ce15906e1c4eef3c52293311110bd6ef",
            "filename": "third_party/xla/xla/tests/fuzz/rand_000022.hlo",
            "status": "removed",
            "additions": 0,
            "deletions": 171,
            "changes": 171,
            "blob_url": "https://github.com/tensorflow/tensorflow/blob/fcd421e9df0946288cbb745ae7193b8b2795d00c/third_party%2Fxla%2Fxla%2Ftests%2Ffuzz%2Frand_000022.hlo",
            "raw_url": "https://github.com/tensorflow/tensorflow/raw/fcd421e9df0946288cbb745ae7193b8b2795d00c/third_party%2Fxla%2Fxla%2Ftests%2Ffuzz%2Frand_000022.hlo",
            "contents_url": "https://api.github.com/repos/tensorflow/tensorflow/contents/third_party%2Fxla%2Fxla%2Ftests%2Ffuzz%2Frand_000022.hlo?ref=fcd421e9df0946288cbb745ae7193b8b2795d00c",
            "patch": "@@ -1,171 +0,0 @@\n-/* This file is autogenerated! Please don't edit! */\n-HloModule xla_computation_unknown, entry_computation_layout={(f16[10,14,15]{2,1,0},f16[6,14,13]{2,1,0})->(f16[10,6,15]{2,1,0})}\n-\n-region_0.156 {\n-  Arg_0.157 = f16[] parameter(0)\n-  Arg_1.158 = f16[] parameter(1)\n-  ROOT add.159 = f16[] add(Arg_0.157, Arg_1.158)\n-}\n-\n-ENTRY main.164 {\n-  Arg_0.1 = f16[10,14,15]{2,1,0} parameter(0)\n-  convert.64 = f32[10,14,15]{2,1,0} convert(Arg_0.1)\n-  abs.65 = f32[10,14,15]{2,1,0} abs(convert.64)\n-  constant.3 = f32[] constant(8)\n-  broadcast.4 = f32[10,14,15]{2,1,0} broadcast(constant.3), dimensions={}\n-  compare.151 = pred[10,14,15]{2,1,0} compare(abs.65, broadcast.4), direction=LE\n-  constant.5 = f32[] constant(0.5)\n-  broadcast.6 = f32[10,14,15]{2,1,0} broadcast(constant.5), dimensions={}\n-  multiply.66 = f32[10,14,15]{2,1,0} multiply(abs.65, broadcast.6)\n-  constant.61 = f32[] constant(2)\n-  broadcast.62 = f32[10,14,15]{2,1,0} broadcast(constant.61), dimensions={}\n-  subtract.67 = f32[10,14,15]{2,1,0} subtract(multiply.66, broadcast.62)\n-  constant.21 = f32[] constant(0)\n-  broadcast.22 = f32[10,14,15]{2,1,0} broadcast(constant.21), dimensions={}\n-  multiply.68 = f32[10,14,15]{2,1,0} multiply(subtract.67, broadcast.22)\n-  subtract.69 = f32[10,14,15]{2,1,0} subtract(multiply.68, broadcast.22)\n-  constant.57 = f32[] constant(-1.30002498e-08)\n-  broadcast.58 = f32[10,14,15]{2,1,0} broadcast(constant.57), dimensions={}\n-  add.70 = f32[10,14,15]{2,1,0} add(subtract.69, broadcast.58)\n-  multiply.71 = f32[10,14,15]{2,1,0} multiply(subtract.67, add.70)\n-  subtract.72 = f32[10,14,15]{2,1,0} subtract(multiply.71, broadcast.22)\n-  constant.55 = f32[] constant(6.04699508e-08)\n-  broadcast.56 = f32[10,14,15]{2,1,0} broadcast(constant.55), dimensions={}\n-  add.73 = f32[10,14,15]{2,1,0} add(subtract.72, broadcast.56)\n-  multiply.74 = f32[10,14,15]{2,1,0} multiply(subtract.67, add.73)\n-  subtract.75 = f32[10,14,15]{2,1,0} subtract(multiply.74, add.70)\n-  constant.53 = f32[] constant(-2.67079372e-07)\n-  broadcast.54 = f32[10,14,15]{2,1,0} broadcast(constant.53), dimensions={}\n-  add.76 = f32[10,14,15]{2,1,0} add(subtract.75, broadcast.54)\n-  multiply.77 = f32[10,14,15]{2,1,0} multiply(subtract.67, add.76)\n-  subtract.78 = f32[10,14,15]{2,1,0} subtract(multiply.77, add.73)\n-  constant.51 = f32[] constant(1.11738757e-06)\n-  broadcast.52 = f32[10,14,15]{2,1,0} broadcast(constant.51), dimensions={}\n-  add.79 = f32[10,14,15]{2,1,0} add(subtract.78, broadcast.52)\n-  multiply.80 = f32[10,14,15]{2,1,0} multiply(subtract.67, add.79)\n-  subtract.81 = f32[10,14,15]{2,1,0} subtract(multiply.80, add.76)\n-  constant.49 = f32[] constant(-4.41673819e-06)\n-  broadcast.50 = f32[10,14,15]{2,1,0} broadcast(constant.49), dimensions={}\n-  add.82 = f32[10,14,15]{2,1,0} add(subtract.81, broadcast.50)\n-  multiply.83 = f32[10,14,15]{2,1,0} multiply(subtract.67, add.82)\n-  subtract.84 = f32[10,14,15]{2,1,0} subtract(multiply.83, add.79)\n-  constant.47 = f32[] constant(1.64484482e-05)\n-  broadcast.48 = f32[10,14,15]{2,1,0} broadcast(constant.47), dimensions={}\n-  add.85 = f32[10,14,15]{2,1,0} add(subtract.84, broadcast.48)\n-  multiply.86 = f32[10,14,15]{2,1,0} multiply(subtract.67, add.85)\n-  subtract.87 = f32[10,14,15]{2,1,0} subtract(multiply.86, add.82)\n-  constant.45 = f32[] constant(-5.75419508e-05)\n-  broadcast.46 = f32[10,14,15]{2,1,0} broadcast(constant.45), dimensions={}\n-  add.88 = f32[10,14,15]{2,1,0} add(subtract.87, broadcast.46)\n-  multiply.89 = f32[10,14,15]{2,1,0} multiply(subtract.67, add.88)\n-  subtract.90 = f32[10,14,15]{2,1,0} subtract(multiply.89, add.85)\n-  constant.43 = f32[] constant(0.000188502891)\n-  broadcast.44 = f32[10,14,15]{2,1,0} broadcast(constant.43), dimensions={}\n-  add.91 = f32[10,14,15]{2,1,0} add(subtract.90, broadcast.44)\n-  multiply.92 = f32[10,14,15]{2,1,0} multiply(subtract.67, add.91)\n-  subtract.93 = f32[10,14,15]{2,1,0} subtract(multiply.92, add.88)\n-  constant.41 = f32[] constant(-0.000576375576)\n-  broadcast.42 = f32[10,14,15]{2,1,0} broadcast(constant.41), dimensions={}\n-  add.94 = f32[10,14,15]{2,1,0} add(subtract.93, broadcast.42)\n-  multiply.95 = f32[10,14,15]{2,1,0} multiply(subtract.67, add.94)\n-  subtract.96 = f32[10,14,15]{2,1,0} subtract(multiply.95, add.91)\n-  constant.39 = f32[] constant(0.00163947558)\n-  broadcast.40 = f32[10,14,15]{2,1,0} broadcast(constant.39), dimensions={}\n-  add.97 = f32[10,14,15]{2,1,0} add(subtract.96, broadcast.40)\n-  multiply.98 = f32[10,14,15]{2,1,0} multiply(subtract.67, add.97)\n-  subtract.99 = f32[10,14,15]{2,1,0} subtract(multiply.98, add.94)\n-  constant.37 = f32[] constant(-0.00432431)\n-  broadcast.38 = f32[10,14,15]{2,1,0} broadcast(constant.37), dimensions={}\n-  add.100 = f32[10,14,15]{2,1,0} add(subtract.99, broadcast.38)\n-  multiply.101 = f32[10,14,15]{2,1,0} multiply(subtract.67, add.100)\n-  subtract.102 = f32[10,14,15]{2,1,0} subtract(multiply.101, add.97)\n-  constant.35 = f32[] constant(0.0105464607)\n-  broadcast.36 = f32[10,14,15]{2,1,0} broadcast(constant.35), dimensions={}\n-  add.103 = f32[10,14,15]{2,1,0} add(subtract.102, broadcast.36)\n-  multiply.104 = f32[10,14,15]{2,1,0} multiply(subtract.67, add.103)\n-  subtract.105 = f32[10,14,15]{2,1,0} subtract(multiply.104, add.100)\n-  constant.33 = f32[] constant(-0.0237374157)\n-  broadcast.34 = f32[10,14,15]{2,1,0} broadcast(constant.33), dimensions={}\n-  add.106 = f32[10,14,15]{2,1,0} add(subtract.105, broadcast.34)\n-  multiply.107 = f32[10,14,15]{2,1,0} multiply(subtract.67, add.106)\n-  subtract.108 = f32[10,14,15]{2,1,0} subtract(multiply.107, add.103)\n-  constant.31 = f32[] constant(0.0493052825)\n-  broadcast.32 = f32[10,14,15]{2,1,0} broadcast(constant.31), dimensions={}\n-  add.109 = f32[10,14,15]{2,1,0} add(subtract.108, broadcast.32)\n-  multiply.110 = f32[10,14,15]{2,1,0} multiply(subtract.67, add.109)\n-  subtract.111 = f32[10,14,15]{2,1,0} subtract(multiply.110, add.106)\n-  constant.29 = f32[] constant(-0.0949011)\n-  broadcast.30 = f32[10,14,15]{2,1,0} broadcast(constant.29), dimensions={}\n-  add.112 = f32[10,14,15]{2,1,0} add(subtract.111, broadcast.30)\n-  multiply.113 = f32[10,14,15]{2,1,0} multiply(subtract.67, add.112)\n-  subtract.114 = f32[10,14,15]{2,1,0} subtract(multiply.113, add.109)\n-  constant.27 = f32[] constant(0.171620905)\n-  broadcast.28 = f32[10,14,15]{2,1,0} broadcast(constant.27), dimensions={}\n-  add.115 = f32[10,14,15]{2,1,0} add(subtract.114, broadcast.28)\n-  multiply.116 = f32[10,14,15]{2,1,0} multiply(subtract.67, add.115)\n-  subtract.117 = f32[10,14,15]{2,1,0} subtract(multiply.116, add.112)\n-  constant.25 = f32[] constant(-0.304682672)\n-  broadcast.26 = f32[10,14,15]{2,1,0} broadcast(constant.25), dimensions={}\n-  add.118 = f32[10,14,15]{2,1,0} add(subtract.117, broadcast.26)\n-  multiply.119 = f32[10,14,15]{2,1,0} multiply(subtract.67, add.118)\n-  subtract.120 = f32[10,14,15]{2,1,0} subtract(multiply.119, add.115)\n-  constant.23 = f32[] constant(0.676795304)\n-  broadcast.24 = f32[10,14,15]{2,1,0} broadcast(constant.23), dimensions={}\n-  add.121 = f32[10,14,15]{2,1,0} add(subtract.120, broadcast.24)\n-  subtract.122 = f32[10,14,15]{2,1,0} subtract(add.121, add.115)\n-  multiply.123 = f32[10,14,15]{2,1,0} multiply(subtract.122, broadcast.6)\n-  constant.59 = f32[] constant(32)\n-  broadcast.60 = f32[10,14,15]{2,1,0} broadcast(constant.59), dimensions={}\n-  divide.124 = f32[10,14,15]{2,1,0} divide(broadcast.60, abs.65)\n-  subtract.125 = f32[10,14,15]{2,1,0} subtract(divide.124, broadcast.62)\n-  multiply.126 = f32[10,14,15]{2,1,0} multiply(subtract.125, broadcast.22)\n-  subtract.127 = f32[10,14,15]{2,1,0} subtract(multiply.126, broadcast.22)\n-  constant.19 = f32[] constant(3.39623196e-09)\n-  broadcast.20 = f32[10,14,15]{2,1,0} broadcast(constant.19), dimensions={}\n-  add.128 = f32[10,14,15]{2,1,0} add(subtract.127, broadcast.20)\n-  multiply.129 = f32[10,14,15]{2,1,0} multiply(subtract.125, add.128)\n-  subtract.130 = f32[10,14,15]{2,1,0} subtract(multiply.129, broadcast.22)\n-  constant.17 = f32[] constant(2.26666899e-08)\n-  broadcast.18 = f32[10,14,15]{2,1,0} broadcast(constant.17), dimensions={}\n-  add.131 = f32[10,14,15]{2,1,0} add(subtract.130, broadcast.18)\n-  multiply.132 = f32[10,14,15]{2,1,0} multiply(subtract.125, add.131)\n-  subtract.133 = f32[10,14,15]{2,1,0} subtract(multiply.132, add.128)\n-  constant.15 = f32[] constant(2.04891862e-07)\n-  broadcast.16 = f32[10,14,15]{2,1,0} broadcast(constant.15), dimensions={}\n-  add.134 = f32[10,14,15]{2,1,0} add(subtract.133, broadcast.16)\n-  multiply.135 = f32[10,14,15]{2,1,0} multiply(subtract.125, add.134)\n-  subtract.136 = f32[10,14,15]{2,1,0} subtract(multiply.135, add.131)\n-  constant.13 = f32[] constant(2.89137051e-06)\n-  broadcast.14 = f32[10,14,15]{2,1,0} broadcast(constant.13), dimensions={}\n-  add.137 = f32[10,14,15]{2,1,0} add(subtract.136, broadcast.14)\n-  multiply.138 = f32[10,14,15]{2,1,0} multiply(subtract.125, add.137)\n-  subtract.139 = f32[10,14,15]{2,1,0} subtract(multiply.138, add.134)\n-  constant.11 = f32[] constant(6.88975852e-05)\n-  broadcast.12 = f32[10,14,15]{2,1,0} broadcast(constant.11), dimensions={}\n-  add.140 = f32[10,14,15]{2,1,0} add(subtract.139, broadcast.12)\n-  multiply.141 = f32[10,14,15]{2,1,0} multiply(subtract.125, add.140)\n-  subtract.142 = f32[10,14,15]{2,1,0} subtract(multiply.141, add.137)\n-  constant.9 = f32[] constant(0.00336911646)\n-  broadcast.10 = f32[10,14,15]{2,1,0} broadcast(constant.9), dimensions={}\n-  add.143 = f32[10,14,15]{2,1,0} add(subtract.142, broadcast.10)\n-  multiply.144 = f32[10,14,15]{2,1,0} multiply(subtract.125, add.143)\n-  subtract.145 = f32[10,14,15]{2,1,0} subtract(multiply.144, add.140)\n-  constant.7 = f32[] constant(0.804490387)\n-  broadcast.8 = f32[10,14,15]{2,1,0} broadcast(constant.7), dimensions={}\n-  add.146 = f32[10,14,15]{2,1,0} add(subtract.145, broadcast.8)\n-  subtract.147 = f32[10,14,15]{2,1,0} subtract(add.146, add.140)\n-  multiply.148 = f32[10,14,15]{2,1,0} multiply(subtract.147, broadcast.6)\n-  sqrt.149 = f32[10,14,15]{2,1,0} sqrt(abs.65)\n-  divide.150 = f32[10,14,15]{2,1,0} divide(multiply.148, sqrt.149)\n-  select.152 = f32[10,14,15]{2,1,0} select(compare.151, multiply.123, divide.150)\n-  convert.153 = f16[10,14,15]{2,1,0} convert(select.152)\n-  Arg_1.2 = f16[6,14,13]{2,1,0} parameter(1)\n-  sine.154 = f16[6,14,13]{2,1,0} sine(Arg_1.2)\n-  convolution.155 = f16[10,6,16]{2,1,0} convolution(convert.153, sine.154), window={size=13 pad=4_3 lhs_dilate=4 rhs_dilate=4}, dim_labels=bf0_oi0->bf0\n-  constant.63 = f16[] constant(0)\n-  reduce.160 = f16[10,6]{1,0} reduce(convolution.155, constant.63), dimensions={2}, to_apply=region_0.156\n-  broadcast.161 = f16[15,10,6]{2,1,0} broadcast(reduce.160), dimensions={1,2}\n-  reshape.162 = f16[10,6,15]{2,1,0} reshape(broadcast.161)\n-  ROOT tuple.163 = (f16[10,6,15]{2,1,0}) tuple(reshape.162)\n-}\n-"
        },
        {
            "sha": "1c1851344185c7abcdc74fed230e7638dc0dab3a",
            "filename": "third_party/xla/xla/tests/fuzz/rand_000024.hlo",
            "status": "removed",
            "additions": 0,
            "deletions": 116,
            "changes": 116,
            "blob_url": "https://github.com/tensorflow/tensorflow/blob/fcd421e9df0946288cbb745ae7193b8b2795d00c/third_party%2Fxla%2Fxla%2Ftests%2Ffuzz%2Frand_000024.hlo",
            "raw_url": "https://github.com/tensorflow/tensorflow/raw/fcd421e9df0946288cbb745ae7193b8b2795d00c/third_party%2Fxla%2Fxla%2Ftests%2Ffuzz%2Frand_000024.hlo",
            "contents_url": "https://api.github.com/repos/tensorflow/tensorflow/contents/third_party%2Fxla%2Fxla%2Ftests%2Ffuzz%2Frand_000024.hlo?ref=fcd421e9df0946288cbb745ae7193b8b2795d00c",
            "patch": "@@ -1,116 +0,0 @@\n-/* This file is autogenerated! Please don't edit! */\n-HloModule xla_computation_unknown, entry_computation_layout={(f16[10]{0})->(f16[10]{0})}\n-\n-ENTRY main.111 {\n-  Arg_0.1 = f16[10]{0} parameter(0)\n-  constant.48 = f16[] constant(0.0078125)\n-  broadcast.49 = f16[10]{0} broadcast(constant.48), dimensions={}\n-  maximum.50 = f16[10]{0} maximum(Arg_0.1, broadcast.49)\n-  convert.51 = f32[10]{0} convert(maximum.50)\n-  abs.106 = f32[10]{0} abs(convert.51)\n-  constant.2 = f32[] constant(inf)\n-  broadcast.3 = f32[10]{0} broadcast(constant.2), dimensions={}\n-  compare.107 = pred[10]{0} compare(abs.106, broadcast.3), direction=EQ\n-  constant.46 = f32[] constant(0.5)\n-  broadcast.47 = f32[10]{0} broadcast(constant.46), dimensions={}\n-  compare.52 = pred[10]{0} compare(convert.51, broadcast.47), direction=LT\n-  abs.91 = f32[10]{0} abs(convert.51)\n-  floor.92 = f32[10]{0} floor(abs.91)\n-  subtract.93 = f32[10]{0} subtract(abs.91, floor.92)\n-  compare.94 = pred[10]{0} compare(broadcast.47, subtract.93), direction=LT\n-  constant.44 = f32[] constant(1)\n-  broadcast.45 = f32[10]{0} broadcast(constant.44), dimensions={}\n-  subtract.95 = f32[10]{0} subtract(broadcast.45, subtract.93)\n-  select.96 = f32[10]{0} select(compare.94, subtract.95, subtract.93)\n-  constant.6 = f32[] constant(3.14159274)\n-  broadcast.7 = f32[10]{0} broadcast(constant.6), dimensions={}\n-  multiply.97 = f32[10]{0} multiply(select.96, broadcast.7)\n-  sine.98 = f32[10]{0} sine(multiply.97)\n-  log.99 = f32[10]{0} log(sine.98)\n-  is-finite.102 = pred[10]{0} is-finite(log.99)\n-  constant.4 = f32[] constant(1.14472985)\n-  broadcast.5 = f32[10]{0} broadcast(constant.4), dimensions={}\n-  subtract.100 = f32[10]{0} subtract(broadcast.5, log.99)\n-  negate.53 = f32[10]{0} negate(convert.51)\n-  subtract.54 = f32[10]{0} subtract(convert.51, broadcast.45)\n-  select.55 = f32[10]{0} select(compare.52, negate.53, subtract.54)\n-  add.85 = f32[10]{0} add(select.55, broadcast.47)\n-  constant.12 = f32[] constant(7.5)\n-  broadcast.13 = f32[10]{0} broadcast(constant.12), dimensions={}\n-  add.80 = f32[10]{0} add(select.55, broadcast.13)\n-  divide.81 = f32[10]{0} divide(select.55, broadcast.13)\n-  log-plus-one.82 = f32[10]{0} log-plus-one(divide.81)\n-  constant.10 = f32[] constant(2.01490307)\n-  broadcast.11 = f32[10]{0} broadcast(constant.10), dimensions={}\n-  add.83 = f32[10]{0} add(log-plus-one.82, broadcast.11)\n-  divide.84 = f32[10]{0} divide(add.80, add.83)\n-  subtract.86 = f32[10]{0} subtract(add.85, divide.84)\n-  multiply.87 = f32[10]{0} multiply(subtract.86, add.83)\n-  constant.8 = f32[] constant(0.918938518)\n-  broadcast.9 = f32[10]{0} broadcast(constant.8), dimensions={}\n-  add.89 = f32[10]{0} add(multiply.87, broadcast.9)\n-  constant.42 = f32[] constant(676.520386)\n-  broadcast.43 = f32[10]{0} broadcast(constant.42), dimensions={}\n-  add.56 = f32[10]{0} add(select.55, broadcast.45)\n-  divide.57 = f32[10]{0} divide(broadcast.43, add.56)\n-  add.58 = f32[10]{0} add(divide.57, broadcast.45)\n-  constant.40 = f32[] constant(-1259.13916)\n-  broadcast.41 = f32[10]{0} broadcast(constant.40), dimensions={}\n-  constant.38 = f32[] constant(2)\n-  broadcast.39 = f32[10]{0} broadcast(constant.38), dimensions={}\n-  add.59 = f32[10]{0} add(select.55, broadcast.39)\n-  divide.60 = f32[10]{0} divide(broadcast.41, add.59)\n-  add.61 = f32[10]{0} add(add.58, divide.60)\n-  constant.36 = f32[] constant(771.323425)\n-  broadcast.37 = f32[10]{0} broadcast(constant.36), dimensions={}\n-  constant.34 = f32[] constant(3)\n-  broadcast.35 = f32[10]{0} broadcast(constant.34), dimensions={}\n-  add.62 = f32[10]{0} add(select.55, broadcast.35)\n-  divide.63 = f32[10]{0} divide(broadcast.37, add.62)\n-  add.64 = f32[10]{0} add(add.61, divide.63)\n-  constant.32 = f32[] constant(-176.615036)\n-  broadcast.33 = f32[10]{0} broadcast(constant.32), dimensions={}\n-  constant.30 = f32[] constant(4)\n-  broadcast.31 = f32[10]{0} broadcast(constant.30), dimensions={}\n-  add.65 = f32[10]{0} add(select.55, broadcast.31)\n-  divide.66 = f32[10]{0} divide(broadcast.33, add.65)\n-  add.67 = f32[10]{0} add(add.64, divide.66)\n-  constant.28 = f32[] constant(12.5073433)\n-  broadcast.29 = f32[10]{0} broadcast(constant.28), dimensions={}\n-  constant.26 = f32[] constant(5)\n-  broadcast.27 = f32[10]{0} broadcast(constant.26), dimensions={}\n-  add.68 = f32[10]{0} add(select.55, broadcast.27)\n-  divide.69 = f32[10]{0} divide(broadcast.29, add.68)\n-  add.70 = f32[10]{0} add(add.67, divide.69)\n-  constant.24 = f32[] constant(-0.138571098)\n-  broadcast.25 = f32[10]{0} broadcast(constant.24), dimensions={}\n-  constant.22 = f32[] constant(6)\n-  broadcast.23 = f32[10]{0} broadcast(constant.22), dimensions={}\n-  add.71 = f32[10]{0} add(select.55, broadcast.23)\n-  divide.72 = f32[10]{0} divide(broadcast.25, add.71)\n-  add.73 = f32[10]{0} add(add.70, divide.72)\n-  constant.20 = f32[] constant(9.98436917e-06)\n-  broadcast.21 = f32[10]{0} broadcast(constant.20), dimensions={}\n-  constant.18 = f32[] constant(7)\n-  broadcast.19 = f32[10]{0} broadcast(constant.18), dimensions={}\n-  add.74 = f32[10]{0} add(select.55, broadcast.19)\n-  divide.75 = f32[10]{0} divide(broadcast.21, add.74)\n-  add.76 = f32[10]{0} add(add.73, divide.75)\n-  constant.16 = f32[] constant(1.50563267e-07)\n-  broadcast.17 = f32[10]{0} broadcast(constant.16), dimensions={}\n-  constant.14 = f32[] constant(8)\n-  broadcast.15 = f32[10]{0} broadcast(constant.14), dimensions={}\n-  add.77 = f32[10]{0} add(select.55, broadcast.15)\n-  divide.78 = f32[10]{0} divide(broadcast.17, add.77)\n-  add.79 = f32[10]{0} add(add.76, divide.78)\n-  log.88 = f32[10]{0} log(add.79)\n-  add.90 = f32[10]{0} add(add.89, log.88)\n-  subtract.101 = f32[10]{0} subtract(subtract.100, add.90)\n-  negate.103 = f32[10]{0} negate(log.99)\n-  select.104 = f32[10]{0} select(is-finite.102, subtract.101, negate.103)\n-  select.105 = f32[10]{0} select(compare.52, select.104, add.90)\n-  select.108 = f32[10]{0} select(compare.107, broadcast.3, select.105)\n-  convert.109 = f16[10]{0} convert(select.108)\n-  ROOT tuple.110 = (f16[10]{0}) tuple(convert.109)\n-}\n-"
        },
        {
            "sha": "c5e02fd83d2c9b0b564eb4a2e9662178b011bbd4",
            "filename": "third_party/xla/xla/tests/fuzz/rand_000025.hlo",
            "status": "removed",
            "additions": 0,
            "deletions": 20,
            "changes": 20,
            "blob_url": "https://github.com/tensorflow/tensorflow/blob/fcd421e9df0946288cbb745ae7193b8b2795d00c/third_party%2Fxla%2Fxla%2Ftests%2Ffuzz%2Frand_000025.hlo",
            "raw_url": "https://github.com/tensorflow/tensorflow/raw/fcd421e9df0946288cbb745ae7193b8b2795d00c/third_party%2Fxla%2Fxla%2Ftests%2Ffuzz%2Frand_000025.hlo",
            "contents_url": "https://api.github.com/repos/tensorflow/tensorflow/contents/third_party%2Fxla%2Fxla%2Ftests%2Ffuzz%2Frand_000025.hlo?ref=fcd421e9df0946288cbb745ae7193b8b2795d00c",
            "patch": "@@ -1,20 +0,0 @@\n-/* This file is autogenerated! Please don't edit! */\n-HloModule xla_computation_unknown, entry_computation_layout={(s32[2]{0},f32[7,2]{1,0},f32[11,2,8,8]{3,2,1,0})->(f32[11,2,8,8]{3,2,1,0})}\n-\n-region_0.6 {\n-  Arg_0.7 = f32[] parameter(0)\n-  ROOT Arg_1.8 = f32[] parameter(1)\n-}\n-\n-ENTRY main.13 {\n-  constant.4 = f32[] constant(1)\n-  broadcast.5 = f32[11,2,8,8]{3,2,1,0} broadcast(constant.4), dimensions={}\n-  Arg_0.1 = s32[2]{0} parameter(0)\n-  Arg_1.2 = f32[7,2]{1,0} parameter(1)\n-  scatter.9 = f32[11,2,8,8]{3,2,1,0} scatter(broadcast.5, Arg_0.1, Arg_1.2), update_window_dims={0,1}, inserted_window_dims={2,3}, scatter_dims_to_operand_dims={1,0}, index_vector_dim=0, to_apply=region_0.6\n-  Arg_2.3 = f32[11,2,8,8]{3,2,1,0} parameter(2)\n-  reverse.10 = f32[11,2,8,8]{3,2,1,0} reverse(Arg_2.3), dimensions={1,2,0}\n-  multiply.11 = f32[11,2,8,8]{3,2,1,0} multiply(scatter.9, reverse.10)\n-  ROOT tuple.12 = (f32[11,2,8,8]{3,2,1,0}) tuple(multiply.11)\n-}\n-"
        },
        {
            "sha": "b595fbaab58e20de304d0c38a2f378f857d37ff7",
            "filename": "third_party/xla/xla/tests/fuzz/rand_000026.hlo",
            "status": "removed",
            "additions": 0,
            "deletions": 20,
            "changes": 20,
            "blob_url": "https://github.com/tensorflow/tensorflow/blob/fcd421e9df0946288cbb745ae7193b8b2795d00c/third_party%2Fxla%2Fxla%2Ftests%2Ffuzz%2Frand_000026.hlo",
            "raw_url": "https://github.com/tensorflow/tensorflow/raw/fcd421e9df0946288cbb745ae7193b8b2795d00c/third_party%2Fxla%2Fxla%2Ftests%2Ffuzz%2Frand_000026.hlo",
            "contents_url": "https://api.github.com/repos/tensorflow/tensorflow/contents/third_party%2Fxla%2Fxla%2Ftests%2Ffuzz%2Frand_000026.hlo?ref=fcd421e9df0946288cbb745ae7193b8b2795d00c",
            "patch": "@@ -1,20 +0,0 @@\n-/* This file is autogenerated! Please don't edit! */\n-HloModule xla_computation_unknown, entry_computation_layout={(s32[13,1]{1,0})->(pred[11]{0})}\n-\n-region_0.6 {\n-  Arg_0.7 = u16[] parameter(0)\n-  Arg_1.8 = u16[] parameter(1)\n-  ROOT maximum.9 = u16[] maximum(Arg_0.7, Arg_1.8)\n-}\n-\n-ENTRY main.13 {\n-  constant.2 = u16[] constant(1)\n-  broadcast.3 = u16[11]{0} broadcast(constant.2), dimensions={}\n-  Arg_0.1 = s32[13,1]{1,0} parameter(0)\n-  constant.4 = u16[] constant(1)\n-  broadcast.5 = u16[10,13]{1,0} broadcast(constant.4), dimensions={}\n-  scatter.10 = u16[11]{0} scatter(broadcast.3, Arg_0.1, broadcast.5), update_window_dims={0}, inserted_window_dims={}, scatter_dims_to_operand_dims={0}, index_vector_dim=1, to_apply=region_0.6\n-  compare.11 = pred[11]{0} compare(broadcast.3, scatter.10), direction=LT\n-  ROOT tuple.12 = (pred[11]{0}) tuple(compare.11)\n-}\n-"
        },
        {
            "sha": "7bf45b610d5552cd1bc09598e813f53574de97c9",
            "filename": "third_party/xla/xla/tests/fuzz/rand_000030.hlo",
            "status": "removed",
            "additions": 0,
            "deletions": 16,
            "changes": 16,
            "blob_url": "https://github.com/tensorflow/tensorflow/blob/fcd421e9df0946288cbb745ae7193b8b2795d00c/third_party%2Fxla%2Fxla%2Ftests%2Ffuzz%2Frand_000030.hlo",
            "raw_url": "https://github.com/tensorflow/tensorflow/raw/fcd421e9df0946288cbb745ae7193b8b2795d00c/third_party%2Fxla%2Fxla%2Ftests%2Ffuzz%2Frand_000030.hlo",
            "contents_url": "https://api.github.com/repos/tensorflow/tensorflow/contents/third_party%2Fxla%2Fxla%2Ftests%2Ffuzz%2Frand_000030.hlo?ref=fcd421e9df0946288cbb745ae7193b8b2795d00c",
            "patch": "@@ -1,16 +0,0 @@\n-/* This file is autogenerated! Please don't edit! */\n-HloModule xla_computation_unknown, entry_computation_layout={(u8[11,1,8,10]{3,2,1,0},u8[11,1,8,10]{3,2,1,0})->(u8[11,1,8,10]{3,2,1,0})}\n-\n-ENTRY main.11 {\n-  Arg_0.1 = u8[11,1,8,10]{3,2,1,0} parameter(0)\n-  constant.5 = u8[] constant(0)\n-  broadcast.6 = u8[11,1,8,10]{3,2,1,0} broadcast(constant.5), dimensions={}\n-  compare.7 = pred[11,1,8,10]{3,2,1,0} compare(Arg_0.1, broadcast.6), direction=EQ\n-  constant.3 = u8[] constant(1)\n-  broadcast.4 = u8[11,1,8,10]{3,2,1,0} broadcast(constant.3), dimensions={}\n-  select.8 = u8[11,1,8,10]{3,2,1,0} select(compare.7, broadcast.6, broadcast.4)\n-  Arg_1.2 = u8[11,1,8,10]{3,2,1,0} parameter(1)\n-  or.9 = u8[11,1,8,10]{3,2,1,0} or(select.8, Arg_1.2)\n-  ROOT tuple.10 = (u8[11,1,8,10]{3,2,1,0}) tuple(or.9)\n-}\n-"
        },
        {
            "sha": "12a02f6245da90e8694eba2a31f4b81a95fe5a1b",
            "filename": "third_party/xla/xla/tests/fuzz/rand_000031.hlo",
            "status": "removed",
            "additions": 0,
            "deletions": 26,
            "changes": 26,
            "blob_url": "https://github.com/tensorflow/tensorflow/blob/fcd421e9df0946288cbb745ae7193b8b2795d00c/third_party%2Fxla%2Fxla%2Ftests%2Ffuzz%2Frand_000031.hlo",
            "raw_url": "https://github.com/tensorflow/tensorflow/raw/fcd421e9df0946288cbb745ae7193b8b2795d00c/third_party%2Fxla%2Fxla%2Ftests%2Ffuzz%2Frand_000031.hlo",
            "contents_url": "https://api.github.com/repos/tensorflow/tensorflow/contents/third_party%2Fxla%2Fxla%2Ftests%2Ffuzz%2Frand_000031.hlo?ref=fcd421e9df0946288cbb745ae7193b8b2795d00c",
            "patch": "@@ -1,26 +0,0 @@\n-/* This file is autogenerated! Please don't edit! */\n-HloModule xla_computation_unknown, entry_computation_layout={(u16[11,12]{1,0})->(u16[12]{0})}\n-\n-region_0.6 {\n-  Arg_0.7 = u16[] parameter(0)\n-  Arg_1.8 = u16[] parameter(1)\n-  ROOT minimum.9 = u16[] minimum(Arg_0.7, Arg_1.8)\n-}\n-\n-region_1.11 {\n-  Arg_0.12 = u16[] parameter(0)\n-  Arg_1.13 = u16[] parameter(1)\n-  ROOT maximum.14 = u16[] maximum(Arg_0.12, Arg_1.13)\n-}\n-\n-ENTRY main.17 {\n-  Arg_0.1 = u16[11,12]{1,0} parameter(0)\n-  constant.2 = s32[1]{0} constant({1})\n-  constant.4 = u16[] constant(1)\n-  broadcast.5 = u16[12]{0} broadcast(constant.4), dimensions={}\n-  scatter.10 = u16[11,12]{1,0} scatter(Arg_0.1, constant.2, broadcast.5), update_window_dims={0}, inserted_window_dims={0}, scatter_dims_to_operand_dims={0}, index_vector_dim=0, to_apply=region_0.6\n-  constant.3 = u16[] constant(0)\n-  reduce.15 = u16[12]{0} reduce(scatter.10, constant.3), dimensions={0}, to_apply=region_1.11\n-  ROOT tuple.16 = (u16[12]{0}) tuple(reduce.15)\n-}\n-"
        },
        {
            "sha": "f0c7e7f9179ce56608d15e4a88255badf7244288",
            "filename": "third_party/xla/xla/tests/fuzz/rand_000032.hlo",
            "status": "removed",
            "additions": 0,
            "deletions": 30,
            "changes": 30,
            "blob_url": "https://github.com/tensorflow/tensorflow/blob/fcd421e9df0946288cbb745ae7193b8b2795d00c/third_party%2Fxla%2Fxla%2Ftests%2Ffuzz%2Frand_000032.hlo",
            "raw_url": "https://github.com/tensorflow/tensorflow/raw/fcd421e9df0946288cbb745ae7193b8b2795d00c/third_party%2Fxla%2Fxla%2Ftests%2Ffuzz%2Frand_000032.hlo",
            "contents_url": "https://api.github.com/repos/tensorflow/tensorflow/contents/third_party%2Fxla%2Fxla%2Ftests%2Ffuzz%2Frand_000032.hlo?ref=fcd421e9df0946288cbb745ae7193b8b2795d00c",
            "patch": "@@ -1,30 +0,0 @@\n-/* This file is autogenerated! Please don't edit! */\n-HloModule xla_computation_unknown, entry_computation_layout={(f16[3,15,15,13]{3,2,1,0},f16[3,3,11]{2,1,0})->(f16[3,15,15,13]{3,2,1,0})}\n-\n-region_0.9 {\n-  Arg_0.10 = s32[] parameter(0)\n-  Arg_1.11 = s32[] parameter(1)\n-  ROOT add.12 = s32[] add(Arg_0.10, Arg_1.11)\n-}\n-\n-region_1.16 {\n-  Arg_0.17 = f16[] parameter(0)\n-  ROOT Arg_1.18 = f16[] parameter(1)\n-}\n-\n-ENTRY main.21 {\n-  constant.5 = f16[] constant(1)\n-  broadcast.6 = f16[3,15,15,13]{3,2,1,0} broadcast(constant.5), dimensions={}\n-  Arg_0.1 = f16[3,15,15,13]{3,2,1,0} parameter(0)\n-  power.8 = f16[3,15,15,13]{3,2,1,0} power(broadcast.6, Arg_0.1)\n-  constant.3 = s32[] constant(1)\n-  broadcast.4 = s32[28]{0} broadcast(constant.3), dimensions={}\n-  constant.7 = s32[] constant(0)\n-  reduce.13 = s32[] reduce(broadcast.4, constant.7), dimensions={0}, to_apply=region_0.9\n-  broadcast.14 = s32[3]{0} broadcast(reduce.13), dimensions={}\n-  Arg_1.2 = f16[3,3,11]{2,1,0} parameter(1)\n-  ceil.15 = f16[3,3,11]{2,1,0} ceil(Arg_1.2)\n-  scatter.19 = f16[3,15,15,13]{3,2,1,0} scatter(power.8, broadcast.14, ceil.15), update_window_dims={0,1,2}, inserted_window_dims={2}, scatter_dims_to_operand_dims={2,0,1}, index_vector_dim=0, to_apply=region_1.16\n-  ROOT tuple.20 = (f16[3,15,15,13]{3,2,1,0}) tuple(scatter.19)\n-}\n-"
        },
        {
            "sha": "b24560c508d61c5383d5f3ea115f0a7e175a7eb1",
            "filename": "third_party/xla/xla/tests/fuzz/rand_000033.hlo",
            "status": "removed",
            "additions": 0,
            "deletions": 13,
            "changes": 13,
            "blob_url": "https://github.com/tensorflow/tensorflow/blob/fcd421e9df0946288cbb745ae7193b8b2795d00c/third_party%2Fxla%2Fxla%2Ftests%2Ffuzz%2Frand_000033.hlo",
            "raw_url": "https://github.com/tensorflow/tensorflow/raw/fcd421e9df0946288cbb745ae7193b8b2795d00c/third_party%2Fxla%2Fxla%2Ftests%2Ffuzz%2Frand_000033.hlo",
            "contents_url": "https://api.github.com/repos/tensorflow/tensorflow/contents/third_party%2Fxla%2Fxla%2Ftests%2Ffuzz%2Frand_000033.hlo?ref=fcd421e9df0946288cbb745ae7193b8b2795d00c",
            "patch": "@@ -1,13 +0,0 @@\n-/* This file is autogenerated! Please don't edit! */\n-HloModule xla_computation_unknown, entry_computation_layout={()->(s32[11,5]{1,0})}\n-\n-ENTRY main.8 {\n-  constant.3 = s32[] constant(1)\n-  broadcast.4 = s32[11,3]{1,0} broadcast(constant.3), dimensions={}\n-  shift-left.5 = s32[11,3]{1,0} shift-left(broadcast.4, broadcast.4)\n-  constant.1 = s32[] constant(-2)\n-  broadcast.2 = s32[3,5]{1,0} broadcast(constant.1), dimensions={}\n-  dot.6 = s32[11,5]{1,0} dot(shift-left.5, broadcast.2), lhs_contracting_dims={1}, rhs_contracting_dims={0}\n-  ROOT tuple.7 = (s32[11,5]{1,0}) tuple(dot.6)\n-}\n-"
        },
        {
            "sha": "001e2e939566e2255dd4d39a60fb8ba65cb64959",
            "filename": "third_party/xla/xla/tests/fuzz/rand_000034.hlo",
            "status": "removed",
            "additions": 0,
            "deletions": 326,
            "changes": 326,
            "blob_url": "https://github.com/tensorflow/tensorflow/blob/fcd421e9df0946288cbb745ae7193b8b2795d00c/third_party%2Fxla%2Fxla%2Ftests%2Ffuzz%2Frand_000034.hlo",
            "raw_url": "https://github.com/tensorflow/tensorflow/raw/fcd421e9df0946288cbb745ae7193b8b2795d00c/third_party%2Fxla%2Fxla%2Ftests%2Ffuzz%2Frand_000034.hlo",
            "contents_url": "https://api.github.com/repos/tensorflow/tensorflow/contents/third_party%2Fxla%2Fxla%2Ftests%2Ffuzz%2Frand_000034.hlo?ref=fcd421e9df0946288cbb745ae7193b8b2795d00c",
            "patch": "@@ -1,326 +0,0 @@\n-/* This file is autogenerated! Please don't edit! */\n-HloModule xla_computation_unknown, entry_computation_layout={(bf16[9,11,3]{2,1,0},bf16[11,9,3]{2,1,0})->(bf16[])}\n-\n-region_0.117 {\n-  arg_tuple.118 = (pred[], f32[], f32[], f32[], f32[], /*index=5*/f32[], f32[]) parameter(0)\n-  get-tuple-element.119 = pred[] get-tuple-element(arg_tuple.118), index=0\n-  get-tuple-element.121 = f32[] get-tuple-element(arg_tuple.118), index=2\n-  get-tuple-element.125 = f32[] get-tuple-element(arg_tuple.118), index=6\n-  get-tuple-element.120 = f32[] get-tuple-element(arg_tuple.118), index=1\n-  constant.127 = f32[] constant(1)\n-  add.128 = f32[] add(get-tuple-element.120, constant.127)\n-  divide.136 = f32[] divide(get-tuple-element.125, add.128)\n-  multiply.137 = f32[] multiply(get-tuple-element.121, divide.136)\n-  get-tuple-element.122 = f32[] get-tuple-element(arg_tuple.118), index=3\n-  add.138 = f32[] add(get-tuple-element.122, multiply.137)\n-  divide.139 = f32[] divide(multiply.137, add.138)\n-  constant.126 = f32[] constant(1.1920929e-07)\n-  compare.140 = pred[] compare(divide.139, constant.126), direction=GT\n-  and.141 = pred[] and(get-tuple-element.119, compare.140)\n-  select.142 = f32[] select(get-tuple-element.119, add.128, get-tuple-element.120)\n-  select.143 = f32[] select(get-tuple-element.119, multiply.137, get-tuple-element.121)\n-  select.144 = f32[] select(get-tuple-element.119, add.138, get-tuple-element.122)\n-  get-tuple-element.123 = f32[] get-tuple-element(arg_tuple.118), index=4\n-  divide.129 = f32[] divide(get-tuple-element.125, add.128)\n-  multiply.130 = f32[] multiply(get-tuple-element.123, divide.129)\n-  multiply.131 = f32[] multiply(get-tuple-element.121, get-tuple-element.125)\n-  multiply.132 = f32[] multiply(add.128, add.128)\n-  divide.133 = f32[] divide(multiply.131, multiply.132)\n-  subtract.134 = f32[] subtract(multiply.130, divide.133)\n-  select.145 = f32[] select(get-tuple-element.119, subtract.134, get-tuple-element.123)\n-  get-tuple-element.124 = f32[] get-tuple-element(arg_tuple.118), index=5\n-  add.135 = f32[] add(get-tuple-element.124, subtract.134)\n-  select.146 = f32[] select(get-tuple-element.119, add.135, get-tuple-element.124)\n-  ROOT tuple.147 = (pred[], f32[], f32[], f32[], f32[], /*index=5*/f32[], f32[]) tuple(and.141, select.142, select.143, select.144, select.145, select.146, get-tuple-element.125)\n-}\n-\n-region_1.148 {\n-  arg_tuple.149 = (pred[], f32[], f32[], f32[], f32[], /*index=5*/f32[], f32[]) parameter(0)\n-  ROOT get-tuple-element.150 = pred[] get-tuple-element(arg_tuple.149), index=0\n-  get-tuple-element.151 = f32[] get-tuple-element(arg_tuple.149), index=1\n-  get-tuple-element.152 = f32[] get-tuple-element(arg_tuple.149), index=2\n-  get-tuple-element.153 = f32[] get-tuple-element(arg_tuple.149), index=3\n-  get-tuple-element.154 = f32[] get-tuple-element(arg_tuple.149), index=4\n-  get-tuple-element.155 = f32[] get-tuple-element(arg_tuple.149), index=5\n-  get-tuple-element.156 = f32[] get-tuple-element(arg_tuple.149), index=6\n-}\n-\n-region_2.180 {\n-  arg_tuple.181 = (pred[], f32[], f32[], f32[], f32[], /*index=5*/f32[], f32[], f32[], f32[], f32[], /*index=10*/f32[], f32[], f32[], f32[], f32[]) parameter(0)\n-  get-tuple-element.182 = pred[] get-tuple-element(arg_tuple.181), index=0\n-  get-tuple-element.189 = f32[] get-tuple-element(arg_tuple.181), index=7\n-  get-tuple-element.186 = f32[] get-tuple-element(arg_tuple.181), index=4\n-  constant.200 = f32[] constant(2)\n-  add.204 = f32[] add(get-tuple-element.186, constant.200)\n-  multiply.209 = f32[] multiply(get-tuple-element.189, add.204)\n-  get-tuple-element.191 = f32[] get-tuple-element(arg_tuple.181), index=9\n-  get-tuple-element.185 = f32[] get-tuple-element(arg_tuple.181), index=3\n-  constant.201 = f32[] constant(1)\n-  add.203 = f32[] add(get-tuple-element.185, constant.201)\n-  get-tuple-element.187 = f32[] get-tuple-element(arg_tuple.181), index=5\n-  add.202 = f32[] add(get-tuple-element.187, constant.201)\n-  multiply.205 = f32[] multiply(add.203, add.202)\n-  multiply.210 = f32[] multiply(get-tuple-element.191, multiply.205)\n-  subtract.211 = f32[] subtract(multiply.209, multiply.210)\n-  constant.199 = f32[] constant(0)\n-  compare.212 = pred[] compare(subtract.211, constant.199), direction=NE\n-  get-tuple-element.183 = f32[] get-tuple-element(arg_tuple.181), index=1\n-  get-tuple-element.188 = f32[] get-tuple-element(arg_tuple.181), index=6\n-  multiply.206 = f32[] multiply(get-tuple-element.188, add.204)\n-  get-tuple-element.190 = f32[] get-tuple-element(arg_tuple.181), index=8\n-  multiply.207 = f32[] multiply(get-tuple-element.190, multiply.205)\n-  subtract.208 = f32[] subtract(multiply.206, multiply.207)\n-  divide.213 = f32[] divide(subtract.208, subtract.211)\n-  subtract.214 = f32[] subtract(get-tuple-element.183, divide.213)\n-  divide.215 = f32[] divide(subtract.214, divide.213)\n-  abs.216 = f32[] abs(divide.215)\n-  select.217 = f32[] select(compare.212, abs.216, constant.201)\n-  constant.197 = f32[] constant(1.1920929e-07)\n-  compare.253 = pred[] compare(select.217, constant.197), direction=GT\n-  and.254 = pred[] and(get-tuple-element.182, compare.253)\n-  select.218 = f32[] select(compare.212, divide.213, get-tuple-element.183)\n-  select.255 = f32[] select(get-tuple-element.182, select.218, get-tuple-element.183)\n-  get-tuple-element.184 = f32[] get-tuple-element(arg_tuple.181), index=2\n-  select.256 = f32[] select(get-tuple-element.182, select.217, get-tuple-element.184)\n-  select.257 = f32[] select(get-tuple-element.182, add.203, get-tuple-element.185)\n-  select.258 = f32[] select(get-tuple-element.182, add.204, get-tuple-element.186)\n-  abs.235 = f32[] abs(subtract.208)\n-  constant.198 = f32[] constant(8388608)\n-  compare.236 = pred[] compare(abs.235, constant.198), direction=GT\n-  multiply.239 = f32[] multiply(subtract.208, constant.197)\n-  select.240 = f32[] select(compare.236, multiply.239, subtract.208)\n-  select.259 = f32[] select(get-tuple-element.182, select.240, get-tuple-element.188)\n-  multiply.243 = f32[] multiply(subtract.211, constant.197)\n-  select.244 = f32[] select(compare.236, multiply.243, subtract.211)\n-  select.260 = f32[] select(get-tuple-element.182, select.244, get-tuple-element.189)\n-  multiply.237 = f32[] multiply(get-tuple-element.188, constant.197)\n-  select.238 = f32[] select(compare.236, multiply.237, get-tuple-element.188)\n-  select.261 = f32[] select(get-tuple-element.182, select.238, get-tuple-element.190)\n-  multiply.241 = f32[] multiply(get-tuple-element.189, constant.197)\n-  select.242 = f32[] select(compare.236, multiply.241, get-tuple-element.189)\n-  select.262 = f32[] select(get-tuple-element.182, select.242, get-tuple-element.191)\n-  get-tuple-element.194 = f32[] get-tuple-element(arg_tuple.181), index=12\n-  multiply.245 = f32[] multiply(get-tuple-element.194, constant.197)\n-  select.246 = f32[] select(compare.236, multiply.245, get-tuple-element.194)\n-  get-tuple-element.192 = f32[] get-tuple-element(arg_tuple.181), index=10\n-  select.263 = f32[] select(get-tuple-element.182, select.246, get-tuple-element.192)\n-  get-tuple-element.195 = f32[] get-tuple-element(arg_tuple.181), index=13\n-  multiply.247 = f32[] multiply(get-tuple-element.195, constant.197)\n-  select.248 = f32[] select(compare.236, multiply.247, get-tuple-element.195)\n-  get-tuple-element.193 = f32[] get-tuple-element(arg_tuple.181), index=11\n-  select.264 = f32[] select(get-tuple-element.182, select.248, get-tuple-element.193)\n-  multiply.219 = f32[] multiply(get-tuple-element.194, add.204)\n-  subtract.220 = f32[] subtract(multiply.219, get-tuple-element.188)\n-  multiply.221 = f32[] multiply(get-tuple-element.192, multiply.205)\n-  subtract.222 = f32[] subtract(subtract.220, multiply.221)\n-  multiply.223 = f32[] multiply(get-tuple-element.190, add.202)\n-  add.224 = f32[] add(subtract.222, multiply.223)\n-  multiply.249 = f32[] multiply(add.224, constant.197)\n-  select.250 = f32[] select(compare.236, multiply.249, add.224)\n-  select.265 = f32[] select(get-tuple-element.182, select.250, get-tuple-element.194)\n-  multiply.225 = f32[] multiply(get-tuple-element.195, add.204)\n-  subtract.226 = f32[] subtract(multiply.225, get-tuple-element.189)\n-  multiply.227 = f32[] multiply(get-tuple-element.193, multiply.205)\n-  subtract.228 = f32[] subtract(subtract.226, multiply.227)\n-  multiply.229 = f32[] multiply(get-tuple-element.191, add.202)\n-  add.230 = f32[] add(subtract.228, multiply.229)\n-  multiply.251 = f32[] multiply(add.230, constant.197)\n-  select.252 = f32[] select(compare.236, multiply.251, add.230)\n-  select.266 = f32[] select(get-tuple-element.182, select.252, get-tuple-element.195)\n-  multiply.231 = f32[] multiply(select.218, add.230)\n-  subtract.232 = f32[] subtract(add.224, multiply.231)\n-  divide.233 = f32[] divide(subtract.232, subtract.211)\n-  get-tuple-element.196 = f32[] get-tuple-element(arg_tuple.181), index=14\n-  select.234 = f32[] select(compare.212, divide.233, get-tuple-element.196)\n-  select.267 = f32[] select(get-tuple-element.182, select.234, get-tuple-element.196)\n-  ROOT tuple.268 = (pred[], f32[], f32[], f32[], f32[], /*index=5*/f32[], f32[], f32[], f32[], f32[], /*index=10*/f32[], f32[], f32[], f32[], f32[]) tuple(and.254, select.255, select.256, select.257, select.258, add.202, select.259, select.260, select.261, select.262, select.263, select.264, select.265, select.266, select.267)\n-}\n-\n-region_3.269 {\n-  arg_tuple.270 = (pred[], f32[], f32[], f32[], f32[], /*index=5*/f32[], f32[], f32[], f32[], f32[], /*index=10*/f32[], f32[], f32[], f32[], f32[]) parameter(0)\n-  get-tuple-element.272 = f32[] get-tuple-element(arg_tuple.270), index=1\n-  get-tuple-element.273 = f32[] get-tuple-element(arg_tuple.270), index=2\n-  get-tuple-element.274 = f32[] get-tuple-element(arg_tuple.270), index=3\n-  get-tuple-element.275 = f32[] get-tuple-element(arg_tuple.270), index=4\n-  get-tuple-element.277 = f32[] get-tuple-element(arg_tuple.270), index=6\n-  get-tuple-element.278 = f32[] get-tuple-element(arg_tuple.270), index=7\n-  get-tuple-element.279 = f32[] get-tuple-element(arg_tuple.270), index=8\n-  get-tuple-element.280 = f32[] get-tuple-element(arg_tuple.270), index=9\n-  get-tuple-element.281 = f32[] get-tuple-element(arg_tuple.270), index=10\n-  get-tuple-element.282 = f32[] get-tuple-element(arg_tuple.270), index=11\n-  get-tuple-element.283 = f32[] get-tuple-element(arg_tuple.270), index=12\n-  get-tuple-element.284 = f32[] get-tuple-element(arg_tuple.270), index=13\n-  get-tuple-element.285 = f32[] get-tuple-element(arg_tuple.270), index=14\n-  get-tuple-element.276 = f32[] get-tuple-element(arg_tuple.270), index=5\n-  constant.286 = f32[] constant(2000)\n-  compare.287 = pred[] compare(get-tuple-element.276, constant.286), direction=LT\n-  get-tuple-element.271 = pred[] get-tuple-element(arg_tuple.270), index=0\n-  ROOT and.288 = pred[] and(compare.287, get-tuple-element.271)\n-}\n-\n-ENTRY main.313 {\n-  Arg_0.1 = bf16[9,11,3]{2,1,0} parameter(0)\n-  Arg_1.2 = bf16[11,9,3]{2,1,0} parameter(1)\n-  dot.39 = bf16[] dot(Arg_0.1, Arg_1.2), lhs_contracting_dims={2,1,0}, rhs_contracting_dims={2,0,1}\n-  constant.17 = bf16[] constant(0)\n-  maximum.41 = bf16[] maximum(dot.39, constant.17)\n-  convert.43 = f32[] convert(maximum.41)\n-  constant.7 = f32[] constant(0)\n-  compare.44 = pred[] compare(convert.43, constant.7), direction=LE\n-  constant.6 = f32[] constant(0.5)\n-  constant.8 = f32[] constant(7.5)\n-  log-plus-one.31 = f32[] log-plus-one(constant.7)\n-  constant.22 = f32[] constant(2.01490307)\n-  add.32 = f32[] add(log-plus-one.31, constant.22)\n-  divide.33 = f32[] divide(constant.8, add.32)\n-  subtract.34 = f32[] subtract(constant.6, divide.33)\n-  multiply.35 = f32[] multiply(subtract.34, add.32)\n-  constant.21 = f32[] constant(0.918938518)\n-  add.36 = f32[] add(multiply.35, constant.21)\n-  constant.5 = f32[] constant(5.57361031)\n-  add.37 = f32[] add(add.36, constant.5)\n-  convert.38 = bf16[] convert(add.37)\n-  constant.30 = bf16[] constant(0.007812)\n-  maximum.40 = bf16[] maximum(convert.38, constant.30)\n-  convert.42 = f32[] convert(maximum.40)\n-  compare.45 = pred[] compare(convert.42, constant.7), direction=LE\n-  or.46 = pred[] or(compare.44, compare.45)\n-  log.50 = f32[] log(convert.43)\n-  multiply.51 = f32[] multiply(convert.42, log.50)\n-  subtract.52 = f32[] subtract(multiply.51, convert.43)\n-  abs.107 = f32[] abs(convert.42)\n-  constant.18 = f32[] constant(inf)\n-  compare.108 = pred[] compare(abs.107, constant.18), direction=EQ\n-  compare.53 = pred[] compare(convert.42, constant.6), direction=LT\n-  abs.92 = f32[] abs(convert.42)\n-  floor.93 = f32[] floor(abs.92)\n-  subtract.94 = f32[] subtract(abs.92, floor.93)\n-  compare.95 = pred[] compare(constant.6, subtract.94), direction=LT\n-  constant.4 = f32[] constant(1)\n-  subtract.96 = f32[] subtract(constant.4, subtract.94)\n-  select.97 = f32[] select(compare.95, subtract.96, subtract.94)\n-  constant.20 = f32[] constant(3.14159274)\n-  multiply.98 = f32[] multiply(select.97, constant.20)\n-  sine.99 = f32[] sine(multiply.98)\n-  log.100 = f32[] log(sine.99)\n-  is-finite.103 = pred[] is-finite(log.100)\n-  constant.19 = f32[] constant(1.14472985)\n-  subtract.101 = f32[] subtract(constant.19, log.100)\n-  negate.54 = f32[] negate(convert.42)\n-  subtract.55 = f32[] subtract(convert.42, constant.4)\n-  select.56 = f32[] select(compare.53, negate.54, subtract.55)\n-  add.86 = f32[] add(select.56, constant.6)\n-  add.81 = f32[] add(select.56, constant.8)\n-  divide.82 = f32[] divide(select.56, constant.8)\n-  log-plus-one.83 = f32[] log-plus-one(divide.82)\n-  add.84 = f32[] add(log-plus-one.83, constant.22)\n-  divide.85 = f32[] divide(add.81, add.84)\n-  subtract.87 = f32[] subtract(add.86, divide.85)\n-  multiply.88 = f32[] multiply(subtract.87, add.84)\n-  add.90 = f32[] add(multiply.88, constant.21)\n-  constant.16 = f32[] constant(676.520386)\n-  add.57 = f32[] add(select.56, constant.4)\n-  divide.58 = f32[] divide(constant.16, add.57)\n-  add.59 = f32[] add(divide.58, constant.4)\n-  constant.29 = f32[] constant(-1259.13916)\n-  constant.15 = f32[] constant(2)\n-  add.60 = f32[] add(select.56, constant.15)\n-  divide.61 = f32[] divide(constant.29, add.60)\n-  add.62 = f32[] add(add.59, divide.61)\n-  constant.28 = f32[] constant(771.323425)\n-  constant.14 = f32[] constant(3)\n-  add.63 = f32[] add(select.56, constant.14)\n-  divide.64 = f32[] divide(constant.28, add.63)\n-  add.65 = f32[] add(add.62, divide.64)\n-  constant.27 = f32[] constant(-176.615036)\n-  constant.13 = f32[] constant(4)\n-  add.66 = f32[] add(select.56, constant.13)\n-  divide.67 = f32[] divide(constant.27, add.66)\n-  add.68 = f32[] add(add.65, divide.67)\n-  constant.26 = f32[] constant(12.5073433)\n-  constant.12 = f32[] constant(5)\n-  add.69 = f32[] add(select.56, constant.12)\n-  divide.70 = f32[] divide(constant.26, add.69)\n-  add.71 = f32[] add(add.68, divide.70)\n-  constant.25 = f32[] constant(-0.138571098)\n-  constant.11 = f32[] constant(6)\n-  add.72 = f32[] add(select.56, constant.11)\n-  divide.73 = f32[] divide(constant.25, add.72)\n-  add.74 = f32[] add(add.71, divide.73)\n-  constant.24 = f32[] constant(9.98436917e-06)\n-  constant.10 = f32[] constant(7)\n-  add.75 = f32[] add(select.56, constant.10)\n-  divide.76 = f32[] divide(constant.24, add.75)\n-  add.77 = f32[] add(add.74, divide.76)\n-  constant.23 = f32[] constant(1.50563267e-07)\n-  constant.9 = f32[] constant(8)\n-  add.78 = f32[] add(select.56, constant.9)\n-  divide.79 = f32[] divide(constant.23, add.78)\n-  add.80 = f32[] add(add.77, divide.79)\n-  log.89 = f32[] log(add.80)\n-  add.91 = f32[] add(add.90, log.89)\n-  subtract.102 = f32[] subtract(subtract.101, add.91)\n-  negate.104 = f32[] negate(log.100)\n-  select.105 = f32[] select(is-finite.103, subtract.102, negate.104)\n-  select.106 = f32[] select(compare.53, select.105, add.91)\n-  select.109 = f32[] select(compare.108, constant.18, select.106)\n-  subtract.110 = f32[] subtract(subtract.52, select.109)\n-  constant.3 = f32[] constant(-88.7228394)\n-  compare.111 = pred[] compare(subtract.110, constant.3), direction=LT\n-  or.112 = pred[] or(or.46, compare.111)\n-  not.113 = pred[] not(or.112)\n-  compare.47 = pred[] compare(convert.43, constant.4), direction=LT\n-  compare.48 = pred[] compare(convert.43, convert.42), direction=LT\n-  or.49 = pred[] or(compare.47, compare.48)\n-  and.115 = pred[] and(not.113, or.49)\n-  tuple.116 = (pred[], f32[], f32[], f32[], f32[], /*index=5*/f32[], f32[]) tuple(and.115, convert.42, constant.4, constant.4, constant.7, constant.7, convert.43)\n-  while.157 = (pred[], f32[], f32[], f32[], f32[], /*index=5*/f32[], f32[]) while(tuple.116), condition=region_1.148, body=region_0.117\n-  get-tuple-element.158 = pred[] get-tuple-element(while.157), index=0\n-  get-tuple-element.159 = f32[] get-tuple-element(while.157), index=1\n-  get-tuple-element.160 = f32[] get-tuple-element(while.157), index=2\n-  get-tuple-element.162 = f32[] get-tuple-element(while.157), index=4\n-  get-tuple-element.163 = f32[] get-tuple-element(while.157), index=5\n-  get-tuple-element.164 = f32[] get-tuple-element(while.157), index=6\n-  not.167 = pred[] not(or.49)\n-  and.168 = pred[] and(not.113, not.167)\n-  add.172 = f32[] add(convert.43, constant.4)\n-  subtract.169 = f32[] subtract(constant.4, convert.42)\n-  add.170 = f32[] add(convert.43, subtract.169)\n-  add.171 = f32[] add(add.170, constant.4)\n-  multiply.173 = f32[] multiply(add.171, convert.43)\n-  divide.174 = f32[] divide(add.172, multiply.173)\n-  negate.175 = f32[] negate(convert.43)\n-  multiply.176 = f32[] multiply(divide.174, negate.175)\n-  subtract.177 = f32[] subtract(constant.7, multiply.176)\n-  divide.178 = f32[] divide(subtract.177, multiply.173)\n-  tuple.179 = (pred[], f32[], f32[], f32[], f32[], /*index=5*/f32[], f32[], f32[], f32[], f32[], /*index=10*/f32[], f32[], f32[], f32[], f32[]) tuple(and.168, divide.174, constant.4, subtract.169, add.171, constant.7, add.172, multiply.173, constant.4, convert.43, constant.7, constant.7, constant.7, negate.175, divide.178)\n-  while.289 = (pred[], f32[], f32[], f32[], f32[], /*index=5*/f32[], f32[], f32[], f32[], f32[], /*index=10*/f32[], f32[], f32[], f32[], f32[]) while(tuple.179), condition=region_3.269, body=region_2.180\n-  get-tuple-element.290 = pred[] get-tuple-element(while.289), index=0\n-  get-tuple-element.292 = f32[] get-tuple-element(while.289), index=2\n-  get-tuple-element.293 = f32[] get-tuple-element(while.289), index=3\n-  get-tuple-element.294 = f32[] get-tuple-element(while.289), index=4\n-  get-tuple-element.295 = f32[] get-tuple-element(while.289), index=5\n-  get-tuple-element.296 = f32[] get-tuple-element(while.289), index=6\n-  get-tuple-element.297 = f32[] get-tuple-element(while.289), index=7\n-  get-tuple-element.298 = f32[] get-tuple-element(while.289), index=8\n-  get-tuple-element.299 = f32[] get-tuple-element(while.289), index=9\n-  get-tuple-element.300 = f32[] get-tuple-element(while.289), index=10\n-  get-tuple-element.301 = f32[] get-tuple-element(while.289), index=11\n-  get-tuple-element.302 = f32[] get-tuple-element(while.289), index=12\n-  get-tuple-element.303 = f32[] get-tuple-element(while.289), index=13\n-  get-tuple-element.304 = f32[] get-tuple-element(while.289), index=14\n-  compare.308 = pred[] compare(convert.43, constant.18), direction=EQ\n-  get-tuple-element.161 = f32[] get-tuple-element(while.157), index=3\n-  exponential.114 = f32[] exponential(subtract.110)\n-  multiply.165 = f32[] multiply(get-tuple-element.161, exponential.114)\n-  divide.166 = f32[] divide(multiply.165, convert.42)\n-  subtract.306 = f32[] subtract(constant.4, divide.166)\n-  get-tuple-element.291 = f32[] get-tuple-element(while.289), index=1\n-  multiply.305 = f32[] multiply(get-tuple-element.291, exponential.114)\n-  select.307 = f32[] select(or.49, subtract.306, multiply.305)\n-  select.309 = f32[] select(compare.308, constant.7, select.307)\n-  select.310 = f32[] select(or.46, constant.4, select.309)\n-  convert.311 = bf16[] convert(select.310)\n-  ROOT tuple.312 = (bf16[]) tuple(convert.311)\n-}\n-"
        },
        {
            "sha": "bb0a31a9a3e611d95ae402bdd450ad95995bc9de",
            "filename": "third_party/xla/xla/tests/fuzz/rand_000035.hlo",
            "status": "removed",
            "additions": 0,
            "deletions": 51,
            "changes": 51,
            "blob_url": "https://github.com/tensorflow/tensorflow/blob/fcd421e9df0946288cbb745ae7193b8b2795d00c/third_party%2Fxla%2Fxla%2Ftests%2Ffuzz%2Frand_000035.hlo",
            "raw_url": "https://github.com/tensorflow/tensorflow/raw/fcd421e9df0946288cbb745ae7193b8b2795d00c/third_party%2Fxla%2Fxla%2Ftests%2Ffuzz%2Frand_000035.hlo",
            "contents_url": "https://api.github.com/repos/tensorflow/tensorflow/contents/third_party%2Fxla%2Fxla%2Ftests%2Ffuzz%2Frand_000035.hlo?ref=fcd421e9df0946288cbb745ae7193b8b2795d00c",
            "patch": "@@ -1,51 +0,0 @@\n-/* This file is autogenerated! Please don't edit! */\n-HloModule xla_computation_unknown, entry_computation_layout={(pred[],c64[12]{0})->(f32[11,3,2]{2,1,0})}\n-\n-region_1.10 {\n-  Arg_0.11 = f32[] parameter(0)\n-  Arg_1.12 = f32[] parameter(1)\n-  ROOT add.13 = f32[] add(Arg_0.11, Arg_1.12)\n-}\n-\n-region_0.14 {\n-  Arg_.15 = c64[12]{0} parameter(0)\n-  real.19 = f32[12]{0} real(Arg_.15)\n-  broadcast.20 = f32[11,3,12]{2,1,0} broadcast(real.19), dimensions={2}\n-  constant.18 = f32[] constant(0)\n-  reduce.21 = f32[11,3]{1,0} reduce(broadcast.20, constant.18), dimensions={2}, to_apply=region_1.10\n-  broadcast.22 = f32[2,11,3]{2,1,0} broadcast(reduce.21), dimensions={1,2}\n-  reshape.23 = f32[11,3,2]{2,1,0} reshape(broadcast.22)\n-  constant.16 = f32[] constant(1)\n-  broadcast.17 = f32[11,3,2]{2,1,0} broadcast(constant.16), dimensions={}\n-  ROOT add.24 = f32[11,3,2]{2,1,0} add(reshape.23, broadcast.17)\n-}\n-\n-region_3.25 {\n-  Arg_0.26 = f32[] parameter(0)\n-  Arg_1.27 = f32[] parameter(1)\n-  ROOT add.28 = f32[] add(Arg_0.26, Arg_1.27)\n-}\n-\n-region_2.29 {\n-  arg_empty_tuple.30 = () parameter(0)\n-  constant.32 = f32[] constant(1)\n-  broadcast.33 = f32[182,9,10]{2,1,0} broadcast(constant.32), dimensions={}\n-  constant.31 = f32[] constant(0)\n-  reduce.34 = f32[] reduce(broadcast.33, constant.31), dimensions={0,1,2}, to_apply=region_3.25\n-  ROOT broadcast.35 = f32[11,3,2]{2,1,0} broadcast(reduce.34), dimensions={}\n-}\n-\n-ENTRY main.38 {\n-  Arg_0.1 = pred[] parameter(0)\n-  constant.5 = pred[] constant(true)\n-  xor.6 = pred[] xor(Arg_0.1, constant.5)\n-  convert.8 = s32[] convert(xor.6)\n-  constant.3 = c64[] constant((1, 0))\n-  broadcast.4 = c64[12]{0} broadcast(constant.3), dimensions={}\n-  Arg_1.2 = c64[12]{0} parameter(1)\n-  atan2.7 = c64[12]{0} atan2(broadcast.4, Arg_1.2)\n-  tuple.9 = () tuple()\n-  conditional.36 = f32[11,3,2]{2,1,0} conditional(convert.8, atan2.7, tuple.9), branch_computations={region_0.14, region_2.29}\n-  ROOT tuple.37 = (f32[11,3,2]{2,1,0}) tuple(conditional.36)\n-}\n-"
        },
        {
            "sha": "dc53be6649b60825d59ce40b99afac1f156776eb",
            "filename": "third_party/xla/xla/tests/fuzz/rand_000036.hlo",
            "status": "removed",
            "additions": 0,
            "deletions": 18,
            "changes": 18,
            "blob_url": "https://github.com/tensorflow/tensorflow/blob/fcd421e9df0946288cbb745ae7193b8b2795d00c/third_party%2Fxla%2Fxla%2Ftests%2Ffuzz%2Frand_000036.hlo",
            "raw_url": "https://github.com/tensorflow/tensorflow/raw/fcd421e9df0946288cbb745ae7193b8b2795d00c/third_party%2Fxla%2Fxla%2Ftests%2Ffuzz%2Frand_000036.hlo",
            "contents_url": "https://api.github.com/repos/tensorflow/tensorflow/contents/third_party%2Fxla%2Fxla%2Ftests%2Ffuzz%2Frand_000036.hlo?ref=fcd421e9df0946288cbb745ae7193b8b2795d00c",
            "patch": "@@ -1,18 +0,0 @@\n-/* This file is autogenerated! Please don't edit! */\n-HloModule xla_computation_unknown, entry_computation_layout={(pred[11,4]{1,0},s32[5,4,2,16,16,1]{5,4,3,2,1,0},pred[5,4,2,16,16,9]{5,4,3,2,1,0})->(pred[14,11,4]{2,1,0})}\n-\n-region_0.4 {\n-  Arg_0.5 = pred[] parameter(0)\n-  Arg_1.6 = pred[] parameter(1)\n-  ROOT maximum.7 = pred[] maximum(Arg_0.5, Arg_1.6)\n-}\n-\n-ENTRY main.11 {\n-  Arg_0.1 = pred[11,4]{1,0} parameter(0)\n-  Arg_1.2 = s32[5,4,2,16,16,1]{5,4,3,2,1,0} parameter(1)\n-  Arg_2.3 = pred[5,4,2,16,16,9]{5,4,3,2,1,0} parameter(2)\n-  scatter.8 = pred[11,4]{1,0} scatter(Arg_0.1, Arg_1.2, Arg_2.3), update_window_dims={5}, inserted_window_dims={1}, scatter_dims_to_operand_dims={0}, index_vector_dim=5, to_apply=region_0.4\n-  broadcast.9 = pred[14,11,4]{2,1,0} broadcast(scatter.8), dimensions={1,2}\n-  ROOT tuple.10 = (pred[14,11,4]{2,1,0}) tuple(broadcast.9)\n-}\n-"
        },
        {
            "sha": "c088a6e240fe7ab4700c530d0d498db4e27f9c62",
            "filename": "third_party/xla/xla/tests/fuzz/rand_000039.hlo",
            "status": "removed",
            "additions": 0,
            "deletions": 13,
            "changes": 13,
            "blob_url": "https://github.com/tensorflow/tensorflow/blob/fcd421e9df0946288cbb745ae7193b8b2795d00c/third_party%2Fxla%2Fxla%2Ftests%2Ffuzz%2Frand_000039.hlo",
            "raw_url": "https://github.com/tensorflow/tensorflow/raw/fcd421e9df0946288cbb745ae7193b8b2795d00c/third_party%2Fxla%2Fxla%2Ftests%2Ffuzz%2Frand_000039.hlo",
            "contents_url": "https://api.github.com/repos/tensorflow/tensorflow/contents/third_party%2Fxla%2Fxla%2Ftests%2Ffuzz%2Frand_000039.hlo?ref=fcd421e9df0946288cbb745ae7193b8b2795d00c",
            "patch": "@@ -1,13 +0,0 @@\n-/* This file is autogenerated! Please don't edit! */\n-HloModule xla_computation_unknown, entry_computation_layout={(u8[8,1,14,6,13]{4,3,2,1,0},u8[8,1,14,6,13]{4,3,2,1,0},u8[8,1,6,13]{3,2,1,0})->(u8[8,1,14,6,13]{4,3,2,1,0})}\n-\n-ENTRY main.8 {\n-  Arg_0.1 = u8[8,1,14,6,13]{4,3,2,1,0} parameter(0)\n-  Arg_1.2 = u8[8,1,14,6,13]{4,3,2,1,0} parameter(1)\n-  xor.4 = u8[8,1,14,6,13]{4,3,2,1,0} xor(Arg_0.1, Arg_1.2)\n-  Arg_2.3 = u8[8,1,6,13]{3,2,1,0} parameter(2)\n-  broadcast.5 = u8[8,1,14,6,13]{4,3,2,1,0} broadcast(Arg_2.3), dimensions={0,1,3,4}\n-  subtract.6 = u8[8,1,14,6,13]{4,3,2,1,0} subtract(xor.4, broadcast.5)\n-  ROOT tuple.7 = (u8[8,1,14,6,13]{4,3,2,1,0}) tuple(subtract.6)\n-}\n-"
        },
        {
            "sha": "cb28276112661fe26292c596b0c066a32d9825c6",
            "filename": "third_party/xla/xla/tests/fuzz/rand_000040.hlo",
            "status": "removed",
            "additions": 0,
            "deletions": 27,
            "changes": 27,
            "blob_url": "https://github.com/tensorflow/tensorflow/blob/fcd421e9df0946288cbb745ae7193b8b2795d00c/third_party%2Fxla%2Fxla%2Ftests%2Ffuzz%2Frand_000040.hlo",
            "raw_url": "https://github.com/tensorflow/tensorflow/raw/fcd421e9df0946288cbb745ae7193b8b2795d00c/third_party%2Fxla%2Fxla%2Ftests%2Ffuzz%2Frand_000040.hlo",
            "contents_url": "https://api.github.com/repos/tensorflow/tensorflow/contents/third_party%2Fxla%2Fxla%2Ftests%2Ffuzz%2Frand_000040.hlo?ref=fcd421e9df0946288cbb745ae7193b8b2795d00c",
            "patch": "@@ -1,27 +0,0 @@\n-/* This file is autogenerated! Please don't edit! */\n-HloModule xla_computation_unknown, entry_computation_layout={(s16[1,1,14,8]{3,2,1,0},s16[1,1,14,8]{3,2,1,0},s32[13,10,8,2]{3,2,1,0},s16[13,10,1,8,1]{4,3,2,1,0})->(s16[1,1,14,8]{3,2,1,0})}\n-\n-region_0.13 {\n-  Arg_0.14 = s16[] parameter(0)\n-  Arg_1.15 = s16[] parameter(1)\n-  ROOT maximum.16 = s16[] maximum(Arg_0.14, Arg_1.15)\n-}\n-\n-ENTRY main.20 {\n-  Arg_0.1 = s16[1,1,14,8]{3,2,1,0} parameter(0)\n-  constant.5 = s16[] constant(0)\n-  broadcast.6 = s16[1,1,14,8]{3,2,1,0} broadcast(constant.5), dimensions={}\n-  Arg_1.2 = s16[1,1,14,8]{3,2,1,0} parameter(1)\n-  compare.9 = pred[1,1,14,8]{3,2,1,0} compare(broadcast.6, Arg_1.2), direction=EQ\n-  constant.7 = s16[] constant(1)\n-  broadcast.8 = s16[1,1,14,8]{3,2,1,0} broadcast(constant.7), dimensions={}\n-  select.10 = s16[1,1,14,8]{3,2,1,0} select(compare.9, broadcast.8, Arg_1.2)\n-  divide.11 = s16[1,1,14,8]{3,2,1,0} divide(Arg_0.1, select.10)\n-  shift-right-logical.12 = s16[1,1,14,8]{3,2,1,0} shift-right-logical(broadcast.8, broadcast.8)\n-  Arg_2.3 = s32[13,10,8,2]{3,2,1,0} parameter(2)\n-  Arg_3.4 = s16[13,10,1,8,1]{4,3,2,1,0} parameter(3)\n-  scatter.17 = s16[1,1,14,8]{3,2,1,0} scatter(broadcast.8, Arg_2.3, Arg_3.4), update_window_dims={2,4}, inserted_window_dims={2,3}, scatter_dims_to_operand_dims={2,3}, index_vector_dim=3, to_apply=region_0.13\n-  clamp.18 = s16[1,1,14,8]{3,2,1,0} clamp(divide.11, shift-right-logical.12, scatter.17)\n-  ROOT tuple.19 = (s16[1,1,14,8]{3,2,1,0}) tuple(clamp.18)\n-}\n-"
        },
        {
            "sha": "a02e353aef666c2060ac348a73cc8acb06b382b9",
            "filename": "third_party/xla/xla/tests/fuzz/rand_000041.hlo",
            "status": "removed",
            "additions": 0,
            "deletions": 8,
            "changes": 8,
            "blob_url": "https://github.com/tensorflow/tensorflow/blob/fcd421e9df0946288cbb745ae7193b8b2795d00c/third_party%2Fxla%2Fxla%2Ftests%2Ffuzz%2Frand_000041.hlo",
            "raw_url": "https://github.com/tensorflow/tensorflow/raw/fcd421e9df0946288cbb745ae7193b8b2795d00c/third_party%2Fxla%2Fxla%2Ftests%2Ffuzz%2Frand_000041.hlo",
            "contents_url": "https://api.github.com/repos/tensorflow/tensorflow/contents/third_party%2Fxla%2Fxla%2Ftests%2Ffuzz%2Frand_000041.hlo?ref=fcd421e9df0946288cbb745ae7193b8b2795d00c",
            "patch": "@@ -1,8 +0,0 @@\n-/* This file is autogenerated! Please don't edit! */\n-HloModule xla_computation_unknown, entry_computation_layout={(pred[8,6]{1,0})->(pred[8,6]{1,0})}\n-\n-ENTRY main.3 {\n-  Arg_0.1 = pred[8,6]{1,0} parameter(0)\n-  ROOT tuple.2 = (pred[8,6]{1,0}) tuple(Arg_0.1)\n-}\n-"
        },
        {
            "sha": "e65df9df321626e20e085f495a39c65cd1da36e8",
            "filename": "third_party/xla/xla/tests/fuzz/rand_000043.hlo",
            "status": "removed",
            "additions": 0,
            "deletions": 12,
            "changes": 12,
            "blob_url": "https://github.com/tensorflow/tensorflow/blob/fcd421e9df0946288cbb745ae7193b8b2795d00c/third_party%2Fxla%2Fxla%2Ftests%2Ffuzz%2Frand_000043.hlo",
            "raw_url": "https://github.com/tensorflow/tensorflow/raw/fcd421e9df0946288cbb745ae7193b8b2795d00c/third_party%2Fxla%2Fxla%2Ftests%2Ffuzz%2Frand_000043.hlo",
            "contents_url": "https://api.github.com/repos/tensorflow/tensorflow/contents/third_party%2Fxla%2Fxla%2Ftests%2Ffuzz%2Frand_000043.hlo?ref=fcd421e9df0946288cbb745ae7193b8b2795d00c",
            "patch": "@@ -1,12 +0,0 @@\n-/* This file is autogenerated! Please don't edit! */\n-HloModule xla_computation_unknown, entry_computation_layout={()->(u16[10]{0})}\n-\n-ENTRY main.7 {\n-  constant.1 = u16[] constant(1)\n-  broadcast.2 = u16[14]{0} broadcast(constant.1), dimensions={}\n-  constant.3 = s32[1]{0} constant({1})\n-  shift-right-arithmetic.4 = s32[1]{0} shift-right-arithmetic(constant.3, constant.3)\n-  gather.5 = u16[10]{0} gather(broadcast.2, shift-right-arithmetic.4), offset_dims={0}, collapsed_slice_dims={}, start_index_map={0}, index_vector_dim=0, slice_sizes={10}\n-  ROOT tuple.6 = (u16[10]{0}) tuple(gather.5)\n-}\n-"
        },
        {
            "sha": "fe6778e52de0f2328539976a5213767728707768",
            "filename": "third_party/xla/xla/tests/fuzz/rand_000049.hlo",
            "status": "removed",
            "additions": 0,
            "deletions": 24,
            "changes": 24,
            "blob_url": "https://github.com/tensorflow/tensorflow/blob/fcd421e9df0946288cbb745ae7193b8b2795d00c/third_party%2Fxla%2Fxla%2Ftests%2Ffuzz%2Frand_000049.hlo",
            "raw_url": "https://github.com/tensorflow/tensorflow/raw/fcd421e9df0946288cbb745ae7193b8b2795d00c/third_party%2Fxla%2Fxla%2Ftests%2Ffuzz%2Frand_000049.hlo",
            "contents_url": "https://api.github.com/repos/tensorflow/tensorflow/contents/third_party%2Fxla%2Fxla%2Ftests%2Ffuzz%2Frand_000049.hlo?ref=fcd421e9df0946288cbb745ae7193b8b2795d00c",
            "patch": "@@ -1,24 +0,0 @@\n-/* This file is autogenerated! Please don't edit! */\n-HloModule xla_computation_unknown, entry_computation_layout={(s32[7,1]{1,0},u16[7,24]{1,0})->(u16[6]{0})}\n-\n-region_0.10 {\n-  Arg_0.11 = u16[] parameter(0)\n-  Arg_1.12 = u16[] parameter(1)\n-  ROOT maximum.13 = u16[] maximum(Arg_0.11, Arg_1.12)\n-}\n-\n-ENTRY main.17 {\n-  constant.7 = u16[] constant(1)\n-  broadcast.8 = u16[29]{0} broadcast(constant.7), dimensions={}\n-  constant.3 = s32[] constant(0)\n-  broadcast.4 = s32[7,1]{1,0} broadcast(constant.3), dimensions={}\n-  Arg_0.1 = s32[7,1]{1,0} parameter(0)\n-  constant.5 = s32[] constant(5)\n-  broadcast.6 = s32[7,1]{1,0} broadcast(constant.5), dimensions={}\n-  clamp.9 = s32[7,1]{1,0} clamp(broadcast.4, Arg_0.1, broadcast.6)\n-  Arg_1.2 = u16[7,24]{1,0} parameter(1)\n-  scatter.14 = u16[29]{0} scatter(broadcast.8, clamp.9, Arg_1.2), update_window_dims={1}, inserted_window_dims={}, scatter_dims_to_operand_dims={0}, index_vector_dim=1, to_apply=region_0.10\n-  slice.15 = u16[6]{0} slice(scatter.14), slice={[11:29:3]}\n-  ROOT tuple.16 = (u16[6]{0}) tuple(slice.15)\n-}\n-"
        },
        {
            "sha": "4866d1beb29cd369fb5f7ee8a1ffdb2c3aa19fdd",
            "filename": "third_party/xla/xla/tests/fuzz/rand_000053.hlo",
            "status": "removed",
            "additions": 0,
            "deletions": 13,
            "changes": 13,
            "blob_url": "https://github.com/tensorflow/tensorflow/blob/fcd421e9df0946288cbb745ae7193b8b2795d00c/third_party%2Fxla%2Fxla%2Ftests%2Ffuzz%2Frand_000053.hlo",
            "raw_url": "https://github.com/tensorflow/tensorflow/raw/fcd421e9df0946288cbb745ae7193b8b2795d00c/third_party%2Fxla%2Fxla%2Ftests%2Ffuzz%2Frand_000053.hlo",
            "contents_url": "https://api.github.com/repos/tensorflow/tensorflow/contents/third_party%2Fxla%2Fxla%2Ftests%2Ffuzz%2Frand_000053.hlo?ref=fcd421e9df0946288cbb745ae7193b8b2795d00c",
            "patch": "@@ -1,13 +0,0 @@\n-/* This file is autogenerated! Please don't edit! */\n-HloModule xla_computation_unknown, entry_computation_layout={(s8[11,11,4]{2,1,0},s8[11,11,4]{2,1,0})->(s8[11,11,10]{2,1,0})}\n-\n-ENTRY main.8 {\n-  Arg_0.1 = s8[11,11,4]{2,1,0} parameter(0)\n-  Arg_1.2 = s8[11,11,4]{2,1,0} parameter(1)\n-  remainder.5 = s8[11,11,4]{2,1,0} remainder(Arg_0.1, Arg_1.2)\n-  constant.3 = s8[] constant(-1)\n-  broadcast.4 = s8[11,4,10]{2,1,0} broadcast(constant.3), dimensions={}\n-  dot.6 = s8[11,11,10]{2,1,0} dot(remainder.5, broadcast.4), lhs_batch_dims={0}, lhs_contracting_dims={2}, rhs_batch_dims={0}, rhs_contracting_dims={1}\n-  ROOT tuple.7 = (s8[11,11,10]{2,1,0}) tuple(dot.6)\n-}\n-"
        },
        {
            "sha": "323ead964f20ba57990dedcc88f15afd195f49af",
            "filename": "third_party/xla/xla/tests/fuzz/rand_000056.hlo",
            "status": "removed",
            "additions": 0,
            "deletions": 13,
            "changes": 13,
            "blob_url": "https://github.com/tensorflow/tensorflow/blob/fcd421e9df0946288cbb745ae7193b8b2795d00c/third_party%2Fxla%2Fxla%2Ftests%2Ffuzz%2Frand_000056.hlo",
            "raw_url": "https://github.com/tensorflow/tensorflow/raw/fcd421e9df0946288cbb745ae7193b8b2795d00c/third_party%2Fxla%2Fxla%2Ftests%2Ffuzz%2Frand_000056.hlo",
            "contents_url": "https://api.github.com/repos/tensorflow/tensorflow/contents/third_party%2Fxla%2Fxla%2Ftests%2Ffuzz%2Frand_000056.hlo?ref=fcd421e9df0946288cbb745ae7193b8b2795d00c",
            "patch": "@@ -1,13 +0,0 @@\n-/* This file is autogenerated! Please don't edit! */\n-HloModule xla_computation_unknown, entry_computation_layout={(u8[4]{0})->(u8[16]{0})}\n-\n-ENTRY main.8 {\n-  constant.2 = u8[] constant(1)\n-  broadcast.3 = u8[16]{0} broadcast(constant.2), dimensions={}\n-  Arg_0.1 = u8[4]{0} parameter(0)\n-  constant.4 = s32[] constant(3)\n-  dynamic-update-slice.5 = u8[16]{0} dynamic-update-slice(broadcast.3, Arg_0.1, constant.4)\n-  remainder.6 = u8[16]{0} remainder(broadcast.3, dynamic-update-slice.5)\n-  ROOT tuple.7 = (u8[16]{0}) tuple(remainder.6)\n-}\n-"
        },
        {
            "sha": "eeca88454376e1ec3f83033bcec63dc80884e56c",
            "filename": "third_party/xla/xla/tests/fuzz/rand_000059.hlo",
            "status": "removed",
            "additions": 0,
            "deletions": 14,
            "changes": 14,
            "blob_url": "https://github.com/tensorflow/tensorflow/blob/fcd421e9df0946288cbb745ae7193b8b2795d00c/third_party%2Fxla%2Fxla%2Ftests%2Ffuzz%2Frand_000059.hlo",
            "raw_url": "https://github.com/tensorflow/tensorflow/raw/fcd421e9df0946288cbb745ae7193b8b2795d00c/third_party%2Fxla%2Fxla%2Ftests%2Ffuzz%2Frand_000059.hlo",
            "contents_url": "https://api.github.com/repos/tensorflow/tensorflow/contents/third_party%2Fxla%2Fxla%2Ftests%2Ffuzz%2Frand_000059.hlo?ref=fcd421e9df0946288cbb745ae7193b8b2795d00c",
            "patch": "@@ -1,14 +0,0 @@\n-/* This file is autogenerated! Please don't edit! */\n-HloModule xla_computation_unknown, entry_computation_layout={(u32[15,16,7,14,1]{4,3,2,1,0})->(pred[15,16,7,14,1]{4,3,2,1,0})}\n-\n-ENTRY main.9 {\n-  constant.4 = u32[] constant(1)\n-  broadcast.5 = u32[15,16,7,14,1]{4,3,2,1,0} broadcast(constant.4), dimensions={}\n-  Arg_0.1 = u32[15,16,7,14,1]{4,3,2,1,0} parameter(0)\n-  shift-left.6 = u32[15,16,7,14,1]{4,3,2,1,0} shift-left(broadcast.5, Arg_0.1)\n-  constant.2 = u32[] constant(0)\n-  broadcast.3 = u32[15,16,7,14,1]{4,3,2,1,0} broadcast(constant.2), dimensions={}\n-  compare.7 = pred[15,16,7,14,1]{4,3,2,1,0} compare(shift-left.6, broadcast.3), direction=GE\n-  ROOT tuple.8 = (pred[15,16,7,14,1]{4,3,2,1,0}) tuple(compare.7)\n-}\n-"
        },
        {
            "sha": "27ae0648507da84d8cc1265e9ded2b43356359d0",
            "filename": "third_party/xla/xla/tests/fuzz/rand_000060.hlo",
            "status": "removed",
            "additions": 0,
            "deletions": 27,
            "changes": 27,
            "blob_url": "https://github.com/tensorflow/tensorflow/blob/fcd421e9df0946288cbb745ae7193b8b2795d00c/third_party%2Fxla%2Fxla%2Ftests%2Ffuzz%2Frand_000060.hlo",
            "raw_url": "https://github.com/tensorflow/tensorflow/raw/fcd421e9df0946288cbb745ae7193b8b2795d00c/third_party%2Fxla%2Fxla%2Ftests%2Ffuzz%2Frand_000060.hlo",
            "contents_url": "https://api.github.com/repos/tensorflow/tensorflow/contents/third_party%2Fxla%2Fxla%2Ftests%2Ffuzz%2Frand_000060.hlo?ref=fcd421e9df0946288cbb745ae7193b8b2795d00c",
            "patch": "@@ -1,27 +0,0 @@\n-/* This file is autogenerated! Please don't edit! */\n-HloModule xla_computation_unknown, entry_computation_layout={(s16[13,16,15]{2,1,0})->(s16[13,4,12]{2,1,0})}\n-\n-region_0.12 {\n-  Arg_0.13 = s16[] parameter(0)\n-  Arg_1.14 = s16[] parameter(1)\n-  ROOT add.15 = s16[] add(Arg_0.13, Arg_1.14)\n-}\n-\n-ENTRY main.20 {\n-  constant.3 = s16[] constant(1)\n-  broadcast.4 = s16[13,2,16]{2,1,0} broadcast(constant.3), dimensions={}\n-  Arg_0.1 = s16[13,16,15]{2,1,0} parameter(0)\n-  dot.9 = s16[13,2,15]{2,1,0} dot(broadcast.4, Arg_0.1), lhs_batch_dims={0}, lhs_contracting_dims={2}, rhs_batch_dims={0}, rhs_contracting_dims={1}\n-  constant.5 = s16[] constant(1)\n-  broadcast.6 = s16[4,2,6]{2,1,0} broadcast(constant.5), dimensions={}\n-  constant.7 = s16[] constant(1)\n-  broadcast.8 = s16[4,6,9]{2,1,0} broadcast(constant.7), dimensions={}\n-  dot.10 = s16[4,2,9]{2,1,0} dot(broadcast.6, broadcast.8), lhs_batch_dims={0}, lhs_contracting_dims={2}, rhs_batch_dims={0}, rhs_contracting_dims={1}\n-  convolution.11 = s16[13,4,15]{2,1,0} convolution(dot.9, dot.10), window={size=9 pad=2_2 lhs_dilate=3 rhs_dilate=4}, dim_labels=bf0_oi0->bf0\n-  constant.2 = s16[] constant(0)\n-  reduce.16 = s16[13,4]{1,0} reduce(convolution.11, constant.2), dimensions={2}, to_apply=region_0.12\n-  broadcast.17 = s16[12,13,4]{2,1,0} broadcast(reduce.16), dimensions={1,2}\n-  reshape.18 = s16[13,4,12]{2,1,0} reshape(broadcast.17)\n-  ROOT tuple.19 = (s16[13,4,12]{2,1,0}) tuple(reshape.18)\n-}\n-"
        },
        {
            "sha": "55185eba833aee671afc15d0052d31c0b20eff73",
            "filename": "third_party/xla/xla/tests/fuzz/rand_000061.hlo",
            "status": "removed",
            "additions": 0,
            "deletions": 13,
            "changes": 13,
            "blob_url": "https://github.com/tensorflow/tensorflow/blob/fcd421e9df0946288cbb745ae7193b8b2795d00c/third_party%2Fxla%2Fxla%2Ftests%2Ffuzz%2Frand_000061.hlo",
            "raw_url": "https://github.com/tensorflow/tensorflow/raw/fcd421e9df0946288cbb745ae7193b8b2795d00c/third_party%2Fxla%2Fxla%2Ftests%2Ffuzz%2Frand_000061.hlo",
            "contents_url": "https://api.github.com/repos/tensorflow/tensorflow/contents/third_party%2Fxla%2Fxla%2Ftests%2Ffuzz%2Frand_000061.hlo?ref=fcd421e9df0946288cbb745ae7193b8b2795d00c",
            "patch": "@@ -1,13 +0,0 @@\n-/* This file is autogenerated! Please don't edit! */\n-HloModule xla_computation_unknown, entry_computation_layout={(s8[],s8[])->(s8[])}\n-\n-ENTRY main.8 {\n-  Arg_0.1 = s8[] parameter(0)\n-  negate.4 = s8[] negate(Arg_0.1)\n-  constant.3 = s8[] constant(1)\n-  Arg_1.2 = s8[] parameter(1)\n-  shift-right-arithmetic.5 = s8[] shift-right-arithmetic(constant.3, Arg_1.2)\n-  xor.6 = s8[] xor(negate.4, shift-right-arithmetic.5)\n-  ROOT tuple.7 = (s8[]) tuple(xor.6)\n-}\n-"
        },
        {
            "sha": "6f628bd941eb5ae51675bf650b291f5a6d9a916c",
            "filename": "third_party/xla/xla/tests/fuzz/rand_000062.hlo",
            "status": "removed",
            "additions": 0,
            "deletions": 10,
            "changes": 10,
            "blob_url": "https://github.com/tensorflow/tensorflow/blob/fcd421e9df0946288cbb745ae7193b8b2795d00c/third_party%2Fxla%2Fxla%2Ftests%2Ffuzz%2Frand_000062.hlo",
            "raw_url": "https://github.com/tensorflow/tensorflow/raw/fcd421e9df0946288cbb745ae7193b8b2795d00c/third_party%2Fxla%2Fxla%2Ftests%2Ffuzz%2Frand_000062.hlo",
            "contents_url": "https://api.github.com/repos/tensorflow/tensorflow/contents/third_party%2Fxla%2Fxla%2Ftests%2Ffuzz%2Frand_000062.hlo?ref=fcd421e9df0946288cbb745ae7193b8b2795d00c",
            "patch": "@@ -1,10 +0,0 @@\n-/* This file is autogenerated! Please don't edit! */\n-HloModule xla_computation_unknown, entry_computation_layout={(bf16[18,22,24,41,11]{4,3,2,1,0})->(bf16[11,9,6,15,1]{4,3,2,1,0})}\n-\n-ENTRY main.5 {\n-  Arg_0.1 = bf16[18,22,24,41,11]{4,3,2,1,0} parameter(0)\n-  sign.2 = bf16[18,22,24,41,11]{4,3,2,1,0} sign(Arg_0.1)\n-  slice.3 = bf16[11,9,6,15,1]{4,3,2,1,0} slice(sign.2), slice={[7:18:1], [13:22:1], [6:24:3], [11:41:2], [1:4:3]}\n-  ROOT tuple.4 = (bf16[11,9,6,15,1]{4,3,2,1,0}) tuple(slice.3)\n-}\n-"
        },
        {
            "sha": "e644e27e012207082732b8829f73404dda3b6020",
            "filename": "third_party/xla/xla/tests/fuzz/rand_000064.hlo",
            "status": "removed",
            "additions": 0,
            "deletions": 9,
            "changes": 9,
            "blob_url": "https://github.com/tensorflow/tensorflow/blob/fcd421e9df0946288cbb745ae7193b8b2795d00c/third_party%2Fxla%2Fxla%2Ftests%2Ffuzz%2Frand_000064.hlo",
            "raw_url": "https://github.com/tensorflow/tensorflow/raw/fcd421e9df0946288cbb745ae7193b8b2795d00c/third_party%2Fxla%2Fxla%2Ftests%2Ffuzz%2Frand_000064.hlo",
            "contents_url": "https://api.github.com/repos/tensorflow/tensorflow/contents/third_party%2Fxla%2Fxla%2Ftests%2Ffuzz%2Frand_000064.hlo?ref=fcd421e9df0946288cbb745ae7193b8b2795d00c",
            "patch": "@@ -1,9 +0,0 @@\n-/* This file is autogenerated! Please don't edit! */\n-HloModule xla_computation_unknown, entry_computation_layout={()->(c64[])}\n-\n-ENTRY main.4 {\n-  constant.1 = c64[] constant((1, 0))\n-  sine.2 = c64[] sine(constant.1)\n-  ROOT tuple.3 = (c64[]) tuple(sine.2)\n-}\n-"
        },
        {
            "sha": "c42d2ce2272374252cdaabe93d29f5473d735953",
            "filename": "third_party/xla/xla/tests/fuzz/rand_000066.hlo",
            "status": "removed",
            "additions": 0,
            "deletions": 26,
            "changes": 26,
            "blob_url": "https://github.com/tensorflow/tensorflow/blob/fcd421e9df0946288cbb745ae7193b8b2795d00c/third_party%2Fxla%2Fxla%2Ftests%2Ffuzz%2Frand_000066.hlo",
            "raw_url": "https://github.com/tensorflow/tensorflow/raw/fcd421e9df0946288cbb745ae7193b8b2795d00c/third_party%2Fxla%2Fxla%2Ftests%2Ffuzz%2Frand_000066.hlo",
            "contents_url": "https://api.github.com/repos/tensorflow/tensorflow/contents/third_party%2Fxla%2Fxla%2Ftests%2Ffuzz%2Frand_000066.hlo?ref=fcd421e9df0946288cbb745ae7193b8b2795d00c",
            "patch": "@@ -1,26 +0,0 @@\n-/* This file is autogenerated! Please don't edit! */\n-HloModule xla_computation_unknown, entry_computation_layout={(u16[16,13,8,10]{3,2,1,0},s32[4,16,15,1]{3,2,1,0},u16[4,16,15,5]{3,2,1,0},u16[16,13,8,10]{3,2,1,0},u16[16,13,8,10]{3,2,1,0})->(u16[16,13,8,10]{3,2,1,0})}\n-\n-region_0.11 {\n-  Arg_0.12 = u16[] parameter(0)\n-  Arg_1.13 = u16[] parameter(1)\n-  ROOT minimum.14 = u16[] minimum(Arg_0.12, Arg_1.13)\n-}\n-\n-ENTRY main.19 {\n-  Arg_0.1 = u16[16,13,8,10]{3,2,1,0} parameter(0)\n-  constant.6 = s32[] constant(0)\n-  broadcast.7 = s32[4,16,15,1]{3,2,1,0} broadcast(constant.6), dimensions={}\n-  Arg_1.2 = s32[4,16,15,1]{3,2,1,0} parameter(1)\n-  constant.8 = s32[] constant(7)\n-  broadcast.9 = s32[4,16,15,1]{3,2,1,0} broadcast(constant.8), dimensions={}\n-  clamp.10 = s32[4,16,15,1]{3,2,1,0} clamp(broadcast.7, Arg_1.2, broadcast.9)\n-  Arg_2.3 = u16[4,16,15,5]{3,2,1,0} parameter(2)\n-  scatter.15 = u16[16,13,8,10]{3,2,1,0} scatter(Arg_0.1, clamp.10, Arg_2.3), update_window_dims={3}, inserted_window_dims={1,2,3}, scatter_dims_to_operand_dims={2}, index_vector_dim=3, to_apply=region_0.11\n-  Arg_3.4 = u16[16,13,8,10]{3,2,1,0} parameter(3)\n-  Arg_4.5 = u16[16,13,8,10]{3,2,1,0} parameter(4)\n-  remainder.16 = u16[16,13,8,10]{3,2,1,0} remainder(Arg_3.4, Arg_4.5)\n-  maximum.17 = u16[16,13,8,10]{3,2,1,0} maximum(scatter.15, remainder.16)\n-  ROOT tuple.18 = (u16[16,13,8,10]{3,2,1,0}) tuple(maximum.17)\n-}\n-"
        },
        {
            "sha": "733588f991f028d91ee20b29d4cb64009d1561b7",
            "filename": "third_party/xla/xla/tests/fuzz/rand_000067.hlo",
            "status": "removed",
            "additions": 0,
            "deletions": 12,
            "changes": 12,
            "blob_url": "https://github.com/tensorflow/tensorflow/blob/fcd421e9df0946288cbb745ae7193b8b2795d00c/third_party%2Fxla%2Fxla%2Ftests%2Ffuzz%2Frand_000067.hlo",
            "raw_url": "https://github.com/tensorflow/tensorflow/raw/fcd421e9df0946288cbb745ae7193b8b2795d00c/third_party%2Fxla%2Fxla%2Ftests%2Ffuzz%2Frand_000067.hlo",
            "contents_url": "https://api.github.com/repos/tensorflow/tensorflow/contents/third_party%2Fxla%2Fxla%2Ftests%2Ffuzz%2Frand_000067.hlo?ref=fcd421e9df0946288cbb745ae7193b8b2795d00c",
            "patch": "@@ -1,12 +0,0 @@\n-/* This file is autogenerated! Please don't edit! */\n-HloModule xla_computation_unknown, entry_computation_layout={(u8[11,15,9,15,14]{4,3,2,1,0})->(u8[11,16,9]{2,1,0})}\n-\n-ENTRY main.7 {\n-  Arg_0.1 = u8[11,15,9,15,14]{4,3,2,1,0} parameter(0)\n-  constant.2 = u8[] constant(1)\n-  broadcast.3 = u8[4,15,30,11,18]{4,3,2,1,0} broadcast(constant.2), dimensions={}\n-  convolution.4 = u8[11,4,2,2,9]{4,3,2,1,0} convolution(Arg_0.1, broadcast.3), window={size=30x11x18 stride=7x3x1 pad=5_7x6_4x1_2 lhs_dilate=3x1x3 rhs_dilate=1x2x2}, dim_labels=bf012_oi012->bf012\n-  reshape.5 = u8[11,16,9]{2,1,0} reshape(convolution.4)\n-  ROOT tuple.6 = (u8[11,16,9]{2,1,0}) tuple(reshape.5)\n-}\n-"
        },
        {
            "sha": "8c3a8f8a53f07366bb19aa13a5d0aeee93d563c3",
            "filename": "third_party/xla/xla/tests/fuzz/rand_000069.hlo",
            "status": "removed",
            "additions": 0,
            "deletions": 25,
            "changes": 25,
            "blob_url": "https://github.com/tensorflow/tensorflow/blob/fcd421e9df0946288cbb745ae7193b8b2795d00c/third_party%2Fxla%2Fxla%2Ftests%2Ffuzz%2Frand_000069.hlo",
            "raw_url": "https://github.com/tensorflow/tensorflow/raw/fcd421e9df0946288cbb745ae7193b8b2795d00c/third_party%2Fxla%2Fxla%2Ftests%2Ffuzz%2Frand_000069.hlo",
            "contents_url": "https://api.github.com/repos/tensorflow/tensorflow/contents/third_party%2Fxla%2Fxla%2Ftests%2Ffuzz%2Frand_000069.hlo?ref=fcd421e9df0946288cbb745ae7193b8b2795d00c",
            "patch": "@@ -1,25 +0,0 @@\n-/* This file is autogenerated! Please don't edit! */\n-HloModule xla_computation_unknown, entry_computation_layout={(u32[14,11,10,14]{3,2,1,0})->(u32[14,11,14,10]{0,3,1,2})}\n-\n-region_0.11 {\n-  Arg_0.12 = u32[] parameter(0)\n-  Arg_1.13 = u32[] parameter(1)\n-  ROOT maximum.14 = u32[] maximum(Arg_0.12, Arg_1.13)\n-}\n-\n-ENTRY main.18 {\n-  Arg_0.1 = u32[14,11,10,14]{3,2,1,0} parameter(0)\n-  constant.2 = s32[] constant(0)\n-  broadcast.3 = s32[7,3]{1,0} broadcast(constant.2), dimensions={}\n-  constant.5 = s32[] constant(1)\n-  broadcast.6 = s32[7,3]{1,0} broadcast(constant.5), dimensions={}\n-  constant.4 = s32[3]{0} constant({2, 4, 9})\n-  broadcast.9 = s32[7,3]{1,0} broadcast(constant.4), dimensions={1}\n-  clamp.10 = s32[7,3]{1,0} clamp(broadcast.3, broadcast.6, broadcast.9)\n-  constant.7 = u32[] constant(1)\n-  broadcast.8 = u32[6,9,10,7]{3,2,1,0} broadcast(constant.7), dimensions={}\n-  scatter.15 = u32[14,11,10,14]{3,2,1,0} scatter(Arg_0.1, clamp.10, broadcast.8), update_window_dims={0,1,2}, inserted_window_dims={2}, scatter_dims_to_operand_dims={1,3,2}, index_vector_dim=1, to_apply=region_0.11\n-  transpose.16 = u32[14,11,14,10]{0,3,1,2} transpose(scatter.15), dimensions={3,1,0,2}\n-  ROOT tuple.17 = (u32[14,11,14,10]{0,3,1,2}) tuple(transpose.16)\n-}\n-"
        },
        {
            "sha": "025029419ad43a5c0bff6a20b0f535462ebed999",
            "filename": "third_party/xla/xla/tests/fuzz/rand_000071.hlo",
            "status": "removed",
            "additions": 0,
            "deletions": 37,
            "changes": 37,
            "blob_url": "https://github.com/tensorflow/tensorflow/blob/fcd421e9df0946288cbb745ae7193b8b2795d00c/third_party%2Fxla%2Fxla%2Ftests%2Ffuzz%2Frand_000071.hlo",
            "raw_url": "https://github.com/tensorflow/tensorflow/raw/fcd421e9df0946288cbb745ae7193b8b2795d00c/third_party%2Fxla%2Fxla%2Ftests%2Ffuzz%2Frand_000071.hlo",
            "contents_url": "https://api.github.com/repos/tensorflow/tensorflow/contents/third_party%2Fxla%2Fxla%2Ftests%2Ffuzz%2Frand_000071.hlo?ref=fcd421e9df0946288cbb745ae7193b8b2795d00c",
            "patch": "@@ -1,37 +0,0 @@\n-/* This file is autogenerated! Please don't edit! */\n-HloModule xla_computation_unknown, entry_computation_layout={(s16[10,14]{1,0})->(s16[15,7]{1,0})}\n-\n-region_0.20 {\n-  Arg_0.21 = pred[] parameter(0)\n-  Arg_1.22 = pred[] parameter(1)\n-  ROOT and.23 = pred[] and(Arg_0.21, Arg_1.22)\n-}\n-\n-ENTRY main.30 {\n-  constant.7 = s16[] constant(1)\n-  broadcast.8 = s16[15,16]{1,0} broadcast(constant.7), dimensions={}\n-  constant.10 = s32[] constant(1)\n-  broadcast.11 = s32[16,1]{1,0} broadcast(constant.10), dimensions={}\n-  constant.6 = s32[2]{0} constant({10, 14})\n-  constant.4 = s32[1,1]{1,0} constant({ {1} })\n-  gather.12 = s32[1]{0} gather(constant.6, constant.4), offset_dims={}, collapsed_slice_dims={0}, start_index_map={0}, index_vector_dim=1, slice_sizes={1}\n-  constant.5 = s32[2]{0} constant({1, 7})\n-  gather.13 = s32[1]{0} gather(constant.5, constant.4), offset_dims={}, collapsed_slice_dims={0}, start_index_map={0}, index_vector_dim=1, slice_sizes={1}\n-  subtract.14 = s32[1]{0} subtract(gather.12, gather.13)\n-  reshape.15 = s32[1,1]{1,0} reshape(subtract.14)\n-  broadcast.16 = s32[1,1]{1,0} broadcast(reshape.15), dimensions={0,1}\n-  reshape.17 = s32[1]{0} reshape(broadcast.16)\n-  broadcast.18 = s32[16,1]{1,0} broadcast(reshape.17), dimensions={1}\n-  compare.19 = pred[16,1]{1,0} compare(broadcast.11, broadcast.18), direction=LE\n-  constant.9 = pred[] constant(true)\n-  reduce.24 = pred[16]{0} reduce(compare.19, constant.9), dimensions={1}, to_apply=region_0.20\n-  broadcast.26 = pred[16,7]{1,0} broadcast(reduce.24), dimensions={0}\n-  Arg_0.1 = s16[10,14]{1,0} parameter(0)\n-  gather.25 = s16[16,7]{1,0} gather(Arg_0.1, broadcast.11), offset_dims={1}, collapsed_slice_dims={0}, start_index_map={1}, index_vector_dim=1, slice_sizes={1,7}\n-  constant.2 = s16[] constant(0)\n-  broadcast.3 = s16[16,7]{1,0} broadcast(constant.2), dimensions={}\n-  select.27 = s16[16,7]{1,0} select(broadcast.26, gather.25, broadcast.3)\n-  dot.28 = s16[15,7]{1,0} dot(broadcast.8, select.27), lhs_contracting_dims={1}, rhs_contracting_dims={0}\n-  ROOT tuple.29 = (s16[15,7]{1,0}) tuple(dot.28)\n-}\n-"
        },
        {
            "sha": "fb6a7d2073d5ccffad1f24f21b175271da417160",
            "filename": "third_party/xla/xla/tests/fuzz/rand_000072.hlo",
            "status": "removed",
            "additions": 0,
            "deletions": 15,
            "changes": 15,
            "blob_url": "https://github.com/tensorflow/tensorflow/blob/fcd421e9df0946288cbb745ae7193b8b2795d00c/third_party%2Fxla%2Fxla%2Ftests%2Ffuzz%2Frand_000072.hlo",
            "raw_url": "https://github.com/tensorflow/tensorflow/raw/fcd421e9df0946288cbb745ae7193b8b2795d00c/third_party%2Fxla%2Fxla%2Ftests%2Ffuzz%2Frand_000072.hlo",
            "contents_url": "https://api.github.com/repos/tensorflow/tensorflow/contents/third_party%2Fxla%2Fxla%2Ftests%2Ffuzz%2Frand_000072.hlo?ref=fcd421e9df0946288cbb745ae7193b8b2795d00c",
            "patch": "@@ -1,15 +0,0 @@\n-/* This file is autogenerated! Please don't edit! */\n-HloModule xla_computation_unknown, entry_computation_layout={()->(c64[12,4,6,13,3]{4,3,2,1,0})}\n-\n-ENTRY main.10 {\n-  constant.3 = c64[] constant((0, 0))\n-  broadcast.4 = c64[12,4,6,13,3]{4,3,2,1,0} broadcast(constant.3), dimensions={}\n-  constant.1 = c64[] constant((1, 0))\n-  broadcast.2 = c64[12,4,6,13,3]{4,3,2,1,0} broadcast(constant.1), dimensions={}\n-  exponential-minus-one.5 = c64[12,4,6,13,3]{4,3,2,1,0} exponential-minus-one(broadcast.2)\n-  compare.6 = pred[12,4,6,13,3]{4,3,2,1,0} compare(broadcast.4, exponential-minus-one.5), direction=EQ\n-  select.7 = c64[12,4,6,13,3]{4,3,2,1,0} select(compare.6, broadcast.2, exponential-minus-one.5)\n-  rsqrt.8 = c64[12,4,6,13,3]{4,3,2,1,0} rsqrt(select.7)\n-  ROOT tuple.9 = (c64[12,4,6,13,3]{4,3,2,1,0}) tuple(rsqrt.8)\n-}\n-"
        },
        {
            "sha": "e576a550d95bce2e4df74b073819cda53c010c04",
            "filename": "third_party/xla/xla/tests/fuzz/rand_000077.hlo",
            "status": "removed",
            "additions": 0,
            "deletions": 25,
            "changes": 25,
            "blob_url": "https://github.com/tensorflow/tensorflow/blob/fcd421e9df0946288cbb745ae7193b8b2795d00c/third_party%2Fxla%2Fxla%2Ftests%2Ffuzz%2Frand_000077.hlo",
            "raw_url": "https://github.com/tensorflow/tensorflow/raw/fcd421e9df0946288cbb745ae7193b8b2795d00c/third_party%2Fxla%2Fxla%2Ftests%2Ffuzz%2Frand_000077.hlo",
            "contents_url": "https://api.github.com/repos/tensorflow/tensorflow/contents/third_party%2Fxla%2Fxla%2Ftests%2Ffuzz%2Frand_000077.hlo?ref=fcd421e9df0946288cbb745ae7193b8b2795d00c",
            "patch": "@@ -1,25 +0,0 @@\n-/* This file is autogenerated! Please don't edit! */\n-HloModule xla_computation_unknown, entry_computation_layout={()->(u32[11]{0})}\n-\n-region_0.4 {\n-  Arg_0.5 = u32[] parameter(0)\n-  Arg_1.6 = u32[] parameter(1)\n-  ROOT maximum.7 = u32[] maximum(Arg_0.5, Arg_1.6)\n-}\n-\n-region_1.9 {\n-  Arg_0.10 = u32[] parameter(0)\n-  Arg_1.11 = u32[] parameter(1)\n-  ROOT add.12 = u32[] add(Arg_0.10, Arg_1.11)\n-}\n-\n-ENTRY main.16 {\n-  constant.1 = u32[] constant(1)\n-  broadcast.2 = u32[13]{0} broadcast(constant.1), dimensions={}\n-  constant.3 = u32[] constant(0)\n-  reduce-window.8 = u32[13]{0} reduce-window(broadcast.2, constant.3), window={size=1 rhs_dilate=3}, to_apply=region_0.4\n-  reduce.13 = u32[] reduce(reduce-window.8, constant.3), dimensions={0}, to_apply=region_1.9\n-  broadcast.14 = u32[11]{0} broadcast(reduce.13), dimensions={}\n-  ROOT tuple.15 = (u32[11]{0}) tuple(broadcast.14)\n-}\n-"
        },
        {
            "sha": "75186475d348720a368bafa340dad11a187c8653",
            "filename": "third_party/xla/xla/tests/fuzz/rand_000078.hlo",
            "status": "removed",
            "additions": 0,
            "deletions": 12,
            "changes": 12,
            "blob_url": "https://github.com/tensorflow/tensorflow/blob/fcd421e9df0946288cbb745ae7193b8b2795d00c/third_party%2Fxla%2Fxla%2Ftests%2Ffuzz%2Frand_000078.hlo",
            "raw_url": "https://github.com/tensorflow/tensorflow/raw/fcd421e9df0946288cbb745ae7193b8b2795d00c/third_party%2Fxla%2Fxla%2Ftests%2Ffuzz%2Frand_000078.hlo",
            "contents_url": "https://api.github.com/repos/tensorflow/tensorflow/contents/third_party%2Fxla%2Fxla%2Ftests%2Ffuzz%2Frand_000078.hlo?ref=fcd421e9df0946288cbb745ae7193b8b2795d00c",
            "patch": "@@ -1,12 +0,0 @@\n-/* This file is autogenerated! Please don't edit! */\n-HloModule xla_computation_unknown, entry_computation_layout={(s8[14,2]{1,0})->(s8[4,14,8,2,8]{4,3,2,1,0})}\n-\n-ENTRY main.7 {\n-  Arg_0.1 = s8[14,2]{1,0} parameter(0)\n-  constant.2 = s8[] constant(1)\n-  broadcast.3 = s8[14,2]{1,0} broadcast(constant.2), dimensions={}\n-  minimum.4 = s8[14,2]{1,0} minimum(Arg_0.1, broadcast.3)\n-  broadcast.5 = s8[4,14,8,2,8]{4,3,2,1,0} broadcast(minimum.4), dimensions={1,3}\n-  ROOT tuple.6 = (s8[4,14,8,2,8]{4,3,2,1,0}) tuple(broadcast.5)\n-}\n-"
        },
        {
            "sha": "147cd5b473d11587fed33c2e57882f6054d1764e",
            "filename": "third_party/xla/xla/tests/fuzz/rand_000079.hlo",
            "status": "removed",
            "additions": 0,
            "deletions": 39,
            "changes": 39,
            "blob_url": "https://github.com/tensorflow/tensorflow/blob/fcd421e9df0946288cbb745ae7193b8b2795d00c/third_party%2Fxla%2Fxla%2Ftests%2Ffuzz%2Frand_000079.hlo",
            "raw_url": "https://github.com/tensorflow/tensorflow/raw/fcd421e9df0946288cbb745ae7193b8b2795d00c/third_party%2Fxla%2Fxla%2Ftests%2Ffuzz%2Frand_000079.hlo",
            "contents_url": "https://api.github.com/repos/tensorflow/tensorflow/contents/third_party%2Fxla%2Fxla%2Ftests%2Ffuzz%2Frand_000079.hlo?ref=fcd421e9df0946288cbb745ae7193b8b2795d00c",
            "patch": "@@ -1,39 +0,0 @@\n-/* This file is autogenerated! Please don't edit! */\n-HloModule xla_computation_unknown, entry_computation_layout={(s8[5,13,11,16,4,7]{5,4,3,2,1,0},s32[6,4]{1,0},s8[5,14,5,3,9]{4,3,2,1,0},s8[10,14,15,2,7]{4,3,2,1,0})->(s8[5,11,16,7]{3,2,1,0})}\n-\n-region_0.8 {\n-  Arg_0.9 = s8[] parameter(0)\n-  Arg_1.10 = s8[] parameter(1)\n-  ROOT add.11 = s8[] add(Arg_0.9, Arg_1.10)\n-}\n-\n-region_1.15 {\n-  Arg_0.16 = s8[] parameter(0)\n-  Arg_1.17 = s8[] parameter(1)\n-  ROOT add.18 = s8[] add(Arg_0.16, Arg_1.17)\n-}\n-\n-region_2.22 {\n-  Arg_0.23 = s8[] parameter(0)\n-  Arg_1.24 = s8[] parameter(1)\n-  ROOT maximum.25 = s8[] maximum(Arg_0.23, Arg_1.24)\n-}\n-\n-ENTRY main.28 {\n-  Arg_0.1 = s8[5,13,11,16,4,7]{5,4,3,2,1,0} parameter(0)\n-  constant.7 = s8[] constant(0)\n-  reduce.12 = s8[5,11,16,7]{3,2,1,0} reduce(Arg_0.1, constant.7), dimensions={1,4}, to_apply=region_0.8\n-  constant.5 = s32[] constant(1)\n-  broadcast.6 = s32[6,4]{1,0} broadcast(constant.5), dimensions={}\n-  Arg_1.2 = s32[6,4]{1,0} parameter(1)\n-  subtract.13 = s32[6,4]{1,0} subtract(broadcast.6, Arg_1.2)\n-  Arg_2.3 = s8[5,14,5,3,9]{4,3,2,1,0} parameter(2)\n-  Arg_3.4 = s8[10,14,15,2,7]{4,3,2,1,0} parameter(3)\n-  convolution.14 = s8[5,10,16,6,6]{4,3,2,1,0} convolution(Arg_2.3, Arg_3.4), window={size=15x2x7 stride=1x2x1 pad=6_7x1_4x7_6 lhs_dilate=4x4x2 rhs_dilate=1x3x4}, dim_labels=bf012_oi012->bf012\n-  reduce.19 = s8[5,10,16,6]{3,2,1,0} reduce(convolution.14, constant.7), dimensions={3}, to_apply=region_1.15\n-  broadcast.20 = s8[5,5,10,16,6]{4,3,2,1,0} broadcast(reduce.19), dimensions={1,2,3,4}\n-  reshape.21 = s8[5,10,16,5,6]{4,3,2,1,0} reshape(broadcast.20)\n-  scatter.26 = s8[5,11,16,7]{3,2,1,0} scatter(reduce.12, subtract.13, reshape.21), update_window_dims={0,1,2,3}, inserted_window_dims={}, scatter_dims_to_operand_dims={3,0,1,2}, index_vector_dim=1, to_apply=region_2.22\n-  ROOT tuple.27 = (s8[5,11,16,7]{3,2,1,0}) tuple(scatter.26)\n-}\n-"
        },
        {
            "sha": "8225683aa9087eeeae4b9171212eeb4e764a4f8f",
            "filename": "third_party/xla/xla/tests/fuzz/rand_000081.hlo",
            "status": "removed",
            "additions": 0,
            "deletions": 13,
            "changes": 13,
            "blob_url": "https://github.com/tensorflow/tensorflow/blob/fcd421e9df0946288cbb745ae7193b8b2795d00c/third_party%2Fxla%2Fxla%2Ftests%2Ffuzz%2Frand_000081.hlo",
            "raw_url": "https://github.com/tensorflow/tensorflow/raw/fcd421e9df0946288cbb745ae7193b8b2795d00c/third_party%2Fxla%2Fxla%2Ftests%2Ffuzz%2Frand_000081.hlo",
            "contents_url": "https://api.github.com/repos/tensorflow/tensorflow/contents/third_party%2Fxla%2Fxla%2Ftests%2Ffuzz%2Frand_000081.hlo?ref=fcd421e9df0946288cbb745ae7193b8b2795d00c",
            "patch": "@@ -1,13 +0,0 @@\n-/* This file is autogenerated! Please don't edit! */\n-HloModule xla_computation_unknown, entry_computation_layout={(c64[3,12,11,13]{3,2,1,0})->(c64[3,12,11,13]{3,2,1,0})}\n-\n-ENTRY main.8 {\n-  constant.2 = c64[] constant((1, 0))\n-  broadcast.3 = c64[3,12,11,13]{3,2,1,0} broadcast(constant.2), dimensions={}\n-  rsqrt.4 = c64[3,12,11,13]{3,2,1,0} rsqrt(broadcast.3)\n-  Arg_0.1 = c64[3,12,11,13]{3,2,1,0} parameter(0)\n-  atan2.5 = c64[3,12,11,13]{3,2,1,0} atan2(Arg_0.1, broadcast.3)\n-  subtract.6 = c64[3,12,11,13]{3,2,1,0} subtract(rsqrt.4, atan2.5)\n-  ROOT tuple.7 = (c64[3,12,11,13]{3,2,1,0}) tuple(subtract.6)\n-}\n-"
        },
        {
            "sha": "45ebb92f481319c555e3bcd6a4e531e47cd579b5",
            "filename": "third_party/xla/xla/tests/fuzz/rand_000084.hlo",
            "status": "removed",
            "additions": 0,
            "deletions": 16,
            "changes": 16,
            "blob_url": "https://github.com/tensorflow/tensorflow/blob/fcd421e9df0946288cbb745ae7193b8b2795d00c/third_party%2Fxla%2Fxla%2Ftests%2Ffuzz%2Frand_000084.hlo",
            "raw_url": "https://github.com/tensorflow/tensorflow/raw/fcd421e9df0946288cbb745ae7193b8b2795d00c/third_party%2Fxla%2Fxla%2Ftests%2Ffuzz%2Frand_000084.hlo",
            "contents_url": "https://api.github.com/repos/tensorflow/tensorflow/contents/third_party%2Fxla%2Fxla%2Ftests%2Ffuzz%2Frand_000084.hlo?ref=fcd421e9df0946288cbb745ae7193b8b2795d00c",
            "patch": "@@ -1,16 +0,0 @@\n-/* This file is autogenerated! Please don't edit! */\n-HloModule xla_computation_unknown, entry_computation_layout={(c64[30,37,54]{2,1,0})->(c64[6,12,16]{2,1,0})}\n-\n-ENTRY main.11 {\n-  constant.2 = c64[] constant((1, 0))\n-  broadcast.3 = c64[30,37,54]{2,1,0} broadcast(constant.2), dimensions={}\n-  constant.4 = c64[] constant((0, 0))\n-  broadcast.5 = c64[30,37,54]{2,1,0} broadcast(constant.4), dimensions={}\n-  Arg_0.1 = c64[30,37,54]{2,1,0} parameter(0)\n-  compare.6 = pred[30,37,54]{2,1,0} compare(broadcast.5, Arg_0.1), direction=EQ\n-  select.7 = c64[30,37,54]{2,1,0} select(compare.6, broadcast.3, Arg_0.1)\n-  divide.8 = c64[30,37,54]{2,1,0} divide(broadcast.3, select.7)\n-  slice.9 = c64[6,12,16]{2,1,0} slice(divide.8), slice={[12:30:3], [1:37:3], [6:54:3]}\n-  ROOT tuple.10 = (c64[6,12,16]{2,1,0}) tuple(slice.9)\n-}\n-"
        },
        {
            "sha": "5ca2d95278a9b945cb3d8db7619e826cb8adacb1",
            "filename": "third_party/xla/xla/tests/fuzz/rand_000085.hlo",
            "status": "removed",
            "additions": 0,
            "deletions": 17,
            "changes": 17,
            "blob_url": "https://github.com/tensorflow/tensorflow/blob/fcd421e9df0946288cbb745ae7193b8b2795d00c/third_party%2Fxla%2Fxla%2Ftests%2Ffuzz%2Frand_000085.hlo",
            "raw_url": "https://github.com/tensorflow/tensorflow/raw/fcd421e9df0946288cbb745ae7193b8b2795d00c/third_party%2Fxla%2Fxla%2Ftests%2Ffuzz%2Frand_000085.hlo",
            "contents_url": "https://api.github.com/repos/tensorflow/tensorflow/contents/third_party%2Fxla%2Fxla%2Ftests%2Ffuzz%2Frand_000085.hlo?ref=fcd421e9df0946288cbb745ae7193b8b2795d00c",
            "patch": "@@ -1,17 +0,0 @@\n-/* This file is autogenerated! Please don't edit! */\n-HloModule xla_computation_unknown, entry_computation_layout={(f16[])->(f16[])}\n-\n-ENTRY main.12 {\n-  constant.3 = f16[] constant(-1.5)\n-  constant.5 = f16[] constant(0)\n-  Arg_0.1 = f16[] parameter(0)\n-  compare.6 = pred[] compare(constant.5, Arg_0.1), direction=EQ\n-  constant.4 = f16[] constant(1)\n-  select.7 = f16[] select(compare.6, constant.4, Arg_0.1)\n-  atan2.8 = f16[] atan2(select.7, constant.4)\n-  constant.2 = f16[] constant(1.5)\n-  clamp.9 = f16[] clamp(constant.3, atan2.8, constant.2)\n-  tan.10 = f16[] tan(clamp.9)\n-  ROOT tuple.11 = (f16[]) tuple(tan.10)\n-}\n-"
        },
        {
            "sha": "44bcedb81561021975724752ba955dd002384615",
            "filename": "third_party/xla/xla/tests/fuzz/rand_000086.hlo",
            "status": "removed",
            "additions": 0,
            "deletions": 14,
            "changes": 14,
            "blob_url": "https://github.com/tensorflow/tensorflow/blob/fcd421e9df0946288cbb745ae7193b8b2795d00c/third_party%2Fxla%2Fxla%2Ftests%2Ffuzz%2Frand_000086.hlo",
            "raw_url": "https://github.com/tensorflow/tensorflow/raw/fcd421e9df0946288cbb745ae7193b8b2795d00c/third_party%2Fxla%2Fxla%2Ftests%2Ffuzz%2Frand_000086.hlo",
            "contents_url": "https://api.github.com/repos/tensorflow/tensorflow/contents/third_party%2Fxla%2Fxla%2Ftests%2Ffuzz%2Frand_000086.hlo?ref=fcd421e9df0946288cbb745ae7193b8b2795d00c",
            "patch": "@@ -1,14 +0,0 @@\n-/* This file is autogenerated! Please don't edit! */\n-HloModule xla_computation_unknown, entry_computation_layout={(u32[],u32[],u32[])->(u32[])}\n-\n-ENTRY main.9 {\n-  Arg_0.1 = u32[] parameter(0)\n-  Arg_1.2 = u32[] parameter(1)\n-  minimum.5 = u32[] minimum(Arg_0.1, Arg_1.2)\n-  Arg_2.3 = u32[] parameter(2)\n-  constant.4 = u32[] constant(1)\n-  minimum.6 = u32[] minimum(Arg_2.3, constant.4)\n-  and.7 = u32[] and(minimum.5, minimum.6)\n-  ROOT tuple.8 = (u32[]) tuple(and.7)\n-}\n-"
        },
        {
            "sha": "4066454eaacda6b5d93e4ea81a6e0d8254301b7c",
            "filename": "third_party/xla/xla/tests/fuzz/rand_000088.hlo",
            "status": "removed",
            "additions": 0,
            "deletions": 13,
            "changes": 13,
            "blob_url": "https://github.com/tensorflow/tensorflow/blob/fcd421e9df0946288cbb745ae7193b8b2795d00c/third_party%2Fxla%2Fxla%2Ftests%2Ffuzz%2Frand_000088.hlo",
            "raw_url": "https://github.com/tensorflow/tensorflow/raw/fcd421e9df0946288cbb745ae7193b8b2795d00c/third_party%2Fxla%2Fxla%2Ftests%2Ffuzz%2Frand_000088.hlo",
            "contents_url": "https://api.github.com/repos/tensorflow/tensorflow/contents/third_party%2Fxla%2Fxla%2Ftests%2Ffuzz%2Frand_000088.hlo?ref=fcd421e9df0946288cbb745ae7193b8b2795d00c",
            "patch": "@@ -1,13 +0,0 @@\n-/* This file is autogenerated! Please don't edit! */\n-HloModule xla_computation_unknown, entry_computation_layout={()->(bf16[11]{0})}\n-\n-ENTRY main.8 {\n-  constant.3 = bf16[] constant(0)\n-  broadcast.4 = bf16[11]{0} broadcast(constant.3), dimensions={}\n-  constant.1 = bf16[] constant(2)\n-  broadcast.2 = bf16[11]{0} broadcast(constant.1), dimensions={}\n-  atan2.5 = bf16[11]{0} atan2(broadcast.4, broadcast.2)\n-  multiply.6 = bf16[11]{0} multiply(atan2.5, broadcast.2)\n-  ROOT tuple.7 = (bf16[11]{0}) tuple(multiply.6)\n-}\n-"
        },
        {
            "sha": "6d0ecd608d2ec037736aa75aba1232b485ba171e",
            "filename": "third_party/xla/xla/tests/fuzz/rand_000089.hlo",
            "status": "removed",
            "additions": 0,
            "deletions": 47,
            "changes": 47,
            "blob_url": "https://github.com/tensorflow/tensorflow/blob/fcd421e9df0946288cbb745ae7193b8b2795d00c/third_party%2Fxla%2Fxla%2Ftests%2Ffuzz%2Frand_000089.hlo",
            "raw_url": "https://github.com/tensorflow/tensorflow/raw/fcd421e9df0946288cbb745ae7193b8b2795d00c/third_party%2Fxla%2Fxla%2Ftests%2Ffuzz%2Frand_000089.hlo",
            "contents_url": "https://api.github.com/repos/tensorflow/tensorflow/contents/third_party%2Fxla%2Fxla%2Ftests%2Ffuzz%2Frand_000089.hlo?ref=fcd421e9df0946288cbb745ae7193b8b2795d00c",
            "patch": "@@ -1,47 +0,0 @@\n-/* This file is autogenerated! Please don't edit! */\n-HloModule xla_computation_unknown, entry_computation_layout={(u16[7,4,15,9]{3,2,1,0},u16[7,4,15,9]{3,2,1,0},pred[],u32[16,8,10]{2,1,0})->(u16[7,4,15,9]{3,2,1,0})}\n-\n-region_1.7 {\n-  Arg_0.8 = u16[] parameter(0)\n-  Arg_1.9 = u16[] parameter(1)\n-  ROOT add.10 = u16[] add(Arg_0.8, Arg_1.9)\n-}\n-\n-region_0.11 {\n-  Arg_.12 = u32[16,8,10]{2,1,0} parameter(0)\n-  convert.14 = u16[16,8,10]{2,1,0} convert(Arg_.12)\n-  broadcast.15 = u16[7,16,8,10]{3,2,1,0} broadcast(convert.14), dimensions={1,2,3}\n-  constant.13 = u16[] constant(0)\n-  reduce.16 = u16[7]{0} reduce(broadcast.15, constant.13), dimensions={1,2,3}, to_apply=region_1.7\n-  broadcast.17 = u16[4,15,9,7]{3,2,1,0} broadcast(reduce.16), dimensions={3}\n-  ROOT reshape.18 = u16[7,4,15,9]{3,2,1,0} reshape(broadcast.17)\n-}\n-\n-region_3.19 {\n-  Arg_0.20 = u16[] parameter(0)\n-  Arg_1.21 = u16[] parameter(1)\n-  ROOT add.22 = u16[] add(Arg_0.20, Arg_1.21)\n-}\n-\n-region_2.23 {\n-  Arg_.24 = u32[16,8,10]{2,1,0} parameter(0)\n-  convert.26 = u16[16,8,10]{2,1,0} convert(Arg_.24)\n-  broadcast.27 = u16[7,16,8,10]{3,2,1,0} broadcast(convert.26), dimensions={1,2,3}\n-  constant.25 = u16[] constant(0)\n-  reduce.28 = u16[7]{0} reduce(broadcast.27, constant.25), dimensions={1,2,3}, to_apply=region_3.19\n-  broadcast.29 = u16[4,15,9,7]{3,2,1,0} broadcast(reduce.28), dimensions={3}\n-  ROOT reshape.30 = u16[7,4,15,9]{3,2,1,0} reshape(broadcast.29)\n-}\n-\n-ENTRY main.34 {\n-  Arg_0.1 = u16[7,4,15,9]{3,2,1,0} parameter(0)\n-  Arg_1.2 = u16[7,4,15,9]{3,2,1,0} parameter(1)\n-  shift-right-logical.5 = u16[7,4,15,9]{3,2,1,0} shift-right-logical(Arg_0.1, Arg_1.2)\n-  Arg_2.3 = pred[] parameter(2)\n-  convert.6 = s32[] convert(Arg_2.3)\n-  Arg_3.4 = u32[16,8,10]{2,1,0} parameter(3)\n-  conditional.31 = u16[7,4,15,9]{3,2,1,0} conditional(convert.6, Arg_3.4, Arg_3.4), branch_computations={region_0.11, region_2.23}\n-  xor.32 = u16[7,4,15,9]{3,2,1,0} xor(shift-right-logical.5, conditional.31)\n-  ROOT tuple.33 = (u16[7,4,15,9]{3,2,1,0}) tuple(xor.32)\n-}\n-"
        },
        {
            "sha": "2a3f0bd84d72a4733c2014ffdebc14dc510788b6",
            "filename": "third_party/xla/xla/tests/fuzz/rand_000090.hlo",
            "status": "removed",
            "additions": 0,
            "deletions": 15,
            "changes": 15,
            "blob_url": "https://github.com/tensorflow/tensorflow/blob/fcd421e9df0946288cbb745ae7193b8b2795d00c/third_party%2Fxla%2Fxla%2Ftests%2Ffuzz%2Frand_000090.hlo",
            "raw_url": "https://github.com/tensorflow/tensorflow/raw/fcd421e9df0946288cbb745ae7193b8b2795d00c/third_party%2Fxla%2Fxla%2Ftests%2Ffuzz%2Frand_000090.hlo",
            "contents_url": "https://api.github.com/repos/tensorflow/tensorflow/contents/third_party%2Fxla%2Fxla%2Ftests%2Ffuzz%2Frand_000090.hlo?ref=fcd421e9df0946288cbb745ae7193b8b2795d00c",
            "patch": "@@ -1,15 +0,0 @@\n-/* This file is autogenerated! Please don't edit! */\n-HloModule xla_computation_unknown, entry_computation_layout={(u16[2,2,12]{2,1,0},u16[2,2,12]{2,1,0},u16[2,2,2,5,12]{4,3,2,1,0})->(pred[2,2,12]{2,1,0})}\n-\n-ENTRY main.10 {\n-  Arg_0.1 = u16[2,2,12]{2,1,0} parameter(0)\n-  Arg_1.2 = u16[2,2,12]{2,1,0} parameter(1)\n-  shift-right-logical.6 = u16[2,2,12]{2,1,0} shift-right-logical(Arg_0.1, Arg_1.2)\n-  Arg_2.3 = u16[2,2,2,5,12]{4,3,2,1,0} parameter(2)\n-  constant.4 = u16[] constant(1)\n-  broadcast.5 = u16[5,2]{1,0} broadcast(constant.4), dimensions={}\n-  dot.7 = u16[2,2,12]{2,1,0} dot(Arg_2.3, broadcast.5), lhs_contracting_dims={3,0}, rhs_contracting_dims={0,1}\n-  compare.8 = pred[2,2,12]{2,1,0} compare(shift-right-logical.6, dot.7), direction=GT\n-  ROOT tuple.9 = (pred[2,2,12]{2,1,0}) tuple(compare.8)\n-}\n-"
        },
        {
            "sha": "d26180356212f1671074e9eb113e8f4de0bbb203",
            "filename": "third_party/xla/xla/tests/fuzz/rand_000092.hlo",
            "status": "removed",
            "additions": 0,
            "deletions": 27,
            "changes": 27,
            "blob_url": "https://github.com/tensorflow/tensorflow/blob/fcd421e9df0946288cbb745ae7193b8b2795d00c/third_party%2Fxla%2Fxla%2Ftests%2Ffuzz%2Frand_000092.hlo",
            "raw_url": "https://github.com/tensorflow/tensorflow/raw/fcd421e9df0946288cbb745ae7193b8b2795d00c/third_party%2Fxla%2Fxla%2Ftests%2Ffuzz%2Frand_000092.hlo",
            "contents_url": "https://api.github.com/repos/tensorflow/tensorflow/contents/third_party%2Fxla%2Fxla%2Ftests%2Ffuzz%2Frand_000092.hlo?ref=fcd421e9df0946288cbb745ae7193b8b2795d00c",
            "patch": "@@ -1,27 +0,0 @@\n-/* This file is autogenerated! Please don't edit! */\n-HloModule xla_computation_unknown, entry_computation_layout={()->(f16[11,13,15,12]{3,2,1,0})}\n-\n-region_0.5 {\n-  Arg_0.6 = f16[] parameter(0)\n-  Arg_1.7 = f16[] parameter(1)\n-  ROOT add.8 = f16[] add(Arg_0.6, Arg_1.7)\n-}\n-\n-region_1.10 {\n-  Arg_0.11 = f16[] parameter(0)\n-  Arg_1.12 = f16[] parameter(1)\n-  ROOT add.13 = f16[] add(Arg_0.11, Arg_1.12)\n-}\n-\n-ENTRY main.18 {\n-  constant.2 = f16[] constant(1)\n-  broadcast.3 = f16[15,13,11,13]{3,2,1,0} broadcast(constant.2), dimensions={}\n-  floor.4 = f16[15,13,11,13]{3,2,1,0} floor(broadcast.3)\n-  constant.1 = f16[] constant(0)\n-  reduce-window.9 = f16[12,13,15,13]{3,2,1,0} reduce-window(floor.4, constant.1), window={size=16x1x3x19 lhs_dilate=4x1x2x4 rhs_dilate=3x1x3x2}, to_apply=region_0.5\n-  reduce.14 = f16[13,15]{1,0} reduce(reduce-window.9, constant.1), dimensions={0,3}, to_apply=region_1.10\n-  broadcast.15 = f16[11,12,13,15]{3,2,1,0} broadcast(reduce.14), dimensions={2,3}\n-  reshape.16 = f16[11,13,15,12]{3,2,1,0} reshape(broadcast.15)\n-  ROOT tuple.17 = (f16[11,13,15,12]{3,2,1,0}) tuple(reshape.16)\n-}\n-"
        },
        {
            "sha": "903fa648e1e0da851194df7e7e0bb1e886a480c4",
            "filename": "third_party/xla/xla/tests/fuzz/rand_000094.hlo",
            "status": "removed",
            "additions": 0,
            "deletions": 17,
            "changes": 17,
            "blob_url": "https://github.com/tensorflow/tensorflow/blob/fcd421e9df0946288cbb745ae7193b8b2795d00c/third_party%2Fxla%2Fxla%2Ftests%2Ffuzz%2Frand_000094.hlo",
            "raw_url": "https://github.com/tensorflow/tensorflow/raw/fcd421e9df0946288cbb745ae7193b8b2795d00c/third_party%2Fxla%2Fxla%2Ftests%2Ffuzz%2Frand_000094.hlo",
            "contents_url": "https://api.github.com/repos/tensorflow/tensorflow/contents/third_party%2Fxla%2Fxla%2Ftests%2Ffuzz%2Frand_000094.hlo?ref=fcd421e9df0946288cbb745ae7193b8b2795d00c",
            "patch": "@@ -1,17 +0,0 @@\n-/* This file is autogenerated! Please don't edit! */\n-HloModule xla_computation_unknown, entry_computation_layout={(u32[13,6]{1,0})->(u32[13,6]{1,0})}\n-\n-ENTRY main.12 {\n-  constant.2 = u32[] constant(1)\n-  broadcast.3 = u32[13,3]{1,0} broadcast(constant.2), dimensions={}\n-  constant.4 = u32[] constant(1)\n-  broadcast.5 = u32[3,6]{1,0} broadcast(constant.4), dimensions={}\n-  dot.8 = u32[13,6]{1,0} dot(broadcast.3, broadcast.5), lhs_contracting_dims={1}, rhs_contracting_dims={0}\n-  Arg_0.1 = u32[13,6]{1,0} parameter(0)\n-  constant.6 = u32[] constant(1)\n-  broadcast.7 = u32[13,6]{1,0} broadcast(constant.6), dimensions={}\n-  maximum.9 = u32[13,6]{1,0} maximum(Arg_0.1, broadcast.7)\n-  shift-right-logical.10 = u32[13,6]{1,0} shift-right-logical(dot.8, maximum.9)\n-  ROOT tuple.11 = (u32[13,6]{1,0}) tuple(shift-right-logical.10)\n-}\n-"
        },
        {
            "sha": "8f2f3cd7da99cf64dc5e1fe8e339425ee6821b16",
            "filename": "third_party/xla/xla/tests/fuzz/rand_000095.hlo",
            "status": "removed",
            "additions": 0,
            "deletions": 56,
            "changes": 56,
            "blob_url": "https://github.com/tensorflow/tensorflow/blob/fcd421e9df0946288cbb745ae7193b8b2795d00c/third_party%2Fxla%2Fxla%2Ftests%2Ffuzz%2Frand_000095.hlo",
            "raw_url": "https://github.com/tensorflow/tensorflow/raw/fcd421e9df0946288cbb745ae7193b8b2795d00c/third_party%2Fxla%2Fxla%2Ftests%2Ffuzz%2Frand_000095.hlo",
            "contents_url": "https://api.github.com/repos/tensorflow/tensorflow/contents/third_party%2Fxla%2Fxla%2Ftests%2Ffuzz%2Frand_000095.hlo?ref=fcd421e9df0946288cbb745ae7193b8b2795d00c",
            "patch": "@@ -1,56 +0,0 @@\n-/* This file is autogenerated! Please don't edit! */\n-HloModule xla_computation_unknown, entry_computation_layout={(pred[],u32[8,5,3,8,2]{4,3,2,1,0},u32[1,1,2,3,1]{4,3,2,1,0})->(u32[13]{0})}\n-\n-region_1.11 {\n-  Arg_0.12 = s32[] parameter(0)\n-  Arg_1.13 = s32[] parameter(1)\n-  ROOT add.14 = s32[] add(Arg_0.12, Arg_1.13)\n-}\n-\n-region_0.15 {\n-  arg_empty_tuple.16 = () parameter(0)\n-  constant.18 = s32[] constant(1)\n-  broadcast.19 = s32[6,12,1,9,5]{4,3,2,1,0} broadcast(constant.18), dimensions={}\n-  constant.17 = s32[] constant(0)\n-  reduce.20 = s32[] reduce(broadcast.19, constant.17), dimensions={0,1,2,3,4}, to_apply=region_1.11\n-  ROOT broadcast.21 = s32[8,3,8,2,1]{4,3,2,1,0} broadcast(reduce.20), dimensions={}\n-}\n-\n-region_3.22 {\n-  Arg_0.23 = s32[] parameter(0)\n-  Arg_1.24 = s32[] parameter(1)\n-  ROOT add.25 = s32[] add(Arg_0.23, Arg_1.24)\n-}\n-\n-region_2.26 {\n-  arg_empty_tuple.27 = () parameter(0)\n-  constant.29 = s32[] constant(1)\n-  broadcast.30 = s32[6,12,1,9,5]{4,3,2,1,0} broadcast(constant.29), dimensions={}\n-  constant.28 = s32[] constant(0)\n-  reduce.31 = s32[] reduce(broadcast.30, constant.28), dimensions={0,1,2,3,4}, to_apply=region_3.22\n-  ROOT broadcast.32 = s32[8,3,8,2,1]{4,3,2,1,0} broadcast(reduce.31), dimensions={}\n-}\n-\n-region_4.35 {\n-  Arg_0.36 = u32[] parameter(0)\n-  Arg_1.37 = u32[] parameter(1)\n-  ROOT multiply.38 = u32[] multiply(Arg_0.36, Arg_1.37)\n-}\n-\n-ENTRY main.41 {\n-  constant.4 = u32[] constant(1)\n-  broadcast.5 = u32[13]{0} broadcast(constant.4), dimensions={}\n-  Arg_0.1 = pred[] parameter(0)\n-  convert.8 = s32[] convert(Arg_0.1)\n-  tuple.9 = () tuple()\n-  tuple.10 = () tuple()\n-  conditional.33 = s32[8,3,8,2,1]{4,3,2,1,0} conditional(convert.8, tuple.9, tuple.10), branch_computations={region_0.15, region_2.26}\n-  Arg_1.2 = u32[8,5,3,8,2]{4,3,2,1,0} parameter(1)\n-  Arg_2.3 = u32[1,1,2,3,1]{4,3,2,1,0} parameter(2)\n-  constant.6 = s32[] constant(1)\n-  constant.7 = s32[] constant(0)\n-  dynamic-update-slice.34 = u32[8,5,3,8,2]{4,3,2,1,0} dynamic-update-slice(Arg_1.2, Arg_2.3, constant.6, constant.7, constant.6, constant.6, constant.6)\n-  scatter.39 = u32[13]{0} scatter(broadcast.5, conditional.33, dynamic-update-slice.34), update_window_dims={1}, inserted_window_dims={}, scatter_dims_to_operand_dims={0}, index_vector_dim=4, to_apply=region_4.35\n-  ROOT tuple.40 = (u32[13]{0}) tuple(scatter.39)\n-}\n-"
        }
    ],
    "stats": {
        "total": 2289,
        "additions": 0,
        "deletions": 2289
    }
}