{
    "author": "GleasonK",
    "message": "[Kernelgen] Remove uses of mhlo.reshape / dynamic_reshape on unranked tensors from kernel templates.\n\nThis allows for deletion of duplicate MHLO/StableHLO passes (linalg being the immediate target). Since StableHLO doesn't support unranked types, flip kernel_gen kernels to use `tensor.reshape` and `tensor.dynamic_reshape` for unranked reshapes.\n\nStill uses mhlo reshape ops for bufferization / deeper lowering, that will be changed in future cleanup.\n\nPiperOrigin-RevId: 811006356",
    "sha": "ce6202dd8482f022a0dcc1e6df95fa9e14b6b65f",
    "files": [
        {
            "sha": "8eee1df064a27360eaeba85aa643401aefbd8c11",
            "filename": "tensorflow/compiler/mlir/tools/kernel_gen/kernel_creator.cc",
            "status": "modified",
            "additions": 7,
            "deletions": 0,
            "changes": 7,
            "blob_url": "https://github.com/tensorflow/tensorflow/blob/ce6202dd8482f022a0dcc1e6df95fa9e14b6b65f/tensorflow%2Fcompiler%2Fmlir%2Ftools%2Fkernel_gen%2Fkernel_creator.cc",
            "raw_url": "https://github.com/tensorflow/tensorflow/raw/ce6202dd8482f022a0dcc1e6df95fa9e14b6b65f/tensorflow%2Fcompiler%2Fmlir%2Ftools%2Fkernel_gen%2Fkernel_creator.cc",
            "contents_url": "https://api.github.com/repos/tensorflow/tensorflow/contents/tensorflow%2Fcompiler%2Fmlir%2Ftools%2Fkernel_gen%2Fkernel_creator.cc?ref=ce6202dd8482f022a0dcc1e6df95fa9e14b6b65f",
            "patch": "@@ -183,6 +183,13 @@ absl::Status LowerHlotoLoops(mlir::ModuleOp module,\n   pm.addNestedPass<FuncOp>(::mlir::mhlo::createLegalizeHloToLinalgPass());\n   pm.addPass(::mlir::mhlo::createLegalizeToArithmeticPass());\n \n+  // Convert tensor.reshape to MHLO before running any bufferization passes.\n+  // We'll need to teach this pipeline how to properly handle tensor.reshape\n+  // in order to fully deprecate MHLO but in the meantime this ublocks lots of\n+  // cleanup.\n+  pm.addNestedPass<FuncOp>(\n+      ::mlir::kernel_gen::createLegalizeTensorReshapePass());\n+\n   // Remove the remaining references to unsigned types after all HLO compute\n   // operations were converted.\n   pm.addPass(mlir::stablehlo::createStablehloConvertToSignlessPass());"
        },
        {
            "sha": "26d7d9b029d59e60b83e266daada60f596f48ef6",
            "filename": "tensorflow/compiler/mlir/tools/kernel_gen/tests/hlo_to_kernel/add_v2.mlir",
            "status": "modified",
            "additions": 18,
            "deletions": 17,
            "changes": 35,
            "blob_url": "https://github.com/tensorflow/tensorflow/blob/ce6202dd8482f022a0dcc1e6df95fa9e14b6b65f/tensorflow%2Fcompiler%2Fmlir%2Ftools%2Fkernel_gen%2Ftests%2Fhlo_to_kernel%2Fadd_v2.mlir",
            "raw_url": "https://github.com/tensorflow/tensorflow/raw/ce6202dd8482f022a0dcc1e6df95fa9e14b6b65f/tensorflow%2Fcompiler%2Fmlir%2Ftools%2Fkernel_gen%2Ftests%2Fhlo_to_kernel%2Fadd_v2.mlir",
            "contents_url": "https://api.github.com/repos/tensorflow/tensorflow/contents/tensorflow%2Fcompiler%2Fmlir%2Ftools%2Fkernel_gen%2Ftests%2Fhlo_to_kernel%2Fadd_v2.mlir?ref=ce6202dd8482f022a0dcc1e6df95fa9e14b6b65f",
            "patch": "@@ -15,11 +15,12 @@ func.func @AddV2(%arg0: tensor<*xf32>, %arg1: tensor<*xf32>) -> tensor<*xf32> at\n   %6 = shape.shape_of %arg1 : tensor<*xf32> -> tensor<?xindex>\n   %7 = shape.num_elements %5 : tensor<?xindex> -> index\n   %8 = arith.cmpi eq, %7, %c1 : index\n+  %c_empty = arith.constant dense<> : tensor<0xindex>\n   %9 = scf.if %8 -> (tensor<*xf32>) {\n     %14 = shape.num_elements %6 : tensor<?xindex> -> index\n     %from_elements = tensor.from_elements %14 : tensor<1xindex>\n-    %15 = mhlo.reshape %arg0 : (tensor<*xf32>) -> tensor<f32>\n-    %16 = mhlo.dynamic_reshape %arg1, %from_elements : (tensor<*xf32>, tensor<1xindex>) -> tensor<?xf32>\n+    %15 = tensor.reshape %arg0(%c_empty) : (tensor<*xf32>, tensor<0xindex>) -> tensor<f32>\n+    %16 = tensor.reshape %arg1(%from_elements) : (tensor<*xf32>, tensor<1xindex>) -> tensor<?xf32>\n     %17 = chlo.broadcast_add %15, %16 : (tensor<f32>, tensor<?xf32>) -> tensor<?xf32>\n     %cast = tensor.cast %17 : tensor<?xf32> to tensor<*xf32>\n     scf.yield %cast : tensor<*xf32>\n@@ -29,8 +30,8 @@ func.func @AddV2(%arg0: tensor<*xf32>, %arg1: tensor<*xf32>) -> tensor<*xf32> at\n     %16 = scf.if %15 -> (tensor<*xf32>) {\n       %17 = shape.num_elements %5 : tensor<?xindex> -> index\n       %from_elements = tensor.from_elements %17 : tensor<1xindex>\n-      %18 = mhlo.dynamic_reshape %arg0, %from_elements : (tensor<*xf32>, tensor<1xindex>) -> tensor<?xf32>\n-      %19 = mhlo.reshape %arg1 : (tensor<*xf32>) -> tensor<f32>\n+      %18 = tensor.reshape %arg0(%from_elements) : (tensor<*xf32>, tensor<1xindex>) -> tensor<?xf32>\n+      %19 = tensor.reshape %arg1(%c_empty) : (tensor<*xf32>, tensor<0xindex>) -> tensor<f32>\n       %20 = chlo.broadcast_add %18, %19 : (tensor<?xf32>, tensor<f32>) -> tensor<?xf32>\n       %cast = tensor.cast %20 : tensor<?xf32> to tensor<*xf32>\n       scf.yield %cast : tensor<*xf32>\n@@ -40,8 +41,8 @@ func.func @AddV2(%arg0: tensor<*xf32>, %arg1: tensor<*xf32>) -> tensor<*xf32> at\n         %19 = shape.any %5, %6 : tensor<?xindex>, tensor<?xindex> -> tensor<?xindex>\n         %20 = shape.num_elements %19 : tensor<?xindex> -> index\n         %from_elements = tensor.from_elements %20 : tensor<1xindex>\n-        %21 = mhlo.dynamic_reshape %arg0, %from_elements : (tensor<*xf32>, tensor<1xindex>) -> tensor<?xf32>\n-        %22 = mhlo.dynamic_reshape %arg1, %from_elements : (tensor<*xf32>, tensor<1xindex>) -> tensor<?xf32>\n+        %21 = tensor.reshape %arg0(%from_elements) : (tensor<*xf32>, tensor<1xindex>) -> tensor<?xf32>\n+        %22 = tensor.reshape %arg1(%from_elements) : (tensor<*xf32>, tensor<1xindex>) -> tensor<?xf32>\n         %23 = chlo.broadcast_add %21, %22 : (tensor<?xf32>, tensor<?xf32>) -> tensor<?xf32>\n         %cast = tensor.cast %23 : tensor<?xf32> to tensor<*xf32>\n         scf.yield %cast : tensor<*xf32>\n@@ -55,10 +56,10 @@ func.func @AddV2(%arg0: tensor<*xf32>, %arg1: tensor<*xf32>) -> tensor<*xf32> at\n         %25 = scf.if %24 -> (tensor<*xf32>) {\n           %26 = shape.broadcast %19#0, %4 : tensor<?xindex>, tensor<1xindex> -> tensor<?xindex>\n           %cast = tensor.cast %26 : tensor<?xindex> to tensor<1xindex>\n-          %27 = mhlo.dynamic_reshape %arg0, %cast : (tensor<*xf32>, tensor<1xindex>) -> tensor<?xf32>\n+          %27 = tensor.reshape %arg0(%cast) : (tensor<*xf32>, tensor<1xindex>) -> tensor<?xf32>\n           %28 = shape.broadcast %19#1, %4 : tensor<?xindex>, tensor<1xindex> -> tensor<?xindex>\n           %cast_0 = tensor.cast %28 : tensor<?xindex> to tensor<1xindex>\n-          %29 = mhlo.dynamic_reshape %arg1, %cast_0 : (tensor<*xf32>, tensor<1xindex>) -> tensor<?xf32>\n+          %29 = tensor.reshape %arg1(%cast_0) : (tensor<*xf32>, tensor<1xindex>) -> tensor<?xf32>\n           %30 = chlo.broadcast_add %27, %29 : (tensor<?xf32>, tensor<?xf32>) -> tensor<?xf32>\n           %cast_1 = tensor.cast %30 : tensor<?xf32> to tensor<*xf32>\n           scf.yield %cast_1 : tensor<*xf32>\n@@ -67,10 +68,10 @@ func.func @AddV2(%arg0: tensor<*xf32>, %arg1: tensor<*xf32>) -> tensor<*xf32> at\n           %27 = scf.if %26 -> (tensor<*xf32>) {\n             %28 = shape.broadcast %19#0, %3 : tensor<?xindex>, tensor<2xindex> -> tensor<?xindex>\n             %cast = tensor.cast %28 : tensor<?xindex> to tensor<2xindex>\n-            %29 = mhlo.dynamic_reshape %arg0, %cast : (tensor<*xf32>, tensor<2xindex>) -> tensor<?x?xf32>\n+            %29 = tensor.reshape %arg0(%cast) : (tensor<*xf32>, tensor<2xindex>) -> tensor<?x?xf32>\n             %30 = shape.broadcast %19#1, %3 : tensor<?xindex>, tensor<2xindex> -> tensor<?xindex>\n             %cast_0 = tensor.cast %30 : tensor<?xindex> to tensor<2xindex>\n-            %31 = mhlo.dynamic_reshape %arg1, %cast_0 : (tensor<*xf32>, tensor<2xindex>) -> tensor<?x?xf32>\n+            %31 = tensor.reshape %arg1(%cast_0) : (tensor<*xf32>, tensor<2xindex>) -> tensor<?x?xf32>\n             %32 = chlo.broadcast_add %29, %31 : (tensor<?x?xf32>, tensor<?x?xf32>) -> tensor<?x?xf32>\n             %cast_1 = tensor.cast %32 : tensor<?x?xf32> to tensor<*xf32>\n             scf.yield %cast_1 : tensor<*xf32>\n@@ -79,10 +80,10 @@ func.func @AddV2(%arg0: tensor<*xf32>, %arg1: tensor<*xf32>) -> tensor<*xf32> at\n             %29 = scf.if %28 -> (tensor<*xf32>) {\n               %30 = shape.broadcast %19#0, %2 : tensor<?xindex>, tensor<3xindex> -> tensor<?xindex>\n               %cast = tensor.cast %30 : tensor<?xindex> to tensor<3xindex>\n-              %31 = mhlo.dynamic_reshape %arg0, %cast : (tensor<*xf32>, tensor<3xindex>) -> tensor<?x?x?xf32>\n+              %31 = tensor.reshape %arg0(%cast) : (tensor<*xf32>, tensor<3xindex>) -> tensor<?x?x?xf32>\n               %32 = shape.broadcast %19#1, %2 : tensor<?xindex>, tensor<3xindex> -> tensor<?xindex>\n               %cast_0 = tensor.cast %32 : tensor<?xindex> to tensor<3xindex>\n-              %33 = mhlo.dynamic_reshape %arg1, %cast_0 : (tensor<*xf32>, tensor<3xindex>) -> tensor<?x?x?xf32>\n+              %33 = tensor.reshape %arg1(%cast_0) : (tensor<*xf32>, tensor<3xindex>) -> tensor<?x?x?xf32>\n               %34 = chlo.broadcast_add %31, %33 : (tensor<?x?x?xf32>, tensor<?x?x?xf32>) -> tensor<?x?x?xf32>\n               %cast_1 = tensor.cast %34 : tensor<?x?x?xf32> to tensor<*xf32>\n               scf.yield %cast_1 : tensor<*xf32>\n@@ -91,10 +92,10 @@ func.func @AddV2(%arg0: tensor<*xf32>, %arg1: tensor<*xf32>) -> tensor<*xf32> at\n               %31 = scf.if %30 -> (tensor<*xf32>) {\n                 %32 = shape.broadcast %19#0, %1 : tensor<?xindex>, tensor<4xindex> -> tensor<?xindex>\n                 %cast = tensor.cast %32 : tensor<?xindex> to tensor<4xindex>\n-                %33 = mhlo.dynamic_reshape %arg0, %cast : (tensor<*xf32>, tensor<4xindex>) -> tensor<?x?x?x?xf32>\n+                %33 = tensor.reshape %arg0(%cast) : (tensor<*xf32>, tensor<4xindex>) -> tensor<?x?x?x?xf32>\n                 %34 = shape.broadcast %19#1, %1 : tensor<?xindex>, tensor<4xindex> -> tensor<?xindex>\n                 %cast_0 = tensor.cast %34 : tensor<?xindex> to tensor<4xindex>\n-                %35 = mhlo.dynamic_reshape %arg1, %cast_0 : (tensor<*xf32>, tensor<4xindex>) -> tensor<?x?x?x?xf32>\n+                %35 = tensor.reshape %arg1(%cast_0) : (tensor<*xf32>, tensor<4xindex>) -> tensor<?x?x?x?xf32>\n                 %36 = chlo.broadcast_add %33, %35 : (tensor<?x?x?x?xf32>, tensor<?x?x?x?xf32>) -> tensor<?x?x?x?xf32>\n                 %cast_1 = tensor.cast %36 : tensor<?x?x?x?xf32> to tensor<*xf32>\n                 scf.yield %cast_1 : tensor<*xf32>\n@@ -103,10 +104,10 @@ func.func @AddV2(%arg0: tensor<*xf32>, %arg1: tensor<*xf32>) -> tensor<*xf32> at\n                 cf.assert %32, \"Input for dynamic binary or n-ary op lowering was of a rank greater than 5\"\n                 %33 = shape.broadcast %19#0, %0 : tensor<?xindex>, tensor<5xindex> -> tensor<?xindex>\n                 %cast = tensor.cast %33 : tensor<?xindex> to tensor<5xindex>\n-                %34 = mhlo.dynamic_reshape %arg0, %cast : (tensor<*xf32>, tensor<5xindex>) -> tensor<?x?x?x?x?xf32>\n+                %34 = tensor.reshape %arg0(%cast) : (tensor<*xf32>, tensor<5xindex>) -> tensor<?x?x?x?x?xf32>\n                 %35 = shape.broadcast %19#1, %0 : tensor<?xindex>, tensor<5xindex> -> tensor<?xindex>\n                 %cast_0 = tensor.cast %35 : tensor<?xindex> to tensor<5xindex>\n-                %36 = mhlo.dynamic_reshape %arg1, %cast_0 : (tensor<*xf32>, tensor<5xindex>) -> tensor<?x?x?x?x?xf32>\n+                %36 = tensor.reshape %arg1(%cast_0) : (tensor<*xf32>, tensor<5xindex>) -> tensor<?x?x?x?x?xf32>\n                 %37 = chlo.broadcast_add %34, %36 : (tensor<?x?x?x?x?xf32>, tensor<?x?x?x?x?xf32>) -> tensor<?x?x?x?x?xf32>\n                 %cast_1 = tensor.cast %37 : tensor<?x?x?x?x?xf32> to tensor<*xf32>\n                 scf.yield %cast_1 : tensor<*xf32>\n@@ -126,6 +127,6 @@ func.func @AddV2(%arg0: tensor<*xf32>, %arg1: tensor<*xf32>) -> tensor<*xf32> at\n   %10 = shape.shape_of %arg0 : tensor<*xf32> -> tensor<?xindex>\n   %11 = shape.shape_of %arg1 : tensor<*xf32> -> tensor<?xindex>\n   %12 = shape.broadcast %10, %11 : tensor<?xindex>, tensor<?xindex> -> tensor<?xindex>\n-  %13 = mhlo.dynamic_reshape %9, %12 : (tensor<*xf32>, tensor<?xindex>) -> tensor<*xf32>\n+  %13 = tensor.reshape %9(%12) : (tensor<*xf32>, tensor<?xindex>) -> tensor<*xf32>\n   return %13 : tensor<*xf32>\n }"
        },
        {
            "sha": "e4c711863917fe0e0b6d5daf74830ed92ea2c20b",
            "filename": "tensorflow/compiler/mlir/tools/kernel_gen/tests/hlo_to_kernel/add_v2_unsigned.mlir",
            "status": "modified",
            "additions": 18,
            "deletions": 17,
            "changes": 35,
            "blob_url": "https://github.com/tensorflow/tensorflow/blob/ce6202dd8482f022a0dcc1e6df95fa9e14b6b65f/tensorflow%2Fcompiler%2Fmlir%2Ftools%2Fkernel_gen%2Ftests%2Fhlo_to_kernel%2Fadd_v2_unsigned.mlir",
            "raw_url": "https://github.com/tensorflow/tensorflow/raw/ce6202dd8482f022a0dcc1e6df95fa9e14b6b65f/tensorflow%2Fcompiler%2Fmlir%2Ftools%2Fkernel_gen%2Ftests%2Fhlo_to_kernel%2Fadd_v2_unsigned.mlir",
            "contents_url": "https://api.github.com/repos/tensorflow/tensorflow/contents/tensorflow%2Fcompiler%2Fmlir%2Ftools%2Fkernel_gen%2Ftests%2Fhlo_to_kernel%2Fadd_v2_unsigned.mlir?ref=ce6202dd8482f022a0dcc1e6df95fa9e14b6b65f",
            "patch": "@@ -15,11 +15,12 @@ func.func @AddV2(%arg0: tensor<*xui32>, %arg1: tensor<*xui32>) -> tensor<*xui32>\n   %6 = shape.shape_of %arg1 : tensor<*xui32> -> tensor<?xindex>\n   %7 = shape.num_elements %5 : tensor<?xindex> -> index\n   %8 = arith.cmpi eq, %7, %c1 : index\n+  %c_empty = arith.constant dense<> : tensor<0xindex>\n   %9 = scf.if %8 -> (tensor<*xui32>) {\n     %14 = shape.num_elements %6 : tensor<?xindex> -> index\n     %from_elements = tensor.from_elements %14 : tensor<1xindex>\n-    %15 = mhlo.reshape %arg0 : (tensor<*xui32>) -> tensor<ui32>\n-    %16 = mhlo.dynamic_reshape %arg1, %from_elements : (tensor<*xui32>, tensor<1xindex>) -> tensor<?xui32>\n+    %15 = tensor.reshape %arg0(%c_empty) : (tensor<*xui32>, tensor<0xindex>) -> tensor<ui32>\n+    %16 = tensor.reshape %arg1(%from_elements) : (tensor<*xui32>, tensor<1xindex>) -> tensor<?xui32>\n     %17 = chlo.broadcast_add %15, %16 : (tensor<ui32>, tensor<?xui32>) -> tensor<?xui32>\n     %cast = tensor.cast %17 : tensor<?xui32> to tensor<*xui32>\n     scf.yield %cast : tensor<*xui32>\n@@ -29,8 +30,8 @@ func.func @AddV2(%arg0: tensor<*xui32>, %arg1: tensor<*xui32>) -> tensor<*xui32>\n     %16 = scf.if %15 -> (tensor<*xui32>) {\n       %17 = shape.num_elements %5 : tensor<?xindex> -> index\n       %from_elements = tensor.from_elements %17 : tensor<1xindex>\n-      %18 = mhlo.dynamic_reshape %arg0, %from_elements : (tensor<*xui32>, tensor<1xindex>) -> tensor<?xui32>\n-      %19 = mhlo.reshape %arg1 : (tensor<*xui32>) -> tensor<ui32>\n+      %18 = tensor.reshape %arg0(%from_elements) : (tensor<*xui32>, tensor<1xindex>) -> tensor<?xui32>\n+      %19 = tensor.reshape %arg1(%c_empty) : (tensor<*xui32>, tensor<0xindex>) -> tensor<ui32>\n       %20 = chlo.broadcast_add %18, %19 : (tensor<?xui32>, tensor<ui32>) -> tensor<?xui32>\n       %cast = tensor.cast %20 : tensor<?xui32> to tensor<*xui32>\n       scf.yield %cast : tensor<*xui32>\n@@ -40,8 +41,8 @@ func.func @AddV2(%arg0: tensor<*xui32>, %arg1: tensor<*xui32>) -> tensor<*xui32>\n         %19 = shape.any %5, %6 : tensor<?xindex>, tensor<?xindex> -> tensor<?xindex>\n         %20 = shape.num_elements %19 : tensor<?xindex> -> index\n         %from_elements = tensor.from_elements %20 : tensor<1xindex>\n-        %21 = mhlo.dynamic_reshape %arg0, %from_elements : (tensor<*xui32>, tensor<1xindex>) -> tensor<?xui32>\n-        %22 = mhlo.dynamic_reshape %arg1, %from_elements : (tensor<*xui32>, tensor<1xindex>) -> tensor<?xui32>\n+        %21 = tensor.reshape %arg0(%from_elements) : (tensor<*xui32>, tensor<1xindex>) -> tensor<?xui32>\n+        %22 = tensor.reshape %arg1(%from_elements) : (tensor<*xui32>, tensor<1xindex>) -> tensor<?xui32>\n         %23 = chlo.broadcast_add %21, %22 : (tensor<?xui32>, tensor<?xui32>) -> tensor<?xui32>\n         %cast = tensor.cast %23 : tensor<?xui32> to tensor<*xui32>\n         scf.yield %cast : tensor<*xui32>\n@@ -55,10 +56,10 @@ func.func @AddV2(%arg0: tensor<*xui32>, %arg1: tensor<*xui32>) -> tensor<*xui32>\n         %25 = scf.if %24 -> (tensor<*xui32>) {\n           %26 = shape.broadcast %19#0, %4 : tensor<?xindex>, tensor<1xindex> -> tensor<?xindex>\n           %cast = tensor.cast %26 : tensor<?xindex> to tensor<1xindex>\n-          %27 = mhlo.dynamic_reshape %arg0, %cast : (tensor<*xui32>, tensor<1xindex>) -> tensor<?xui32>\n+          %27 = tensor.reshape %arg0(%cast) : (tensor<*xui32>, tensor<1xindex>) -> tensor<?xui32>\n           %28 = shape.broadcast %19#1, %4 : tensor<?xindex>, tensor<1xindex> -> tensor<?xindex>\n           %cast_0 = tensor.cast %28 : tensor<?xindex> to tensor<1xindex>\n-          %29 = mhlo.dynamic_reshape %arg1, %cast_0 : (tensor<*xui32>, tensor<1xindex>) -> tensor<?xui32>\n+          %29 = tensor.reshape %arg1(%cast_0) : (tensor<*xui32>, tensor<1xindex>) -> tensor<?xui32>\n           %30 = chlo.broadcast_add %27, %29 : (tensor<?xui32>, tensor<?xui32>) -> tensor<?xui32>\n           %cast_1 = tensor.cast %30 : tensor<?xui32> to tensor<*xui32>\n           scf.yield %cast_1 : tensor<*xui32>\n@@ -67,10 +68,10 @@ func.func @AddV2(%arg0: tensor<*xui32>, %arg1: tensor<*xui32>) -> tensor<*xui32>\n           %27 = scf.if %26 -> (tensor<*xui32>) {\n             %28 = shape.broadcast %19#0, %3 : tensor<?xindex>, tensor<2xindex> -> tensor<?xindex>\n             %cast = tensor.cast %28 : tensor<?xindex> to tensor<2xindex>\n-            %29 = mhlo.dynamic_reshape %arg0, %cast : (tensor<*xui32>, tensor<2xindex>) -> tensor<?x?xui32>\n+            %29 = tensor.reshape %arg0(%cast) : (tensor<*xui32>, tensor<2xindex>) -> tensor<?x?xui32>\n             %30 = shape.broadcast %19#1, %3 : tensor<?xindex>, tensor<2xindex> -> tensor<?xindex>\n             %cast_0 = tensor.cast %30 : tensor<?xindex> to tensor<2xindex>\n-            %31 = mhlo.dynamic_reshape %arg1, %cast_0 : (tensor<*xui32>, tensor<2xindex>) -> tensor<?x?xui32>\n+            %31 = tensor.reshape %arg1(%cast_0) : (tensor<*xui32>, tensor<2xindex>) -> tensor<?x?xui32>\n             %32 = chlo.broadcast_add %29, %31 : (tensor<?x?xui32>, tensor<?x?xui32>) -> tensor<?x?xui32>\n             %cast_1 = tensor.cast %32 : tensor<?x?xui32> to tensor<*xui32>\n             scf.yield %cast_1 : tensor<*xui32>\n@@ -79,10 +80,10 @@ func.func @AddV2(%arg0: tensor<*xui32>, %arg1: tensor<*xui32>) -> tensor<*xui32>\n             %29 = scf.if %28 -> (tensor<*xui32>) {\n               %30 = shape.broadcast %19#0, %2 : tensor<?xindex>, tensor<3xindex> -> tensor<?xindex>\n               %cast = tensor.cast %30 : tensor<?xindex> to tensor<3xindex>\n-              %31 = mhlo.dynamic_reshape %arg0, %cast : (tensor<*xui32>, tensor<3xindex>) -> tensor<?x?x?xui32>\n+              %31 = tensor.reshape %arg0(%cast) : (tensor<*xui32>, tensor<3xindex>) -> tensor<?x?x?xui32>\n               %32 = shape.broadcast %19#1, %2 : tensor<?xindex>, tensor<3xindex> -> tensor<?xindex>\n               %cast_0 = tensor.cast %32 : tensor<?xindex> to tensor<3xindex>\n-              %33 = mhlo.dynamic_reshape %arg1, %cast_0 : (tensor<*xui32>, tensor<3xindex>) -> tensor<?x?x?xui32>\n+              %33 = tensor.reshape %arg1(%cast_0) : (tensor<*xui32>, tensor<3xindex>) -> tensor<?x?x?xui32>\n               %34 = chlo.broadcast_add %31, %33 : (tensor<?x?x?xui32>, tensor<?x?x?xui32>) -> tensor<?x?x?xui32>\n               %cast_1 = tensor.cast %34 : tensor<?x?x?xui32> to tensor<*xui32>\n               scf.yield %cast_1 : tensor<*xui32>\n@@ -91,10 +92,10 @@ func.func @AddV2(%arg0: tensor<*xui32>, %arg1: tensor<*xui32>) -> tensor<*xui32>\n               %31 = scf.if %30 -> (tensor<*xui32>) {\n                 %32 = shape.broadcast %19#0, %1 : tensor<?xindex>, tensor<4xindex> -> tensor<?xindex>\n                 %cast = tensor.cast %32 : tensor<?xindex> to tensor<4xindex>\n-                %33 = mhlo.dynamic_reshape %arg0, %cast : (tensor<*xui32>, tensor<4xindex>) -> tensor<?x?x?x?xui32>\n+                %33 = tensor.reshape %arg0(%cast) : (tensor<*xui32>, tensor<4xindex>) -> tensor<?x?x?x?xui32>\n                 %34 = shape.broadcast %19#1, %1 : tensor<?xindex>, tensor<4xindex> -> tensor<?xindex>\n                 %cast_0 = tensor.cast %34 : tensor<?xindex> to tensor<4xindex>\n-                %35 = mhlo.dynamic_reshape %arg1, %cast_0 : (tensor<*xui32>, tensor<4xindex>) -> tensor<?x?x?x?xui32>\n+                %35 = tensor.reshape %arg1(%cast_0) : (tensor<*xui32>, tensor<4xindex>) -> tensor<?x?x?x?xui32>\n                 %36 = chlo.broadcast_add %33, %35 : (tensor<?x?x?x?xui32>, tensor<?x?x?x?xui32>) -> tensor<?x?x?x?xui32>\n                 %cast_1 = tensor.cast %36 : tensor<?x?x?x?xui32> to tensor<*xui32>\n                 scf.yield %cast_1 : tensor<*xui32>\n@@ -103,10 +104,10 @@ func.func @AddV2(%arg0: tensor<*xui32>, %arg1: tensor<*xui32>) -> tensor<*xui32>\n                 cf.assert %32, \"Input for dynamic binary or n-ary op lowering was of a rank greater than 5\"\n                 %33 = shape.broadcast %19#0, %0 : tensor<?xindex>, tensor<5xindex> -> tensor<?xindex>\n                 %cast = tensor.cast %33 : tensor<?xindex> to tensor<5xindex>\n-                %34 = mhlo.dynamic_reshape %arg0, %cast : (tensor<*xui32>, tensor<5xindex>) -> tensor<?x?x?x?x?xui32>\n+                %34 = tensor.reshape %arg0(%cast) : (tensor<*xui32>, tensor<5xindex>) -> tensor<?x?x?x?x?xui32>\n                 %35 = shape.broadcast %19#1, %0 : tensor<?xindex>, tensor<5xindex> -> tensor<?xindex>\n                 %cast_0 = tensor.cast %35 : tensor<?xindex> to tensor<5xindex>\n-                %36 = mhlo.dynamic_reshape %arg1, %cast_0 : (tensor<*xui32>, tensor<5xindex>) -> tensor<?x?x?x?x?xui32>\n+                %36 = tensor.reshape %arg1(%cast_0) : (tensor<*xui32>, tensor<5xindex>) -> tensor<?x?x?x?x?xui32>\n                 %37 = chlo.broadcast_add %34, %36 : (tensor<?x?x?x?x?xui32>, tensor<?x?x?x?x?xui32>) -> tensor<?x?x?x?x?xui32>\n                 %cast_1 = tensor.cast %37 : tensor<?x?x?x?x?xui32> to tensor<*xui32>\n                 scf.yield %cast_1 : tensor<*xui32>\n@@ -126,6 +127,6 @@ func.func @AddV2(%arg0: tensor<*xui32>, %arg1: tensor<*xui32>) -> tensor<*xui32>\n   %10 = shape.shape_of %arg0 : tensor<*xui32> -> tensor<?xindex>\n   %11 = shape.shape_of %arg1 : tensor<*xui32> -> tensor<?xindex>\n   %12 = shape.broadcast %10, %11 : tensor<?xindex>, tensor<?xindex> -> tensor<?xindex>\n-  %13 = mhlo.dynamic_reshape %9, %12 : (tensor<*xui32>, tensor<?xindex>) -> tensor<*xui32>\n+  %13 = tensor.reshape %9(%12) : (tensor<*xui32>, tensor<?xindex>) -> tensor<*xui32>\n   return %13 : tensor<*xui32>\n }"
        },
        {
            "sha": "6dd4e5afc2366c427f70a5ccd3f05ce248dcdf05",
            "filename": "tensorflow/compiler/mlir/tools/kernel_gen/tests/hlo_to_kernel/minimum.mlir",
            "status": "modified",
            "additions": 18,
            "deletions": 17,
            "changes": 35,
            "blob_url": "https://github.com/tensorflow/tensorflow/blob/ce6202dd8482f022a0dcc1e6df95fa9e14b6b65f/tensorflow%2Fcompiler%2Fmlir%2Ftools%2Fkernel_gen%2Ftests%2Fhlo_to_kernel%2Fminimum.mlir",
            "raw_url": "https://github.com/tensorflow/tensorflow/raw/ce6202dd8482f022a0dcc1e6df95fa9e14b6b65f/tensorflow%2Fcompiler%2Fmlir%2Ftools%2Fkernel_gen%2Ftests%2Fhlo_to_kernel%2Fminimum.mlir",
            "contents_url": "https://api.github.com/repos/tensorflow/tensorflow/contents/tensorflow%2Fcompiler%2Fmlir%2Ftools%2Fkernel_gen%2Ftests%2Fhlo_to_kernel%2Fminimum.mlir?ref=ce6202dd8482f022a0dcc1e6df95fa9e14b6b65f",
            "patch": "@@ -15,11 +15,12 @@ func.func @Minimum_GPU_DT_UINT32_DT_UINT32(%arg0: tensor<*xui32>, %arg1: tensor<\n   %6 = shape.shape_of %arg1 : tensor<*xui32> -> tensor<?xindex>\n   %7 = shape.num_elements %5 : tensor<?xindex> -> index\n   %8 = arith.cmpi eq, %7, %c1 : index\n+  %c_empty = arith.constant dense<> : tensor<0xindex>\n   %9 = scf.if %8 -> (tensor<*xui32>) {\n     %14 = shape.num_elements %6 : tensor<?xindex> -> index\n     %from_elements = tensor.from_elements %14 : tensor<1xindex>\n-    %15 = mhlo.reshape %arg0 : (tensor<*xui32>) -> tensor<ui32>\n-    %16 = mhlo.dynamic_reshape %arg1, %from_elements : (tensor<*xui32>, tensor<1xindex>) -> tensor<?xui32>\n+    %15 = tensor.reshape %arg0(%c_empty) : (tensor<*xui32>, tensor<0xindex>) -> tensor<ui32>\n+    %16 = tensor.reshape %arg1(%from_elements) : (tensor<*xui32>, tensor<1xindex>) -> tensor<?xui32>\n     %17 = chlo.broadcast_minimum %15, %16 : (tensor<ui32>, tensor<?xui32>) -> tensor<?xui32>\n     %cast = tensor.cast %17 : tensor<?xui32> to tensor<*xui32>\n     scf.yield %cast : tensor<*xui32>\n@@ -29,8 +30,8 @@ func.func @Minimum_GPU_DT_UINT32_DT_UINT32(%arg0: tensor<*xui32>, %arg1: tensor<\n     %16 = scf.if %15 -> (tensor<*xui32>) {\n       %17 = shape.num_elements %5 : tensor<?xindex> -> index\n       %from_elements = tensor.from_elements %17 : tensor<1xindex>\n-      %18 = mhlo.dynamic_reshape %arg0, %from_elements : (tensor<*xui32>, tensor<1xindex>) -> tensor<?xui32>\n-      %19 = mhlo.reshape %arg1 : (tensor<*xui32>) -> tensor<ui32>\n+      %18 = tensor.reshape %arg0(%from_elements) : (tensor<*xui32>, tensor<1xindex>) -> tensor<?xui32>\n+      %19 = tensor.reshape %arg1(%c_empty) : (tensor<*xui32>, tensor<0xindex>) -> tensor<ui32>\n       %20 = chlo.broadcast_minimum %18, %19 : (tensor<?xui32>, tensor<ui32>) -> tensor<?xui32>\n       %cast = tensor.cast %20 : tensor<?xui32> to tensor<*xui32>\n       scf.yield %cast : tensor<*xui32>\n@@ -40,8 +41,8 @@ func.func @Minimum_GPU_DT_UINT32_DT_UINT32(%arg0: tensor<*xui32>, %arg1: tensor<\n         %19 = shape.any %5, %6 : tensor<?xindex>, tensor<?xindex> -> tensor<?xindex>\n         %20 = shape.num_elements %19 : tensor<?xindex> -> index\n         %from_elements = tensor.from_elements %20 : tensor<1xindex>\n-        %21 = mhlo.dynamic_reshape %arg0, %from_elements : (tensor<*xui32>, tensor<1xindex>) -> tensor<?xui32>\n-        %22 = mhlo.dynamic_reshape %arg1, %from_elements : (tensor<*xui32>, tensor<1xindex>) -> tensor<?xui32>\n+        %21 = tensor.reshape %arg0(%from_elements) : (tensor<*xui32>, tensor<1xindex>) -> tensor<?xui32>\n+        %22 = tensor.reshape %arg1(%from_elements) : (tensor<*xui32>, tensor<1xindex>) -> tensor<?xui32>\n         %23 = chlo.broadcast_minimum %21, %22 : (tensor<?xui32>, tensor<?xui32>) -> tensor<?xui32>\n         %cast = tensor.cast %23 : tensor<?xui32> to tensor<*xui32>\n         scf.yield %cast : tensor<*xui32>\n@@ -55,10 +56,10 @@ func.func @Minimum_GPU_DT_UINT32_DT_UINT32(%arg0: tensor<*xui32>, %arg1: tensor<\n         %25 = scf.if %24 -> (tensor<*xui32>) {\n           %26 = shape.broadcast %19#0, %4 : tensor<?xindex>, tensor<1xindex> -> tensor<?xindex>\n           %cast = tensor.cast %26 : tensor<?xindex> to tensor<1xindex>\n-          %27 = mhlo.dynamic_reshape %arg0, %cast : (tensor<*xui32>, tensor<1xindex>) -> tensor<?xui32>\n+          %27 = tensor.reshape %arg0(%cast) : (tensor<*xui32>, tensor<1xindex>) -> tensor<?xui32>\n           %28 = shape.broadcast %19#1, %4 : tensor<?xindex>, tensor<1xindex> -> tensor<?xindex>\n           %cast_0 = tensor.cast %28 : tensor<?xindex> to tensor<1xindex>\n-          %29 = mhlo.dynamic_reshape %arg1, %cast_0 : (tensor<*xui32>, tensor<1xindex>) -> tensor<?xui32>\n+          %29 = tensor.reshape %arg1(%cast_0) : (tensor<*xui32>, tensor<1xindex>) -> tensor<?xui32>\n           %30 = chlo.broadcast_minimum %27, %29 : (tensor<?xui32>, tensor<?xui32>) -> tensor<?xui32>\n           %cast_1 = tensor.cast %30 : tensor<?xui32> to tensor<*xui32>\n           scf.yield %cast_1 : tensor<*xui32>\n@@ -67,10 +68,10 @@ func.func @Minimum_GPU_DT_UINT32_DT_UINT32(%arg0: tensor<*xui32>, %arg1: tensor<\n           %27 = scf.if %26 -> (tensor<*xui32>) {\n             %28 = shape.broadcast %19#0, %3 : tensor<?xindex>, tensor<2xindex> -> tensor<?xindex>\n             %cast = tensor.cast %28 : tensor<?xindex> to tensor<2xindex>\n-            %29 = mhlo.dynamic_reshape %arg0, %cast : (tensor<*xui32>, tensor<2xindex>) -> tensor<?x?xui32>\n+            %29 = tensor.reshape %arg0(%cast) : (tensor<*xui32>, tensor<2xindex>) -> tensor<?x?xui32>\n             %30 = shape.broadcast %19#1, %3 : tensor<?xindex>, tensor<2xindex> -> tensor<?xindex>\n             %cast_0 = tensor.cast %30 : tensor<?xindex> to tensor<2xindex>\n-            %31 = mhlo.dynamic_reshape %arg1, %cast_0 : (tensor<*xui32>, tensor<2xindex>) -> tensor<?x?xui32>\n+            %31 = tensor.reshape %arg1(%cast_0) : (tensor<*xui32>, tensor<2xindex>) -> tensor<?x?xui32>\n             %32 = chlo.broadcast_minimum %29, %31 : (tensor<?x?xui32>, tensor<?x?xui32>) -> tensor<?x?xui32>\n             %cast_1 = tensor.cast %32 : tensor<?x?xui32> to tensor<*xui32>\n             scf.yield %cast_1 : tensor<*xui32>\n@@ -79,10 +80,10 @@ func.func @Minimum_GPU_DT_UINT32_DT_UINT32(%arg0: tensor<*xui32>, %arg1: tensor<\n             %29 = scf.if %28 -> (tensor<*xui32>) {\n               %30 = shape.broadcast %19#0, %2 : tensor<?xindex>, tensor<3xindex> -> tensor<?xindex>\n               %cast = tensor.cast %30 : tensor<?xindex> to tensor<3xindex>\n-              %31 = mhlo.dynamic_reshape %arg0, %cast : (tensor<*xui32>, tensor<3xindex>) -> tensor<?x?x?xui32>\n+              %31 = tensor.reshape %arg0(%cast) : (tensor<*xui32>, tensor<3xindex>) -> tensor<?x?x?xui32>\n               %32 = shape.broadcast %19#1, %2 : tensor<?xindex>, tensor<3xindex> -> tensor<?xindex>\n               %cast_0 = tensor.cast %32 : tensor<?xindex> to tensor<3xindex>\n-              %33 = mhlo.dynamic_reshape %arg1, %cast_0 : (tensor<*xui32>, tensor<3xindex>) -> tensor<?x?x?xui32>\n+              %33 = tensor.reshape %arg1(%cast_0) : (tensor<*xui32>, tensor<3xindex>) -> tensor<?x?x?xui32>\n               %34 = chlo.broadcast_minimum %31, %33 : (tensor<?x?x?xui32>, tensor<?x?x?xui32>) -> tensor<?x?x?xui32>\n               %cast_1 = tensor.cast %34 : tensor<?x?x?xui32> to tensor<*xui32>\n               scf.yield %cast_1 : tensor<*xui32>\n@@ -91,10 +92,10 @@ func.func @Minimum_GPU_DT_UINT32_DT_UINT32(%arg0: tensor<*xui32>, %arg1: tensor<\n               %31 = scf.if %30 -> (tensor<*xui32>) {\n                 %32 = shape.broadcast %19#0, %1 : tensor<?xindex>, tensor<4xindex> -> tensor<?xindex>\n                 %cast = tensor.cast %32 : tensor<?xindex> to tensor<4xindex>\n-                %33 = mhlo.dynamic_reshape %arg0, %cast : (tensor<*xui32>, tensor<4xindex>) -> tensor<?x?x?x?xui32>\n+                %33 = tensor.reshape %arg0(%cast) : (tensor<*xui32>, tensor<4xindex>) -> tensor<?x?x?x?xui32>\n                 %34 = shape.broadcast %19#1, %1 : tensor<?xindex>, tensor<4xindex> -> tensor<?xindex>\n                 %cast_0 = tensor.cast %34 : tensor<?xindex> to tensor<4xindex>\n-                %35 = mhlo.dynamic_reshape %arg1, %cast_0 : (tensor<*xui32>, tensor<4xindex>) -> tensor<?x?x?x?xui32>\n+                %35 = tensor.reshape %arg1(%cast_0) : (tensor<*xui32>, tensor<4xindex>) -> tensor<?x?x?x?xui32>\n                 %36 = chlo.broadcast_minimum %33, %35 : (tensor<?x?x?x?xui32>, tensor<?x?x?x?xui32>) -> tensor<?x?x?x?xui32>\n                 %cast_1 = tensor.cast %36 : tensor<?x?x?x?xui32> to tensor<*xui32>\n                 scf.yield %cast_1 : tensor<*xui32>\n@@ -103,10 +104,10 @@ func.func @Minimum_GPU_DT_UINT32_DT_UINT32(%arg0: tensor<*xui32>, %arg1: tensor<\n                 cf.assert %32, \"Input for dynamic binary or n-ary op lowering was of a rank greater than 5\"\n                 %33 = shape.broadcast %19#0, %0 : tensor<?xindex>, tensor<5xindex> -> tensor<?xindex>\n                 %cast = tensor.cast %33 : tensor<?xindex> to tensor<5xindex>\n-                %34 = mhlo.dynamic_reshape %arg0, %cast : (tensor<*xui32>, tensor<5xindex>) -> tensor<?x?x?x?x?xui32>\n+                %34 = tensor.reshape %arg0(%cast) : (tensor<*xui32>, tensor<5xindex>) -> tensor<?x?x?x?x?xui32>\n                 %35 = shape.broadcast %19#1, %0 : tensor<?xindex>, tensor<5xindex> -> tensor<?xindex>\n                 %cast_0 = tensor.cast %35 : tensor<?xindex> to tensor<5xindex>\n-                %36 = mhlo.dynamic_reshape %arg1, %cast_0 : (tensor<*xui32>, tensor<5xindex>) -> tensor<?x?x?x?x?xui32>\n+                %36 = tensor.reshape %arg1(%cast_0) : (tensor<*xui32>, tensor<5xindex>) -> tensor<?x?x?x?x?xui32>\n                 %37 = chlo.broadcast_minimum %34, %36 : (tensor<?x?x?x?x?xui32>, tensor<?x?x?x?x?xui32>) -> tensor<?x?x?x?x?xui32>\n                 %cast_1 = tensor.cast %37 : tensor<?x?x?x?x?xui32> to tensor<*xui32>\n                 scf.yield %cast_1 : tensor<*xui32>\n@@ -126,6 +127,6 @@ func.func @Minimum_GPU_DT_UINT32_DT_UINT32(%arg0: tensor<*xui32>, %arg1: tensor<\n   %10 = shape.shape_of %arg0 : tensor<*xui32> -> tensor<?xindex>\n   %11 = shape.shape_of %arg1 : tensor<*xui32> -> tensor<?xindex>\n   %12 = shape.broadcast %10, %11 : tensor<?xindex>, tensor<?xindex> -> tensor<?xindex>\n-  %13 = mhlo.dynamic_reshape %9, %12 : (tensor<*xui32>, tensor<?xindex>) -> tensor<*xui32>\n+  %13 = tensor.reshape %9(%12) : (tensor<*xui32>, tensor<?xindex>) -> tensor<*xui32>\n   return %13 : tensor<*xui32>\n }"
        },
        {
            "sha": "09f0573823e591edc6b2ad97ad18c96293ae588b",
            "filename": "tensorflow/compiler/mlir/tools/kernel_gen/tests/hlo_to_kernel/tanh.mlir",
            "status": "modified",
            "additions": 2,
            "deletions": 2,
            "changes": 4,
            "blob_url": "https://github.com/tensorflow/tensorflow/blob/ce6202dd8482f022a0dcc1e6df95fa9e14b6b65f/tensorflow%2Fcompiler%2Fmlir%2Ftools%2Fkernel_gen%2Ftests%2Fhlo_to_kernel%2Ftanh.mlir",
            "raw_url": "https://github.com/tensorflow/tensorflow/raw/ce6202dd8482f022a0dcc1e6df95fa9e14b6b65f/tensorflow%2Fcompiler%2Fmlir%2Ftools%2Fkernel_gen%2Ftests%2Fhlo_to_kernel%2Ftanh.mlir",
            "contents_url": "https://api.github.com/repos/tensorflow/tensorflow/contents/tensorflow%2Fcompiler%2Fmlir%2Ftools%2Fkernel_gen%2Ftests%2Fhlo_to_kernel%2Ftanh.mlir?ref=ce6202dd8482f022a0dcc1e6df95fa9e14b6b65f",
            "patch": "@@ -4,8 +4,8 @@ func.func @tanh(%arg0: tensor<*xf32>) -> tensor<*xf32> attributes {tf_entry} {\n   %0 = shape.shape_of %arg0 : tensor<*xf32> -> tensor<?xindex>\n   %1 = shape.num_elements %0 : tensor<?xindex> -> index\n   %from_elements = tensor.from_elements %1 : tensor<1xindex>\n-  %2 = mhlo.dynamic_reshape %arg0, %from_elements : (tensor<*xf32>, tensor<1xindex>) -> tensor<?xf32>\n+  %2 = tensor.reshape %arg0(%from_elements) : (tensor<*xf32>, tensor<1xindex>) -> tensor<?xf32>\n   %3 = mhlo.tanh %2 : tensor<?xf32>\n-  %4 = mhlo.dynamic_reshape %3, %0 : (tensor<?xf32>, tensor<?xindex>) -> tensor<*xf32>\n+  %4 = tensor.reshape %3(%0) : (tensor<?xf32>, tensor<?xindex>) -> tensor<*xf32>\n   return %4 : tensor<*xf32>\n }"
        },
        {
            "sha": "f50df07657c11cb452bdb3bb73dc0a8d30801c6b",
            "filename": "tensorflow/compiler/mlir/tools/kernel_gen/transforms/BUILD",
            "status": "modified",
            "additions": 1,
            "deletions": 0,
            "changes": 1,
            "blob_url": "https://github.com/tensorflow/tensorflow/blob/ce6202dd8482f022a0dcc1e6df95fa9e14b6b65f/tensorflow%2Fcompiler%2Fmlir%2Ftools%2Fkernel_gen%2Ftransforms%2FBUILD",
            "raw_url": "https://github.com/tensorflow/tensorflow/raw/ce6202dd8482f022a0dcc1e6df95fa9e14b6b65f/tensorflow%2Fcompiler%2Fmlir%2Ftools%2Fkernel_gen%2Ftransforms%2FBUILD",
            "contents_url": "https://api.github.com/repos/tensorflow/tensorflow/contents/tensorflow%2Fcompiler%2Fmlir%2Ftools%2Fkernel_gen%2Ftransforms%2FBUILD?ref=ce6202dd8482f022a0dcc1e6df95fa9e14b6b65f",
            "patch": "@@ -186,6 +186,7 @@ cc_library(\n         \"embed_tf_framework_pass.cc\",\n         \"func_to_jit_invocations.cc\",\n         \"fuse_inner_parallel_loops_pass.cc\",\n+        \"legalize_tensor_reshape_pass.cc\",\n         \"merge_assuming_ops_pass.cc\",\n         \"parallel_loops_to_sequential.cc\",\n         \"rewrite_tf_framework_assert.cc\","
        },
        {
            "sha": "7e19f967230e9dce315859c7b4796987422ad52a",
            "filename": "tensorflow/compiler/mlir/tools/kernel_gen/transforms/legalize_tensor_reshape_pass.cc",
            "status": "added",
            "additions": 73,
            "deletions": 0,
            "changes": 73,
            "blob_url": "https://github.com/tensorflow/tensorflow/blob/ce6202dd8482f022a0dcc1e6df95fa9e14b6b65f/tensorflow%2Fcompiler%2Fmlir%2Ftools%2Fkernel_gen%2Ftransforms%2Flegalize_tensor_reshape_pass.cc",
            "raw_url": "https://github.com/tensorflow/tensorflow/raw/ce6202dd8482f022a0dcc1e6df95fa9e14b6b65f/tensorflow%2Fcompiler%2Fmlir%2Ftools%2Fkernel_gen%2Ftransforms%2Flegalize_tensor_reshape_pass.cc",
            "contents_url": "https://api.github.com/repos/tensorflow/tensorflow/contents/tensorflow%2Fcompiler%2Fmlir%2Ftools%2Fkernel_gen%2Ftransforms%2Flegalize_tensor_reshape_pass.cc?ref=ce6202dd8482f022a0dcc1e6df95fa9e14b6b65f",
            "patch": "@@ -0,0 +1,73 @@\n+/* Copyright 2025 The OpenXLA Authors.\n+\n+Licensed under the Apache License, Version 2.0 (the \"License\");\n+you may not use this file except in compliance with the License.\n+You may obtain a copy of the License at\n+\n+    http://www.apache.org/licenses/LICENSE-2.0\n+\n+Unless required by applicable law or agreed to in writing, software\n+distributed under the License is distributed on an \"AS IS\" BASIS,\n+WITHOUT WARRANTIES OR CONDITIONS OF ANY KIND, either express or implied.\n+See the License for the specific language governing permissions and\n+limitations under the License.\n+\n+==============================================================================*/\n+\n+#include <cassert>\n+#include <utility>\n+\n+#include \"mlir/Dialect/Func/IR/FuncOps.h\"  // from @llvm-project\n+#include \"mlir/Dialect/Tensor/IR/Tensor.h\"  // from @llvm-project\n+#include \"mlir/IR/MLIRContext.h\"  // from @llvm-project\n+#include \"mlir/IR/OperationSupport.h\"  // from @llvm-project\n+#include \"mlir/IR/PatternMatch.h\"  // from @llvm-project\n+#include \"mlir/Pass/Pass.h\"  // from @llvm-project  // IWYU pragma: keep\n+#include \"mlir/Support/LLVM.h\"  // from @llvm-project\n+#include \"mlir/Transforms/GreedyPatternRewriteDriver.h\"  // from @llvm-project\n+#include \"xla/mlir_hlo/mhlo/IR/hlo_ops.h\"\n+\n+namespace mlir {\n+namespace kernel_gen {\n+\n+#define GEN_PASS_DEF_LEGALIZETENSORRESHAPEPASS\n+#include \"tensorflow/compiler/mlir/tools/kernel_gen/transforms/kernel_gen_passes.h.inc\"\n+\n+namespace {\n+\n+struct LegalizeTensorReshapePattern\n+    : public OpRewritePattern<tensor::ReshapeOp> {\n+  explicit LegalizeTensorReshapePattern(MLIRContext* context)\n+      : OpRewritePattern<tensor::ReshapeOp>(context) {}\n+\n+  LogicalResult matchAndRewrite(tensor::ReshapeOp op,\n+                                PatternRewriter& rewriter) const override {\n+    rewriter.replaceOpWithNewOp<mhlo::DynamicReshapeOp>(op, op.getResultType(),\n+                                                        op.getOperands());\n+    return success();\n+  }\n+};\n+\n+}  // namespace\n+\n+struct LegalizeTensorReshapePass\n+    : public impl::LegalizeTensorReshapePassBase<LegalizeTensorReshapePass> {\n+  void getDependentDialects(DialectRegistry& registry) const override {\n+    registry.insert<mhlo::MhloDialect>();\n+  }\n+\n+  void runOnOperation() override {\n+    MLIRContext* ctx = &getContext();\n+    RewritePatternSet patterns(ctx);\n+    patterns.add<LegalizeTensorReshapePattern>(ctx);\n+    GreedyRewriteConfig config;\n+    config.setMaxIterations(GreedyRewriteConfig::kNoLimit);\n+    if (failed(applyPatternsGreedily(getOperation(), std::move(patterns),\n+                                     config))) {\n+      return signalPassFailure();\n+    }\n+  }\n+};\n+\n+}  // namespace kernel_gen\n+}  // namespace mlir"
        },
        {
            "sha": "3855c4b27c8c93c6958480b9f310df6efff0461c",
            "filename": "tensorflow/compiler/mlir/tools/kernel_gen/transforms/passes.h",
            "status": "modified",
            "additions": 1,
            "deletions": 0,
            "changes": 1,
            "blob_url": "https://github.com/tensorflow/tensorflow/blob/ce6202dd8482f022a0dcc1e6df95fa9e14b6b65f/tensorflow%2Fcompiler%2Fmlir%2Ftools%2Fkernel_gen%2Ftransforms%2Fpasses.h",
            "raw_url": "https://github.com/tensorflow/tensorflow/raw/ce6202dd8482f022a0dcc1e6df95fa9e14b6b65f/tensorflow%2Fcompiler%2Fmlir%2Ftools%2Fkernel_gen%2Ftransforms%2Fpasses.h",
            "contents_url": "https://api.github.com/repos/tensorflow/tensorflow/contents/tensorflow%2Fcompiler%2Fmlir%2Ftools%2Fkernel_gen%2Ftransforms%2Fpasses.h?ref=ce6202dd8482f022a0dcc1e6df95fa9e14b6b65f",
            "patch": "@@ -41,6 +41,7 @@ limitations under the License.\n #define GEN_PASS_DECL_SHAPESIMPLIFICATIONPASS\n #define GEN_PASS_DECL_MERGEASSUMINGOPSPASS\n #define GEN_PASS_DECL_BROADCASTPROPAGATIONPASS\n+#define GEN_PASS_DECL_LEGALIZETENSORRESHAPEPASS\n \n namespace mlir {\n namespace kernel_gen {"
        },
        {
            "sha": "473fe7d21f55b561be9c208af1d7a86e08f5b907",
            "filename": "tensorflow/compiler/mlir/tools/kernel_gen/transforms/passes.td",
            "status": "modified",
            "additions": 6,
            "deletions": 0,
            "changes": 6,
            "blob_url": "https://github.com/tensorflow/tensorflow/blob/ce6202dd8482f022a0dcc1e6df95fa9e14b6b65f/tensorflow%2Fcompiler%2Fmlir%2Ftools%2Fkernel_gen%2Ftransforms%2Fpasses.td",
            "raw_url": "https://github.com/tensorflow/tensorflow/raw/ce6202dd8482f022a0dcc1e6df95fa9e14b6b65f/tensorflow%2Fcompiler%2Fmlir%2Ftools%2Fkernel_gen%2Ftransforms%2Fpasses.td",
            "contents_url": "https://api.github.com/repos/tensorflow/tensorflow/contents/tensorflow%2Fcompiler%2Fmlir%2Ftools%2Fkernel_gen%2Ftransforms%2Fpasses.td?ref=ce6202dd8482f022a0dcc1e6df95fa9e14b6b65f",
            "patch": "@@ -154,5 +154,11 @@ def BroadcastPropagationPass : Pass<\"mhlo-broadcast-propagation\", \"func::FuncOp\"\n     \"for larger fusions.\";\n }\n \n+def LegalizeTensorReshapePass\n+    : Pass<\"legalize-tensor-reshape\", \"mlir::func::FuncOp\"> {\n+  let summary = \"Legalize tensor.reshape to mhlo.dynamic_reshape\";\n+}\n+\n+\n \n #endif // TF_KERNEL_GEN_PASSES"
        },
        {
            "sha": "97367a601feaeadd1124c69008d5301a29944eef",
            "filename": "tensorflow/core/kernels/mlir_generated/op_definitions/abs.mlir.tmpl",
            "status": "modified",
            "additions": 2,
            "deletions": 2,
            "changes": 4,
            "blob_url": "https://github.com/tensorflow/tensorflow/blob/ce6202dd8482f022a0dcc1e6df95fa9e14b6b65f/tensorflow%2Fcore%2Fkernels%2Fmlir_generated%2Fop_definitions%2Fabs.mlir.tmpl",
            "raw_url": "https://github.com/tensorflow/tensorflow/raw/ce6202dd8482f022a0dcc1e6df95fa9e14b6b65f/tensorflow%2Fcore%2Fkernels%2Fmlir_generated%2Fop_definitions%2Fabs.mlir.tmpl",
            "contents_url": "https://api.github.com/repos/tensorflow/tensorflow/contents/tensorflow%2Fcore%2Fkernels%2Fmlir_generated%2Fop_definitions%2Fabs.mlir.tmpl?ref=ce6202dd8482f022a0dcc1e6df95fa9e14b6b65f",
            "patch": "@@ -2,8 +2,8 @@ func.func @Abs_platform_elem_type_output_type(%arg0: tensor<*xelem_type>) -> ten\n   %0 = shape.shape_of %arg0 : tensor<*xelem_type> -> tensor<?xindex>\n   %1 = shape.num_elements %0 : tensor<?xindex> -> index\n   %from_elements = tensor.from_elements %1 : tensor<1xindex>\n-  %2 = mhlo.dynamic_reshape %arg0, %from_elements : (tensor<*xelem_type>, tensor<1xindex>) -> tensor<?xelem_type>\n+  %2 = tensor.reshape %arg0(%from_elements) : (tensor<*xelem_type>, tensor<1xindex>) -> tensor<?xelem_type>\n   %3 = mhlo.abs %2 : tensor<?xelem_type>\n-  %4 = mhlo.dynamic_reshape %3, %0 : (tensor<?xelem_type>, tensor<?xindex>) -> tensor<*xelem_type>\n+  %4 = tensor.reshape %3(%0) : (tensor<?xelem_type>, tensor<?xindex>) -> tensor<*xelem_type>\n   return %4 : tensor<*xelem_type>\n }"
        },
        {
            "sha": "fb27cac61bf0929a4475ca7fdc6be66f91ba8619",
            "filename": "tensorflow/core/kernels/mlir_generated/op_definitions/acos.mlir.tmpl",
            "status": "modified",
            "additions": 2,
            "deletions": 2,
            "changes": 4,
            "blob_url": "https://github.com/tensorflow/tensorflow/blob/ce6202dd8482f022a0dcc1e6df95fa9e14b6b65f/tensorflow%2Fcore%2Fkernels%2Fmlir_generated%2Fop_definitions%2Facos.mlir.tmpl",
            "raw_url": "https://github.com/tensorflow/tensorflow/raw/ce6202dd8482f022a0dcc1e6df95fa9e14b6b65f/tensorflow%2Fcore%2Fkernels%2Fmlir_generated%2Fop_definitions%2Facos.mlir.tmpl",
            "contents_url": "https://api.github.com/repos/tensorflow/tensorflow/contents/tensorflow%2Fcore%2Fkernels%2Fmlir_generated%2Fop_definitions%2Facos.mlir.tmpl?ref=ce6202dd8482f022a0dcc1e6df95fa9e14b6b65f",
            "patch": "@@ -2,8 +2,8 @@ func.func @Acos_platform_elem_type_output_type(%arg0: tensor<*xelem_type>) -> te\n   %0 = shape.shape_of %arg0 : tensor<*xelem_type> -> tensor<?xindex>\n   %1 = shape.num_elements %0 : tensor<?xindex> -> index\n   %from_elements = tensor.from_elements %1 : tensor<1xindex>\n-  %2 = mhlo.dynamic_reshape %arg0, %from_elements : (tensor<*xelem_type>, tensor<1xindex>) -> tensor<?xelem_type>\n+  %2 = tensor.reshape %arg0(%from_elements) : (tensor<*xelem_type>, tensor<1xindex>) -> tensor<?xelem_type>\n   %3 = chlo.acos %2 : tensor<?xelem_type> -> tensor<?xoutput_type>\n-  %4 = mhlo.dynamic_reshape %3, %0 : (tensor<?xoutput_type>, tensor<?xindex>) -> tensor<*xoutput_type>\n+  %4 = tensor.reshape %3(%0) : (tensor<?xoutput_type>, tensor<?xindex>) -> tensor<*xoutput_type>\n   return %4 : tensor<*xoutput_type>\n }"
        },
        {
            "sha": "196fd20a8f41827b5cd565def0ff39b462fc0cba",
            "filename": "tensorflow/core/kernels/mlir_generated/op_definitions/acosh.mlir.tmpl",
            "status": "modified",
            "additions": 2,
            "deletions": 2,
            "changes": 4,
            "blob_url": "https://github.com/tensorflow/tensorflow/blob/ce6202dd8482f022a0dcc1e6df95fa9e14b6b65f/tensorflow%2Fcore%2Fkernels%2Fmlir_generated%2Fop_definitions%2Facosh.mlir.tmpl",
            "raw_url": "https://github.com/tensorflow/tensorflow/raw/ce6202dd8482f022a0dcc1e6df95fa9e14b6b65f/tensorflow%2Fcore%2Fkernels%2Fmlir_generated%2Fop_definitions%2Facosh.mlir.tmpl",
            "contents_url": "https://api.github.com/repos/tensorflow/tensorflow/contents/tensorflow%2Fcore%2Fkernels%2Fmlir_generated%2Fop_definitions%2Facosh.mlir.tmpl?ref=ce6202dd8482f022a0dcc1e6df95fa9e14b6b65f",
            "patch": "@@ -2,8 +2,8 @@ func.func @Acosh_platform_elem_type_output_type(%arg0: tensor<*xelem_type>) -> t\n   %0 = shape.shape_of %arg0 : tensor<*xelem_type> -> tensor<?xindex>\n   %1 = shape.num_elements %0 : tensor<?xindex> -> index\n   %from_elements = tensor.from_elements %1 : tensor<1xindex>\n-  %2 = mhlo.dynamic_reshape %arg0, %from_elements : (tensor<*xelem_type>, tensor<1xindex>) -> tensor<?xelem_type>\n+  %2 = tensor.reshape %arg0(%from_elements) : (tensor<*xelem_type>, tensor<1xindex>) -> tensor<?xelem_type>\n   %3 = chlo.acosh %2 : tensor<?xelem_type> -> tensor<?xoutput_type>\n-  %4 = mhlo.dynamic_reshape %3, %0 : (tensor<?xoutput_type>, tensor<?xindex>) -> tensor<*xoutput_type>\n+  %4 = tensor.reshape %3(%0) : (tensor<?xoutput_type>, tensor<?xindex>) -> tensor<*xoutput_type>\n   return %4 : tensor<*xoutput_type>\n }"
        },
        {
            "sha": "233dd7e60c775e5940739460dd8343b1b6679b54",
            "filename": "tensorflow/core/kernels/mlir_generated/op_definitions/add_v2.mlir.tmpl",
            "status": "modified",
            "additions": 18,
            "deletions": 17,
            "changes": 35,
            "blob_url": "https://github.com/tensorflow/tensorflow/blob/ce6202dd8482f022a0dcc1e6df95fa9e14b6b65f/tensorflow%2Fcore%2Fkernels%2Fmlir_generated%2Fop_definitions%2Fadd_v2.mlir.tmpl",
            "raw_url": "https://github.com/tensorflow/tensorflow/raw/ce6202dd8482f022a0dcc1e6df95fa9e14b6b65f/tensorflow%2Fcore%2Fkernels%2Fmlir_generated%2Fop_definitions%2Fadd_v2.mlir.tmpl",
            "contents_url": "https://api.github.com/repos/tensorflow/tensorflow/contents/tensorflow%2Fcore%2Fkernels%2Fmlir_generated%2Fop_definitions%2Fadd_v2.mlir.tmpl?ref=ce6202dd8482f022a0dcc1e6df95fa9e14b6b65f",
            "patch": "@@ -13,11 +13,12 @@ func.func @AddV2_platform_elem_type_output_type(%arg0: tensor<*xelem_type>, %arg\n   %6 = shape.shape_of %arg1 : tensor<*xelem_type> -> tensor<?xindex>\n   %7 = shape.num_elements %5 : tensor<?xindex> -> index\n   %8 = arith.cmpi eq, %7, %c1 : index\n+  %c_empty = arith.constant dense<> : tensor<0xindex>\n   %9 = scf.if %8 -> (tensor<*xoutput_type>) {\n     %14 = shape.num_elements %6 : tensor<?xindex> -> index\n     %from_elements = tensor.from_elements %14 : tensor<1xindex>\n-    %15 = mhlo.reshape %arg0 : (tensor<*xelem_type>) -> tensor<elem_type>\n-    %16 = mhlo.dynamic_reshape %arg1, %from_elements : (tensor<*xelem_type>, tensor<1xindex>) -> tensor<?xelem_type>\n+    %15 = tensor.reshape %arg0(%c_empty) : (tensor<*xelem_type>, tensor<0xindex>) -> tensor<elem_type>\n+    %16 = tensor.reshape %arg1(%from_elements) : (tensor<*xelem_type>, tensor<1xindex>) -> tensor<?xelem_type>\n     %17 = chlo.broadcast_add %15, %16 : (tensor<elem_type>, tensor<?xelem_type>) -> tensor<?xoutput_type>\n     %cast = tensor.cast %17 : tensor<?xoutput_type> to tensor<*xoutput_type>\n     scf.yield %cast : tensor<*xoutput_type>\n@@ -27,8 +28,8 @@ func.func @AddV2_platform_elem_type_output_type(%arg0: tensor<*xelem_type>, %arg\n     %16 = scf.if %15 -> (tensor<*xoutput_type>) {\n       %17 = shape.num_elements %5 : tensor<?xindex> -> index\n       %from_elements = tensor.from_elements %17 : tensor<1xindex>\n-      %18 = mhlo.dynamic_reshape %arg0, %from_elements : (tensor<*xelem_type>, tensor<1xindex>) -> tensor<?xelem_type>\n-      %19 = mhlo.reshape %arg1 : (tensor<*xelem_type>) -> tensor<elem_type>\n+      %18 = tensor.reshape %arg0(%from_elements) : (tensor<*xelem_type>, tensor<1xindex>) -> tensor<?xelem_type>\n+      %19 = tensor.reshape %arg1(%c_empty) : (tensor<*xelem_type>, tensor<0xindex>) -> tensor<elem_type>\n       %20 = chlo.broadcast_add %18, %19 : (tensor<?xelem_type>, tensor<elem_type>) -> tensor<?xoutput_type>\n       %cast = tensor.cast %20 : tensor<?xoutput_type> to tensor<*xoutput_type>\n       scf.yield %cast : tensor<*xoutput_type>\n@@ -38,8 +39,8 @@ func.func @AddV2_platform_elem_type_output_type(%arg0: tensor<*xelem_type>, %arg\n         %19 = shape.any %5, %6 : tensor<?xindex>, tensor<?xindex> -> tensor<?xindex>\n         %20 = shape.num_elements %19 : tensor<?xindex> -> index\n         %from_elements = tensor.from_elements %20 : tensor<1xindex>\n-        %21 = mhlo.dynamic_reshape %arg0, %from_elements : (tensor<*xelem_type>, tensor<1xindex>) -> tensor<?xelem_type>\n-        %22 = mhlo.dynamic_reshape %arg1, %from_elements : (tensor<*xelem_type>, tensor<1xindex>) -> tensor<?xelem_type>\n+        %21 = tensor.reshape %arg0(%from_elements) : (tensor<*xelem_type>, tensor<1xindex>) -> tensor<?xelem_type>\n+        %22 = tensor.reshape %arg1(%from_elements) : (tensor<*xelem_type>, tensor<1xindex>) -> tensor<?xelem_type>\n         %23 = chlo.broadcast_add %21, %22 : (tensor<?xelem_type>, tensor<?xelem_type>) -> tensor<?xoutput_type>\n         %cast = tensor.cast %23 : tensor<?xoutput_type> to tensor<*xoutput_type>\n         scf.yield %cast : tensor<*xoutput_type>\n@@ -53,10 +54,10 @@ func.func @AddV2_platform_elem_type_output_type(%arg0: tensor<*xelem_type>, %arg\n         %25 = scf.if %24 -> (tensor<*xoutput_type>) {\n           %26 = shape.broadcast %19#0, %4 : tensor<?xindex>, tensor<1xindex> -> tensor<?xindex>\n           %cast = tensor.cast %26 : tensor<?xindex> to tensor<1xindex>\n-          %27 = mhlo.dynamic_reshape %arg0, %cast : (tensor<*xelem_type>, tensor<1xindex>) -> tensor<?xelem_type>\n+          %27 = tensor.reshape %arg0(%cast) : (tensor<*xelem_type>, tensor<1xindex>) -> tensor<?xelem_type>\n           %28 = shape.broadcast %19#1, %4 : tensor<?xindex>, tensor<1xindex> -> tensor<?xindex>\n           %cast_0 = tensor.cast %28 : tensor<?xindex> to tensor<1xindex>\n-          %29 = mhlo.dynamic_reshape %arg1, %cast_0 : (tensor<*xelem_type>, tensor<1xindex>) -> tensor<?xelem_type>\n+          %29 = tensor.reshape %arg1(%cast_0) : (tensor<*xelem_type>, tensor<1xindex>) -> tensor<?xelem_type>\n           %30 = chlo.broadcast_add %27, %29 : (tensor<?xelem_type>, tensor<?xelem_type>) -> tensor<?xoutput_type>\n           %cast_1 = tensor.cast %30 : tensor<?xoutput_type> to tensor<*xoutput_type>\n           scf.yield %cast_1 : tensor<*xoutput_type>\n@@ -65,10 +66,10 @@ func.func @AddV2_platform_elem_type_output_type(%arg0: tensor<*xelem_type>, %arg\n           %27 = scf.if %26 -> (tensor<*xoutput_type>) {\n             %28 = shape.broadcast %19#0, %3 : tensor<?xindex>, tensor<2xindex> -> tensor<?xindex>\n             %cast = tensor.cast %28 : tensor<?xindex> to tensor<2xindex>\n-            %29 = mhlo.dynamic_reshape %arg0, %cast : (tensor<*xelem_type>, tensor<2xindex>) -> tensor<?x?xelem_type>\n+            %29 = tensor.reshape %arg0(%cast) : (tensor<*xelem_type>, tensor<2xindex>) -> tensor<?x?xelem_type>\n             %30 = shape.broadcast %19#1, %3 : tensor<?xindex>, tensor<2xindex> -> tensor<?xindex>\n             %cast_0 = tensor.cast %30 : tensor<?xindex> to tensor<2xindex>\n-            %31 = mhlo.dynamic_reshape %arg1, %cast_0 : (tensor<*xelem_type>, tensor<2xindex>) -> tensor<?x?xelem_type>\n+            %31 = tensor.reshape %arg1(%cast_0) : (tensor<*xelem_type>, tensor<2xindex>) -> tensor<?x?xelem_type>\n             %32 = chlo.broadcast_add %29, %31 : (tensor<?x?xelem_type>, tensor<?x?xelem_type>) -> tensor<?x?xoutput_type>\n             %cast_1 = tensor.cast %32 : tensor<?x?xoutput_type> to tensor<*xoutput_type>\n             scf.yield %cast_1 : tensor<*xoutput_type>\n@@ -77,10 +78,10 @@ func.func @AddV2_platform_elem_type_output_type(%arg0: tensor<*xelem_type>, %arg\n             %29 = scf.if %28 -> (tensor<*xoutput_type>) {\n               %30 = shape.broadcast %19#0, %2 : tensor<?xindex>, tensor<3xindex> -> tensor<?xindex>\n               %cast = tensor.cast %30 : tensor<?xindex> to tensor<3xindex>\n-              %31 = mhlo.dynamic_reshape %arg0, %cast : (tensor<*xelem_type>, tensor<3xindex>) -> tensor<?x?x?xelem_type>\n+              %31 = tensor.reshape %arg0(%cast) : (tensor<*xelem_type>, tensor<3xindex>) -> tensor<?x?x?xelem_type>\n               %32 = shape.broadcast %19#1, %2 : tensor<?xindex>, tensor<3xindex> -> tensor<?xindex>\n               %cast_0 = tensor.cast %32 : tensor<?xindex> to tensor<3xindex>\n-              %33 = mhlo.dynamic_reshape %arg1, %cast_0 : (tensor<*xelem_type>, tensor<3xindex>) -> tensor<?x?x?xelem_type>\n+              %33 = tensor.reshape %arg1(%cast_0) : (tensor<*xelem_type>, tensor<3xindex>) -> tensor<?x?x?xelem_type>\n               %34 = chlo.broadcast_add %31, %33 : (tensor<?x?x?xelem_type>, tensor<?x?x?xelem_type>) -> tensor<?x?x?xoutput_type>\n               %cast_1 = tensor.cast %34 : tensor<?x?x?xoutput_type> to tensor<*xoutput_type>\n               scf.yield %cast_1 : tensor<*xoutput_type>\n@@ -89,10 +90,10 @@ func.func @AddV2_platform_elem_type_output_type(%arg0: tensor<*xelem_type>, %arg\n               %31 = scf.if %30 -> (tensor<*xoutput_type>) {\n                 %32 = shape.broadcast %19#0, %1 : tensor<?xindex>, tensor<4xindex> -> tensor<?xindex>\n                 %cast = tensor.cast %32 : tensor<?xindex> to tensor<4xindex>\n-                %33 = mhlo.dynamic_reshape %arg0, %cast : (tensor<*xelem_type>, tensor<4xindex>) -> tensor<?x?x?x?xelem_type>\n+                %33 = tensor.reshape %arg0(%cast) : (tensor<*xelem_type>, tensor<4xindex>) -> tensor<?x?x?x?xelem_type>\n                 %34 = shape.broadcast %19#1, %1 : tensor<?xindex>, tensor<4xindex> -> tensor<?xindex>\n                 %cast_0 = tensor.cast %34 : tensor<?xindex> to tensor<4xindex>\n-                %35 = mhlo.dynamic_reshape %arg1, %cast_0 : (tensor<*xelem_type>, tensor<4xindex>) -> tensor<?x?x?x?xelem_type>\n+                %35 = tensor.reshape %arg1(%cast_0) : (tensor<*xelem_type>, tensor<4xindex>) -> tensor<?x?x?x?xelem_type>\n                 %36 = chlo.broadcast_add %33, %35 : (tensor<?x?x?x?xelem_type>, tensor<?x?x?x?xelem_type>) -> tensor<?x?x?x?xoutput_type>\n                 %cast_1 = tensor.cast %36 : tensor<?x?x?x?xoutput_type> to tensor<*xoutput_type>\n                 scf.yield %cast_1 : tensor<*xoutput_type>\n@@ -101,10 +102,10 @@ func.func @AddV2_platform_elem_type_output_type(%arg0: tensor<*xelem_type>, %arg\n                 cf.assert %32, \"Input for dynamic binary or n-ary op lowering was of a rank greater than 5\"\n                 %33 = shape.broadcast %19#0, %0 : tensor<?xindex>, tensor<5xindex> -> tensor<?xindex>\n                 %cast = tensor.cast %33 : tensor<?xindex> to tensor<5xindex>\n-                %34 = mhlo.dynamic_reshape %arg0, %cast : (tensor<*xelem_type>, tensor<5xindex>) -> tensor<?x?x?x?x?xelem_type>\n+                %34 = tensor.reshape %arg0(%cast) : (tensor<*xelem_type>, tensor<5xindex>) -> tensor<?x?x?x?x?xelem_type>\n                 %35 = shape.broadcast %19#1, %0 : tensor<?xindex>, tensor<5xindex> -> tensor<?xindex>\n                 %cast_0 = tensor.cast %35 : tensor<?xindex> to tensor<5xindex>\n-                %36 = mhlo.dynamic_reshape %arg1, %cast_0 : (tensor<*xelem_type>, tensor<5xindex>) -> tensor<?x?x?x?x?xelem_type>\n+                %36 = tensor.reshape %arg1(%cast_0) : (tensor<*xelem_type>, tensor<5xindex>) -> tensor<?x?x?x?x?xelem_type>\n                 %37 = chlo.broadcast_add %34, %36 : (tensor<?x?x?x?x?xelem_type>, tensor<?x?x?x?x?xelem_type>) -> tensor<?x?x?x?x?xoutput_type>\n                 %cast_1 = tensor.cast %37 : tensor<?x?x?x?x?xoutput_type> to tensor<*xoutput_type>\n                 scf.yield %cast_1 : tensor<*xoutput_type>\n@@ -124,6 +125,6 @@ func.func @AddV2_platform_elem_type_output_type(%arg0: tensor<*xelem_type>, %arg\n   %10 = shape.shape_of %arg0 : tensor<*xelem_type> -> tensor<?xindex>\n   %11 = shape.shape_of %arg1 : tensor<*xelem_type> -> tensor<?xindex>\n   %12 = shape.broadcast %10, %11 : tensor<?xindex>, tensor<?xindex> -> tensor<?xindex>\n-  %13 = mhlo.dynamic_reshape %9, %12 : (tensor<*xoutput_type>, tensor<?xindex>) -> tensor<*xoutput_type>\n+  %13 = tensor.reshape %9(%12) : (tensor<*xoutput_type>, tensor<?xindex>) -> tensor<*xoutput_type>\n   return %13 : tensor<*xoutput_type>\n }"
        },
        {
            "sha": "0735907903358229e64491390d03147788e3fbb3",
            "filename": "tensorflow/core/kernels/mlir_generated/op_definitions/angle.mlir.tmpl",
            "status": "modified",
            "additions": 2,
            "deletions": 2,
            "changes": 4,
            "blob_url": "https://github.com/tensorflow/tensorflow/blob/ce6202dd8482f022a0dcc1e6df95fa9e14b6b65f/tensorflow%2Fcore%2Fkernels%2Fmlir_generated%2Fop_definitions%2Fangle.mlir.tmpl",
            "raw_url": "https://github.com/tensorflow/tensorflow/raw/ce6202dd8482f022a0dcc1e6df95fa9e14b6b65f/tensorflow%2Fcore%2Fkernels%2Fmlir_generated%2Fop_definitions%2Fangle.mlir.tmpl",
            "contents_url": "https://api.github.com/repos/tensorflow/tensorflow/contents/tensorflow%2Fcore%2Fkernels%2Fmlir_generated%2Fop_definitions%2Fangle.mlir.tmpl?ref=ce6202dd8482f022a0dcc1e6df95fa9e14b6b65f",
            "patch": "@@ -2,10 +2,10 @@ func.func @Angle_platform_elem_type_output_type(%arg0: tensor<*xelem_type>) -> t\n   %0 = shape.shape_of %arg0 : tensor<*xelem_type> -> tensor<?xindex>\n   %1 = shape.num_elements %0 : tensor<?xindex> -> index\n   %from_elements = tensor.from_elements %1 : tensor<1xindex>\n-  %2 = mhlo.dynamic_reshape %arg0, %from_elements : (tensor<*xelem_type>, tensor<1xindex>) -> tensor<?xelem_type>\n+  %2 = tensor.reshape %arg0(%from_elements) : (tensor<*xelem_type>, tensor<1xindex>) -> tensor<?xelem_type>\n   %3 = mhlo.imag %2 : (tensor<?xelem_type>) -> tensor<?xoutput_type>\n   %4 = mhlo.real %2 : (tensor<?xelem_type>) -> tensor<?xoutput_type>\n   %5 = mhlo.atan2 %3, %4 : tensor<?xoutput_type>\n-  %6 = mhlo.dynamic_reshape %5, %0 : (tensor<?xoutput_type>, tensor<?xindex>) -> tensor<*xoutput_type>\n+  %6 = tensor.reshape %5(%0) : (tensor<?xoutput_type>, tensor<?xindex>) -> tensor<*xoutput_type>\n   return %6 : tensor<*xoutput_type>\n }"
        },
        {
            "sha": "4cf0774211409dfda696caa990bc770ae1bb9031",
            "filename": "tensorflow/core/kernels/mlir_generated/op_definitions/asin.mlir.tmpl",
            "status": "modified",
            "additions": 2,
            "deletions": 2,
            "changes": 4,
            "blob_url": "https://github.com/tensorflow/tensorflow/blob/ce6202dd8482f022a0dcc1e6df95fa9e14b6b65f/tensorflow%2Fcore%2Fkernels%2Fmlir_generated%2Fop_definitions%2Fasin.mlir.tmpl",
            "raw_url": "https://github.com/tensorflow/tensorflow/raw/ce6202dd8482f022a0dcc1e6df95fa9e14b6b65f/tensorflow%2Fcore%2Fkernels%2Fmlir_generated%2Fop_definitions%2Fasin.mlir.tmpl",
            "contents_url": "https://api.github.com/repos/tensorflow/tensorflow/contents/tensorflow%2Fcore%2Fkernels%2Fmlir_generated%2Fop_definitions%2Fasin.mlir.tmpl?ref=ce6202dd8482f022a0dcc1e6df95fa9e14b6b65f",
            "patch": "@@ -2,8 +2,8 @@ func.func @Asin_platform_elem_type_output_type(%arg0: tensor<*xelem_type>) -> te\n   %0 = shape.shape_of %arg0 : tensor<*xelem_type> -> tensor<?xindex>\n   %1 = shape.num_elements %0 : tensor<?xindex> -> index\n   %from_elements = tensor.from_elements %1 : tensor<1xindex>\n-  %2 = mhlo.dynamic_reshape %arg0, %from_elements : (tensor<*xelem_type>, tensor<1xindex>) -> tensor<?xelem_type>\n+  %2 = tensor.reshape %arg0(%from_elements) : (tensor<*xelem_type>, tensor<1xindex>) -> tensor<?xelem_type>\n   %3 = chlo.asin %2 : tensor<?xelem_type> -> tensor<?xoutput_type>\n-  %4 = mhlo.dynamic_reshape %3, %0 : (tensor<?xoutput_type>, tensor<?xindex>) -> tensor<*xoutput_type>\n+  %4 = tensor.reshape %3(%0) : (tensor<?xoutput_type>, tensor<?xindex>) -> tensor<*xoutput_type>\n   return %4 : tensor<*xoutput_type>\n }"
        },
        {
            "sha": "facba2eecd731c6c8f5ccf63c97bbd329204cadb",
            "filename": "tensorflow/core/kernels/mlir_generated/op_definitions/asinh.mlir.tmpl",
            "status": "modified",
            "additions": 2,
            "deletions": 2,
            "changes": 4,
            "blob_url": "https://github.com/tensorflow/tensorflow/blob/ce6202dd8482f022a0dcc1e6df95fa9e14b6b65f/tensorflow%2Fcore%2Fkernels%2Fmlir_generated%2Fop_definitions%2Fasinh.mlir.tmpl",
            "raw_url": "https://github.com/tensorflow/tensorflow/raw/ce6202dd8482f022a0dcc1e6df95fa9e14b6b65f/tensorflow%2Fcore%2Fkernels%2Fmlir_generated%2Fop_definitions%2Fasinh.mlir.tmpl",
            "contents_url": "https://api.github.com/repos/tensorflow/tensorflow/contents/tensorflow%2Fcore%2Fkernels%2Fmlir_generated%2Fop_definitions%2Fasinh.mlir.tmpl?ref=ce6202dd8482f022a0dcc1e6df95fa9e14b6b65f",
            "patch": "@@ -2,8 +2,8 @@ func.func @Asinh_platform_elem_type_output_type(%arg0: tensor<*xelem_type>) -> t\n   %0 = shape.shape_of %arg0 : tensor<*xelem_type> -> tensor<?xindex>\n   %1 = shape.num_elements %0 : tensor<?xindex> -> index\n   %from_elements = tensor.from_elements %1 : tensor<1xindex>\n-  %2 = mhlo.dynamic_reshape %arg0, %from_elements : (tensor<*xelem_type>, tensor<1xindex>) -> tensor<?xelem_type>\n+  %2 = tensor.reshape %arg0(%from_elements) : (tensor<*xelem_type>, tensor<1xindex>) -> tensor<?xelem_type>\n   %3 = chlo.asinh %2 : tensor<?xelem_type> -> tensor<?xoutput_type>\n-  %4 = mhlo.dynamic_reshape %3, %0 : (tensor<?xoutput_type>, tensor<?xindex>) -> tensor<*xoutput_type>\n+  %4 = tensor.reshape %3(%0) : (tensor<?xoutput_type>, tensor<?xindex>) -> tensor<*xoutput_type>\n   return %4 : tensor<*xoutput_type>\n }"
        },
        {
            "sha": "9f100eaedeccd3553bbacf08124b5369e71a4ca2",
            "filename": "tensorflow/core/kernels/mlir_generated/op_definitions/atan.mlir.tmpl",
            "status": "modified",
            "additions": 2,
            "deletions": 2,
            "changes": 4,
            "blob_url": "https://github.com/tensorflow/tensorflow/blob/ce6202dd8482f022a0dcc1e6df95fa9e14b6b65f/tensorflow%2Fcore%2Fkernels%2Fmlir_generated%2Fop_definitions%2Fatan.mlir.tmpl",
            "raw_url": "https://github.com/tensorflow/tensorflow/raw/ce6202dd8482f022a0dcc1e6df95fa9e14b6b65f/tensorflow%2Fcore%2Fkernels%2Fmlir_generated%2Fop_definitions%2Fatan.mlir.tmpl",
            "contents_url": "https://api.github.com/repos/tensorflow/tensorflow/contents/tensorflow%2Fcore%2Fkernels%2Fmlir_generated%2Fop_definitions%2Fatan.mlir.tmpl?ref=ce6202dd8482f022a0dcc1e6df95fa9e14b6b65f",
            "patch": "@@ -2,8 +2,8 @@ func.func @Atan_platform_elem_type_output_type(%arg0: tensor<*xelem_type>) -> te\n   %0 = shape.shape_of %arg0 : tensor<*xelem_type> -> tensor<?xindex>\n   %1 = shape.num_elements %0 : tensor<?xindex> -> index\n   %from_elements = tensor.from_elements %1 : tensor<1xindex>\n-  %2 = mhlo.dynamic_reshape %arg0, %from_elements : (tensor<*xelem_type>, tensor<1xindex>) -> tensor<?xelem_type>\n+  %2 = tensor.reshape %arg0(%from_elements) : (tensor<*xelem_type>, tensor<1xindex>) -> tensor<?xelem_type>\n   %3 = chlo.atan %2 : tensor<?xelem_type> -> tensor<?xoutput_type>\n-  %4 = mhlo.dynamic_reshape %3, %0 : (tensor<?xoutput_type>, tensor<?xindex>) -> tensor<*xoutput_type>\n+  %4 = tensor.reshape %3(%0) : (tensor<?xoutput_type>, tensor<?xindex>) -> tensor<*xoutput_type>\n   return %4 : tensor<*xoutput_type>\n }"
        },
        {
            "sha": "440bb28816b3ea5367fb27a976572335ae56f978",
            "filename": "tensorflow/core/kernels/mlir_generated/op_definitions/atan2.mlir.tmpl",
            "status": "modified",
            "additions": 18,
            "deletions": 17,
            "changes": 35,
            "blob_url": "https://github.com/tensorflow/tensorflow/blob/ce6202dd8482f022a0dcc1e6df95fa9e14b6b65f/tensorflow%2Fcore%2Fkernels%2Fmlir_generated%2Fop_definitions%2Fatan2.mlir.tmpl",
            "raw_url": "https://github.com/tensorflow/tensorflow/raw/ce6202dd8482f022a0dcc1e6df95fa9e14b6b65f/tensorflow%2Fcore%2Fkernels%2Fmlir_generated%2Fop_definitions%2Fatan2.mlir.tmpl",
            "contents_url": "https://api.github.com/repos/tensorflow/tensorflow/contents/tensorflow%2Fcore%2Fkernels%2Fmlir_generated%2Fop_definitions%2Fatan2.mlir.tmpl?ref=ce6202dd8482f022a0dcc1e6df95fa9e14b6b65f",
            "patch": "@@ -13,11 +13,12 @@ func.func @Atan2_platform_elem_type_output_type(%arg0: tensor<*xelem_type>, %arg\n   %6 = shape.shape_of %arg1 : tensor<*xelem_type> -> tensor<?xindex>\n   %7 = shape.num_elements %5 : tensor<?xindex> -> index\n   %8 = arith.cmpi eq, %7, %c1 : index\n+  %c_empty = arith.constant dense<> : tensor<0xindex>\n   %9 = scf.if %8 -> (tensor<*xoutput_type>) {\n     %14 = shape.num_elements %6 : tensor<?xindex> -> index\n     %from_elements = tensor.from_elements %14 : tensor<1xindex>\n-    %15 = mhlo.reshape %arg0 : (tensor<*xelem_type>) -> tensor<elem_type>\n-    %16 = mhlo.dynamic_reshape %arg1, %from_elements : (tensor<*xelem_type>, tensor<1xindex>) -> tensor<?xelem_type>\n+    %15 = tensor.reshape %arg0(%c_empty) : (tensor<*xelem_type>, tensor<0xindex>) -> tensor<elem_type>\n+    %16 = tensor.reshape %arg1(%from_elements) : (tensor<*xelem_type>, tensor<1xindex>) -> tensor<?xelem_type>\n     %17 = chlo.broadcast_atan2 %15, %16 : (tensor<elem_type>, tensor<?xelem_type>) -> tensor<?xoutput_type>\n     %cast = tensor.cast %17 : tensor<?xoutput_type> to tensor<*xoutput_type>\n     scf.yield %cast : tensor<*xoutput_type>\n@@ -27,8 +28,8 @@ func.func @Atan2_platform_elem_type_output_type(%arg0: tensor<*xelem_type>, %arg\n     %16 = scf.if %15 -> (tensor<*xoutput_type>) {\n       %17 = shape.num_elements %5 : tensor<?xindex> -> index\n       %from_elements = tensor.from_elements %17 : tensor<1xindex>\n-      %18 = mhlo.dynamic_reshape %arg0, %from_elements : (tensor<*xelem_type>, tensor<1xindex>) -> tensor<?xelem_type>\n-      %19 = mhlo.reshape %arg1 : (tensor<*xelem_type>) -> tensor<elem_type>\n+      %18 = tensor.reshape %arg0(%from_elements) : (tensor<*xelem_type>, tensor<1xindex>) -> tensor<?xelem_type>\n+      %19 = tensor.reshape %arg1(%c_empty) : (tensor<*xelem_type>, tensor<0xindex>) -> tensor<elem_type>\n       %20 = chlo.broadcast_atan2 %18, %19 : (tensor<?xelem_type>, tensor<elem_type>) -> tensor<?xoutput_type>\n       %cast = tensor.cast %20 : tensor<?xoutput_type> to tensor<*xoutput_type>\n       scf.yield %cast : tensor<*xoutput_type>\n@@ -38,8 +39,8 @@ func.func @Atan2_platform_elem_type_output_type(%arg0: tensor<*xelem_type>, %arg\n         %19 = shape.any %5, %6 : tensor<?xindex>, tensor<?xindex> -> tensor<?xindex>\n         %20 = shape.num_elements %19 : tensor<?xindex> -> index\n         %from_elements = tensor.from_elements %20 : tensor<1xindex>\n-        %21 = mhlo.dynamic_reshape %arg0, %from_elements : (tensor<*xelem_type>, tensor<1xindex>) -> tensor<?xelem_type>\n-        %22 = mhlo.dynamic_reshape %arg1, %from_elements : (tensor<*xelem_type>, tensor<1xindex>) -> tensor<?xelem_type>\n+        %21 = tensor.reshape %arg0(%from_elements) : (tensor<*xelem_type>, tensor<1xindex>) -> tensor<?xelem_type>\n+        %22 = tensor.reshape %arg1(%from_elements) : (tensor<*xelem_type>, tensor<1xindex>) -> tensor<?xelem_type>\n         %23 = chlo.broadcast_atan2 %21, %22 : (tensor<?xelem_type>, tensor<?xelem_type>) -> tensor<?xoutput_type>\n         %cast = tensor.cast %23 : tensor<?xoutput_type> to tensor<*xoutput_type>\n         scf.yield %cast : tensor<*xoutput_type>\n@@ -53,10 +54,10 @@ func.func @Atan2_platform_elem_type_output_type(%arg0: tensor<*xelem_type>, %arg\n         %25 = scf.if %24 -> (tensor<*xoutput_type>) {\n           %26 = shape.broadcast %19#0, %4 : tensor<?xindex>, tensor<1xindex> -> tensor<?xindex>\n           %cast = tensor.cast %26 : tensor<?xindex> to tensor<1xindex>\n-          %27 = mhlo.dynamic_reshape %arg0, %cast : (tensor<*xelem_type>, tensor<1xindex>) -> tensor<?xelem_type>\n+          %27 = tensor.reshape %arg0(%cast) : (tensor<*xelem_type>, tensor<1xindex>) -> tensor<?xelem_type>\n           %28 = shape.broadcast %19#1, %4 : tensor<?xindex>, tensor<1xindex> -> tensor<?xindex>\n           %cast_0 = tensor.cast %28 : tensor<?xindex> to tensor<1xindex>\n-          %29 = mhlo.dynamic_reshape %arg1, %cast_0 : (tensor<*xelem_type>, tensor<1xindex>) -> tensor<?xelem_type>\n+          %29 = tensor.reshape %arg1(%cast_0) : (tensor<*xelem_type>, tensor<1xindex>) -> tensor<?xelem_type>\n           %30 = chlo.broadcast_atan2 %27, %29 : (tensor<?xelem_type>, tensor<?xelem_type>) -> tensor<?xoutput_type>\n           %cast_1 = tensor.cast %30 : tensor<?xoutput_type> to tensor<*xoutput_type>\n           scf.yield %cast_1 : tensor<*xoutput_type>\n@@ -65,10 +66,10 @@ func.func @Atan2_platform_elem_type_output_type(%arg0: tensor<*xelem_type>, %arg\n           %27 = scf.if %26 -> (tensor<*xoutput_type>) {\n             %28 = shape.broadcast %19#0, %3 : tensor<?xindex>, tensor<2xindex> -> tensor<?xindex>\n             %cast = tensor.cast %28 : tensor<?xindex> to tensor<2xindex>\n-            %29 = mhlo.dynamic_reshape %arg0, %cast : (tensor<*xelem_type>, tensor<2xindex>) -> tensor<?x?xelem_type>\n+            %29 = tensor.reshape %arg0(%cast) : (tensor<*xelem_type>, tensor<2xindex>) -> tensor<?x?xelem_type>\n             %30 = shape.broadcast %19#1, %3 : tensor<?xindex>, tensor<2xindex> -> tensor<?xindex>\n             %cast_0 = tensor.cast %30 : tensor<?xindex> to tensor<2xindex>\n-            %31 = mhlo.dynamic_reshape %arg1, %cast_0 : (tensor<*xelem_type>, tensor<2xindex>) -> tensor<?x?xelem_type>\n+            %31 = tensor.reshape %arg1(%cast_0) : (tensor<*xelem_type>, tensor<2xindex>) -> tensor<?x?xelem_type>\n             %32 = chlo.broadcast_atan2 %29, %31 : (tensor<?x?xelem_type>, tensor<?x?xelem_type>) -> tensor<?x?xoutput_type>\n             %cast_1 = tensor.cast %32 : tensor<?x?xoutput_type> to tensor<*xoutput_type>\n             scf.yield %cast_1 : tensor<*xoutput_type>\n@@ -77,10 +78,10 @@ func.func @Atan2_platform_elem_type_output_type(%arg0: tensor<*xelem_type>, %arg\n             %29 = scf.if %28 -> (tensor<*xoutput_type>) {\n               %30 = shape.broadcast %19#0, %2 : tensor<?xindex>, tensor<3xindex> -> tensor<?xindex>\n               %cast = tensor.cast %30 : tensor<?xindex> to tensor<3xindex>\n-              %31 = mhlo.dynamic_reshape %arg0, %cast : (tensor<*xelem_type>, tensor<3xindex>) -> tensor<?x?x?xelem_type>\n+              %31 = tensor.reshape %arg0(%cast) : (tensor<*xelem_type>, tensor<3xindex>) -> tensor<?x?x?xelem_type>\n               %32 = shape.broadcast %19#1, %2 : tensor<?xindex>, tensor<3xindex> -> tensor<?xindex>\n               %cast_0 = tensor.cast %32 : tensor<?xindex> to tensor<3xindex>\n-              %33 = mhlo.dynamic_reshape %arg1, %cast_0 : (tensor<*xelem_type>, tensor<3xindex>) -> tensor<?x?x?xelem_type>\n+              %33 = tensor.reshape %arg1(%cast_0) : (tensor<*xelem_type>, tensor<3xindex>) -> tensor<?x?x?xelem_type>\n               %34 = chlo.broadcast_atan2 %31, %33 : (tensor<?x?x?xelem_type>, tensor<?x?x?xelem_type>) -> tensor<?x?x?xoutput_type>\n               %cast_1 = tensor.cast %34 : tensor<?x?x?xoutput_type> to tensor<*xoutput_type>\n               scf.yield %cast_1 : tensor<*xoutput_type>\n@@ -89,10 +90,10 @@ func.func @Atan2_platform_elem_type_output_type(%arg0: tensor<*xelem_type>, %arg\n               %31 = scf.if %30 -> (tensor<*xoutput_type>) {\n                 %32 = shape.broadcast %19#0, %1 : tensor<?xindex>, tensor<4xindex> -> tensor<?xindex>\n                 %cast = tensor.cast %32 : tensor<?xindex> to tensor<4xindex>\n-                %33 = mhlo.dynamic_reshape %arg0, %cast : (tensor<*xelem_type>, tensor<4xindex>) -> tensor<?x?x?x?xelem_type>\n+                %33 = tensor.reshape %arg0(%cast) : (tensor<*xelem_type>, tensor<4xindex>) -> tensor<?x?x?x?xelem_type>\n                 %34 = shape.broadcast %19#1, %1 : tensor<?xindex>, tensor<4xindex> -> tensor<?xindex>\n                 %cast_0 = tensor.cast %34 : tensor<?xindex> to tensor<4xindex>\n-                %35 = mhlo.dynamic_reshape %arg1, %cast_0 : (tensor<*xelem_type>, tensor<4xindex>) -> tensor<?x?x?x?xelem_type>\n+                %35 = tensor.reshape %arg1(%cast_0) : (tensor<*xelem_type>, tensor<4xindex>) -> tensor<?x?x?x?xelem_type>\n                 %36 = chlo.broadcast_atan2 %33, %35 : (tensor<?x?x?x?xelem_type>, tensor<?x?x?x?xelem_type>) -> tensor<?x?x?x?xoutput_type>\n                 %cast_1 = tensor.cast %36 : tensor<?x?x?x?xoutput_type> to tensor<*xoutput_type>\n                 scf.yield %cast_1 : tensor<*xoutput_type>\n@@ -101,10 +102,10 @@ func.func @Atan2_platform_elem_type_output_type(%arg0: tensor<*xelem_type>, %arg\n                 cf.assert %32, \"Input for dynamic binary or n-ary op lowering was of a rank greater than 5\"\n                 %33 = shape.broadcast %19#0, %0 : tensor<?xindex>, tensor<5xindex> -> tensor<?xindex>\n                 %cast = tensor.cast %33 : tensor<?xindex> to tensor<5xindex>\n-                %34 = mhlo.dynamic_reshape %arg0, %cast : (tensor<*xelem_type>, tensor<5xindex>) -> tensor<?x?x?x?x?xelem_type>\n+                %34 = tensor.reshape %arg0(%cast) : (tensor<*xelem_type>, tensor<5xindex>) -> tensor<?x?x?x?x?xelem_type>\n                 %35 = shape.broadcast %19#1, %0 : tensor<?xindex>, tensor<5xindex> -> tensor<?xindex>\n                 %cast_0 = tensor.cast %35 : tensor<?xindex> to tensor<5xindex>\n-                %36 = mhlo.dynamic_reshape %arg1, %cast_0 : (tensor<*xelem_type>, tensor<5xindex>) -> tensor<?x?x?x?x?xelem_type>\n+                %36 = tensor.reshape %arg1(%cast_0) : (tensor<*xelem_type>, tensor<5xindex>) -> tensor<?x?x?x?x?xelem_type>\n                 %37 = chlo.broadcast_atan2 %34, %36 : (tensor<?x?x?x?x?xelem_type>, tensor<?x?x?x?x?xelem_type>) -> tensor<?x?x?x?x?xoutput_type>\n                 %cast_1 = tensor.cast %37 : tensor<?x?x?x?x?xoutput_type> to tensor<*xoutput_type>\n                 scf.yield %cast_1 : tensor<*xoutput_type>\n@@ -124,6 +125,6 @@ func.func @Atan2_platform_elem_type_output_type(%arg0: tensor<*xelem_type>, %arg\n   %10 = shape.shape_of %arg0 : tensor<*xelem_type> -> tensor<?xindex>\n   %11 = shape.shape_of %arg1 : tensor<*xelem_type> -> tensor<?xindex>\n   %12 = shape.broadcast %10, %11 : tensor<?xindex>, tensor<?xindex> -> tensor<?xindex>\n-  %13 = mhlo.dynamic_reshape %9, %12 : (tensor<*xoutput_type>, tensor<?xindex>) -> tensor<*xoutput_type>\n+  %13 = tensor.reshape %9(%12) : (tensor<*xoutput_type>, tensor<?xindex>) -> tensor<*xoutput_type>\n   return %13 : tensor<*xoutput_type>\n }"
        },
        {
            "sha": "948367805f61d612c272dfc99a13fc7523b7fded",
            "filename": "tensorflow/core/kernels/mlir_generated/op_definitions/atanh.mlir.tmpl",
            "status": "modified",
            "additions": 2,
            "deletions": 2,
            "changes": 4,
            "blob_url": "https://github.com/tensorflow/tensorflow/blob/ce6202dd8482f022a0dcc1e6df95fa9e14b6b65f/tensorflow%2Fcore%2Fkernels%2Fmlir_generated%2Fop_definitions%2Fatanh.mlir.tmpl",
            "raw_url": "https://github.com/tensorflow/tensorflow/raw/ce6202dd8482f022a0dcc1e6df95fa9e14b6b65f/tensorflow%2Fcore%2Fkernels%2Fmlir_generated%2Fop_definitions%2Fatanh.mlir.tmpl",
            "contents_url": "https://api.github.com/repos/tensorflow/tensorflow/contents/tensorflow%2Fcore%2Fkernels%2Fmlir_generated%2Fop_definitions%2Fatanh.mlir.tmpl?ref=ce6202dd8482f022a0dcc1e6df95fa9e14b6b65f",
            "patch": "@@ -2,8 +2,8 @@ func.func @Atanh_platform_elem_type_output_type(%arg0: tensor<*xelem_type>) -> t\n   %0 = shape.shape_of %arg0 : tensor<*xelem_type> -> tensor<?xindex>\n   %1 = shape.num_elements %0 : tensor<?xindex> -> index\n   %from_elements = tensor.from_elements %1 : tensor<1xindex>\n-  %2 = mhlo.dynamic_reshape %arg0, %from_elements : (tensor<*xelem_type>, tensor<1xindex>) -> tensor<?xelem_type>\n+  %2 = tensor.reshape %arg0(%from_elements) : (tensor<*xelem_type>, tensor<1xindex>) -> tensor<?xelem_type>\n   %3 = chlo.atanh %2 : tensor<?xelem_type> -> tensor<?xoutput_type>\n-  %4 = mhlo.dynamic_reshape %3, %0 : (tensor<?xoutput_type>, tensor<?xindex>) -> tensor<*xoutput_type>\n+  %4 = tensor.reshape %3(%0) : (tensor<?xoutput_type>, tensor<?xindex>) -> tensor<*xoutput_type>\n   return %4 : tensor<*xoutput_type>\n }"
        },
        {
            "sha": "1233e3d034780f80314f210d323d65b8b8c9c466",
            "filename": "tensorflow/core/kernels/mlir_generated/op_definitions/bitwise_and.mlir.tmpl",
            "status": "modified",
            "additions": 18,
            "deletions": 17,
            "changes": 35,
            "blob_url": "https://github.com/tensorflow/tensorflow/blob/ce6202dd8482f022a0dcc1e6df95fa9e14b6b65f/tensorflow%2Fcore%2Fkernels%2Fmlir_generated%2Fop_definitions%2Fbitwise_and.mlir.tmpl",
            "raw_url": "https://github.com/tensorflow/tensorflow/raw/ce6202dd8482f022a0dcc1e6df95fa9e14b6b65f/tensorflow%2Fcore%2Fkernels%2Fmlir_generated%2Fop_definitions%2Fbitwise_and.mlir.tmpl",
            "contents_url": "https://api.github.com/repos/tensorflow/tensorflow/contents/tensorflow%2Fcore%2Fkernels%2Fmlir_generated%2Fop_definitions%2Fbitwise_and.mlir.tmpl?ref=ce6202dd8482f022a0dcc1e6df95fa9e14b6b65f",
            "patch": "@@ -13,11 +13,12 @@ func.func @BitwiseAnd_platform_elem_type_output_type(%arg0: tensor<*xelem_type>,\n   %6 = shape.shape_of %arg1 : tensor<*xelem_type> -> tensor<?xindex>\n   %7 = shape.num_elements %5 : tensor<?xindex> -> index\n   %8 = arith.cmpi eq, %7, %c1 : index\n+  %c_empty = arith.constant dense<> : tensor<0xindex>\n   %9 = scf.if %8 -> (tensor<*xelem_type>) {\n     %14 = shape.num_elements %6 : tensor<?xindex> -> index\n     %from_elements = tensor.from_elements %14 : tensor<1xindex>\n-    %15 = mhlo.reshape %arg0 : (tensor<*xelem_type>) -> tensor<elem_type>\n-    %16 = mhlo.dynamic_reshape %arg1, %from_elements : (tensor<*xelem_type>, tensor<1xindex>) -> tensor<?xelem_type>\n+    %15 = tensor.reshape %arg0(%c_empty) : (tensor<*xelem_type>, tensor<0xindex>) -> tensor<elem_type>\n+    %16 = tensor.reshape %arg1(%from_elements) : (tensor<*xelem_type>, tensor<1xindex>) -> tensor<?xelem_type>\n     %17 = chlo.broadcast_and %15, %16 : (tensor<elem_type>, tensor<?xelem_type>) -> tensor<?xelem_type>\n     %cast = tensor.cast %17 : tensor<?xelem_type> to tensor<*xelem_type>\n     scf.yield %cast : tensor<*xelem_type>\n@@ -27,8 +28,8 @@ func.func @BitwiseAnd_platform_elem_type_output_type(%arg0: tensor<*xelem_type>,\n     %16 = scf.if %15 -> (tensor<*xelem_type>) {\n       %17 = shape.num_elements %5 : tensor<?xindex> -> index\n       %from_elements = tensor.from_elements %17 : tensor<1xindex>\n-      %18 = mhlo.dynamic_reshape %arg0, %from_elements : (tensor<*xelem_type>, tensor<1xindex>) -> tensor<?xelem_type>\n-      %19 = mhlo.reshape %arg1 : (tensor<*xelem_type>) -> tensor<elem_type>\n+      %18 = tensor.reshape %arg0(%from_elements) : (tensor<*xelem_type>, tensor<1xindex>) -> tensor<?xelem_type>\n+      %19 = tensor.reshape %arg1(%c_empty) : (tensor<*xelem_type>, tensor<0xindex>) -> tensor<elem_type>\n       %20 = chlo.broadcast_and %18, %19 : (tensor<?xelem_type>, tensor<elem_type>) -> tensor<?xelem_type>\n       %cast = tensor.cast %20 : tensor<?xelem_type> to tensor<*xelem_type>\n       scf.yield %cast : tensor<*xelem_type>\n@@ -38,8 +39,8 @@ func.func @BitwiseAnd_platform_elem_type_output_type(%arg0: tensor<*xelem_type>,\n         %19 = shape.any %5, %6 : tensor<?xindex>, tensor<?xindex> -> tensor<?xindex>\n         %20 = shape.num_elements %19 : tensor<?xindex> -> index\n         %from_elements = tensor.from_elements %20 : tensor<1xindex>\n-        %21 = mhlo.dynamic_reshape %arg0, %from_elements : (tensor<*xelem_type>, tensor<1xindex>) -> tensor<?xelem_type>\n-        %22 = mhlo.dynamic_reshape %arg1, %from_elements : (tensor<*xelem_type>, tensor<1xindex>) -> tensor<?xelem_type>\n+        %21 = tensor.reshape %arg0(%from_elements) : (tensor<*xelem_type>, tensor<1xindex>) -> tensor<?xelem_type>\n+        %22 = tensor.reshape %arg1(%from_elements) : (tensor<*xelem_type>, tensor<1xindex>) -> tensor<?xelem_type>\n         %23 = chlo.broadcast_and %21, %22 : (tensor<?xelem_type>, tensor<?xelem_type>) -> tensor<?xelem_type>\n         %cast = tensor.cast %23 : tensor<?xelem_type> to tensor<*xelem_type>\n         scf.yield %cast : tensor<*xelem_type>\n@@ -53,10 +54,10 @@ func.func @BitwiseAnd_platform_elem_type_output_type(%arg0: tensor<*xelem_type>,\n         %25 = scf.if %24 -> (tensor<*xelem_type>) {\n           %26 = shape.broadcast %19#0, %4 : tensor<?xindex>, tensor<1xindex> -> tensor<?xindex>\n           %cast = tensor.cast %26 : tensor<?xindex> to tensor<1xindex>\n-          %27 = mhlo.dynamic_reshape %arg0, %cast : (tensor<*xelem_type>, tensor<1xindex>) -> tensor<?xelem_type>\n+          %27 = tensor.reshape %arg0(%cast) : (tensor<*xelem_type>, tensor<1xindex>) -> tensor<?xelem_type>\n           %28 = shape.broadcast %19#1, %4 : tensor<?xindex>, tensor<1xindex> -> tensor<?xindex>\n           %cast_0 = tensor.cast %28 : tensor<?xindex> to tensor<1xindex>\n-          %29 = mhlo.dynamic_reshape %arg1, %cast_0 : (tensor<*xelem_type>, tensor<1xindex>) -> tensor<?xelem_type>\n+          %29 = tensor.reshape %arg1(%cast_0) : (tensor<*xelem_type>, tensor<1xindex>) -> tensor<?xelem_type>\n           %30 = chlo.broadcast_and %27, %29 : (tensor<?xelem_type>, tensor<?xelem_type>) -> tensor<?xelem_type>\n           %cast_1 = tensor.cast %30 : tensor<?xelem_type> to tensor<*xelem_type>\n           scf.yield %cast_1 : tensor<*xelem_type>\n@@ -65,10 +66,10 @@ func.func @BitwiseAnd_platform_elem_type_output_type(%arg0: tensor<*xelem_type>,\n           %27 = scf.if %26 -> (tensor<*xelem_type>) {\n             %28 = shape.broadcast %19#0, %3 : tensor<?xindex>, tensor<2xindex> -> tensor<?xindex>\n             %cast = tensor.cast %28 : tensor<?xindex> to tensor<2xindex>\n-            %29 = mhlo.dynamic_reshape %arg0, %cast : (tensor<*xelem_type>, tensor<2xindex>) -> tensor<?x?xelem_type>\n+            %29 = tensor.reshape %arg0(%cast) : (tensor<*xelem_type>, tensor<2xindex>) -> tensor<?x?xelem_type>\n             %30 = shape.broadcast %19#1, %3 : tensor<?xindex>, tensor<2xindex> -> tensor<?xindex>\n             %cast_0 = tensor.cast %30 : tensor<?xindex> to tensor<2xindex>\n-            %31 = mhlo.dynamic_reshape %arg1, %cast_0 : (tensor<*xelem_type>, tensor<2xindex>) -> tensor<?x?xelem_type>\n+            %31 = tensor.reshape %arg1(%cast_0) : (tensor<*xelem_type>, tensor<2xindex>) -> tensor<?x?xelem_type>\n             %32 = chlo.broadcast_and %29, %31 : (tensor<?x?xelem_type>, tensor<?x?xelem_type>) -> tensor<?x?xelem_type>\n             %cast_1 = tensor.cast %32 : tensor<?x?xelem_type> to tensor<*xelem_type>\n             scf.yield %cast_1 : tensor<*xelem_type>\n@@ -77,10 +78,10 @@ func.func @BitwiseAnd_platform_elem_type_output_type(%arg0: tensor<*xelem_type>,\n             %29 = scf.if %28 -> (tensor<*xelem_type>) {\n               %30 = shape.broadcast %19#0, %2 : tensor<?xindex>, tensor<3xindex> -> tensor<?xindex>\n               %cast = tensor.cast %30 : tensor<?xindex> to tensor<3xindex>\n-              %31 = mhlo.dynamic_reshape %arg0, %cast : (tensor<*xelem_type>, tensor<3xindex>) -> tensor<?x?x?xelem_type>\n+              %31 = tensor.reshape %arg0(%cast) : (tensor<*xelem_type>, tensor<3xindex>) -> tensor<?x?x?xelem_type>\n               %32 = shape.broadcast %19#1, %2 : tensor<?xindex>, tensor<3xindex> -> tensor<?xindex>\n               %cast_0 = tensor.cast %32 : tensor<?xindex> to tensor<3xindex>\n-              %33 = mhlo.dynamic_reshape %arg1, %cast_0 : (tensor<*xelem_type>, tensor<3xindex>) -> tensor<?x?x?xelem_type>\n+              %33 = tensor.reshape %arg1(%cast_0) : (tensor<*xelem_type>, tensor<3xindex>) -> tensor<?x?x?xelem_type>\n               %34 = chlo.broadcast_and %31, %33 : (tensor<?x?x?xelem_type>, tensor<?x?x?xelem_type>) -> tensor<?x?x?xelem_type>\n               %cast_1 = tensor.cast %34 : tensor<?x?x?xelem_type> to tensor<*xelem_type>\n               scf.yield %cast_1 : tensor<*xelem_type>\n@@ -89,10 +90,10 @@ func.func @BitwiseAnd_platform_elem_type_output_type(%arg0: tensor<*xelem_type>,\n               %31 = scf.if %30 -> (tensor<*xelem_type>) {\n                 %32 = shape.broadcast %19#0, %1 : tensor<?xindex>, tensor<4xindex> -> tensor<?xindex>\n                 %cast = tensor.cast %32 : tensor<?xindex> to tensor<4xindex>\n-                %33 = mhlo.dynamic_reshape %arg0, %cast : (tensor<*xelem_type>, tensor<4xindex>) -> tensor<?x?x?x?xelem_type>\n+                %33 = tensor.reshape %arg0(%cast) : (tensor<*xelem_type>, tensor<4xindex>) -> tensor<?x?x?x?xelem_type>\n                 %34 = shape.broadcast %19#1, %1 : tensor<?xindex>, tensor<4xindex> -> tensor<?xindex>\n                 %cast_0 = tensor.cast %34 : tensor<?xindex> to tensor<4xindex>\n-                %35 = mhlo.dynamic_reshape %arg1, %cast_0 : (tensor<*xelem_type>, tensor<4xindex>) -> tensor<?x?x?x?xelem_type>\n+                %35 = tensor.reshape %arg1(%cast_0) : (tensor<*xelem_type>, tensor<4xindex>) -> tensor<?x?x?x?xelem_type>\n                 %36 = chlo.broadcast_and %33, %35 : (tensor<?x?x?x?xelem_type>, tensor<?x?x?x?xelem_type>) -> tensor<?x?x?x?xelem_type>\n                 %cast_1 = tensor.cast %36 : tensor<?x?x?x?xelem_type> to tensor<*xelem_type>\n                 scf.yield %cast_1 : tensor<*xelem_type>\n@@ -101,10 +102,10 @@ func.func @BitwiseAnd_platform_elem_type_output_type(%arg0: tensor<*xelem_type>,\n                 cf.assert %32, \"Input for dynamic binary or n-ary op lowering was of a rank greater than 5\"\n                 %33 = shape.broadcast %19#0, %0 : tensor<?xindex>, tensor<5xindex> -> tensor<?xindex>\n                 %cast = tensor.cast %33 : tensor<?xindex> to tensor<5xindex>\n-                %34 = mhlo.dynamic_reshape %arg0, %cast : (tensor<*xelem_type>, tensor<5xindex>) -> tensor<?x?x?x?x?xelem_type>\n+                %34 = tensor.reshape %arg0(%cast) : (tensor<*xelem_type>, tensor<5xindex>) -> tensor<?x?x?x?x?xelem_type>\n                 %35 = shape.broadcast %19#1, %0 : tensor<?xindex>, tensor<5xindex> -> tensor<?xindex>\n                 %cast_0 = tensor.cast %35 : tensor<?xindex> to tensor<5xindex>\n-                %36 = mhlo.dynamic_reshape %arg1, %cast_0 : (tensor<*xelem_type>, tensor<5xindex>) -> tensor<?x?x?x?x?xelem_type>\n+                %36 = tensor.reshape %arg1(%cast_0) : (tensor<*xelem_type>, tensor<5xindex>) -> tensor<?x?x?x?x?xelem_type>\n                 %37 = chlo.broadcast_and %34, %36 : (tensor<?x?x?x?x?xelem_type>, tensor<?x?x?x?x?xelem_type>) -> tensor<?x?x?x?x?xelem_type>\n                 %cast_1 = tensor.cast %37 : tensor<?x?x?x?x?xelem_type> to tensor<*xelem_type>\n                 scf.yield %cast_1 : tensor<*xelem_type>\n@@ -124,6 +125,6 @@ func.func @BitwiseAnd_platform_elem_type_output_type(%arg0: tensor<*xelem_type>,\n   %10 = shape.shape_of %arg0 : tensor<*xelem_type> -> tensor<?xindex>\n   %11 = shape.shape_of %arg1 : tensor<*xelem_type> -> tensor<?xindex>\n   %12 = shape.broadcast %10, %11 : tensor<?xindex>, tensor<?xindex> -> tensor<?xindex>\n-  %13 = mhlo.dynamic_reshape %9, %12 : (tensor<*xelem_type>, tensor<?xindex>) -> tensor<*xelem_type>\n+  %13 = tensor.reshape %9(%12) : (tensor<*xelem_type>, tensor<?xindex>) -> tensor<*xelem_type>\n   return %13 : tensor<*xelem_type>\n }"
        },
        {
            "sha": "adddc48aa90c66002c8daed8aec25c1ad79d59bf",
            "filename": "tensorflow/core/kernels/mlir_generated/op_definitions/bitwise_or.mlir.tmpl",
            "status": "modified",
            "additions": 18,
            "deletions": 17,
            "changes": 35,
            "blob_url": "https://github.com/tensorflow/tensorflow/blob/ce6202dd8482f022a0dcc1e6df95fa9e14b6b65f/tensorflow%2Fcore%2Fkernels%2Fmlir_generated%2Fop_definitions%2Fbitwise_or.mlir.tmpl",
            "raw_url": "https://github.com/tensorflow/tensorflow/raw/ce6202dd8482f022a0dcc1e6df95fa9e14b6b65f/tensorflow%2Fcore%2Fkernels%2Fmlir_generated%2Fop_definitions%2Fbitwise_or.mlir.tmpl",
            "contents_url": "https://api.github.com/repos/tensorflow/tensorflow/contents/tensorflow%2Fcore%2Fkernels%2Fmlir_generated%2Fop_definitions%2Fbitwise_or.mlir.tmpl?ref=ce6202dd8482f022a0dcc1e6df95fa9e14b6b65f",
            "patch": "@@ -13,11 +13,12 @@ func.func @BitwiseOr_platform_elem_type_output_type(%arg0: tensor<*xelem_type>,\n   %6 = shape.shape_of %arg1 : tensor<*xelem_type> -> tensor<?xindex>\n   %7 = shape.num_elements %5 : tensor<?xindex> -> index\n   %8 = arith.cmpi eq, %7, %c1 : index\n+  %c_empty = arith.constant dense<> : tensor<0xindex>\n   %9 = scf.if %8 -> (tensor<*xelem_type>) {\n     %14 = shape.num_elements %6 : tensor<?xindex> -> index\n     %from_elements = tensor.from_elements %14 : tensor<1xindex>\n-    %15 = mhlo.reshape %arg0 : (tensor<*xelem_type>) -> tensor<elem_type>\n-    %16 = mhlo.dynamic_reshape %arg1, %from_elements : (tensor<*xelem_type>, tensor<1xindex>) -> tensor<?xelem_type>\n+    %15 = tensor.reshape %arg0(%c_empty) : (tensor<*xelem_type>, tensor<0xindex>) -> tensor<elem_type>\n+    %16 = tensor.reshape %arg1(%from_elements) : (tensor<*xelem_type>, tensor<1xindex>) -> tensor<?xelem_type>\n     %17 = chlo.broadcast_or %15, %16 : (tensor<elem_type>, tensor<?xelem_type>) -> tensor<?xelem_type>\n     %cast = tensor.cast %17 : tensor<?xelem_type> to tensor<*xelem_type>\n     scf.yield %cast : tensor<*xelem_type>\n@@ -27,8 +28,8 @@ func.func @BitwiseOr_platform_elem_type_output_type(%arg0: tensor<*xelem_type>,\n     %16 = scf.if %15 -> (tensor<*xelem_type>) {\n       %17 = shape.num_elements %5 : tensor<?xindex> -> index\n       %from_elements = tensor.from_elements %17 : tensor<1xindex>\n-      %18 = mhlo.dynamic_reshape %arg0, %from_elements : (tensor<*xelem_type>, tensor<1xindex>) -> tensor<?xelem_type>\n-      %19 = mhlo.reshape %arg1 : (tensor<*xelem_type>) -> tensor<elem_type>\n+      %18 = tensor.reshape %arg0(%from_elements) : (tensor<*xelem_type>, tensor<1xindex>) -> tensor<?xelem_type>\n+      %19 = tensor.reshape %arg1(%c_empty) : (tensor<*xelem_type>, tensor<0xindex>) -> tensor<elem_type>\n       %20 = chlo.broadcast_or %18, %19 : (tensor<?xelem_type>, tensor<elem_type>) -> tensor<?xelem_type>\n       %cast = tensor.cast %20 : tensor<?xelem_type> to tensor<*xelem_type>\n       scf.yield %cast : tensor<*xelem_type>\n@@ -38,8 +39,8 @@ func.func @BitwiseOr_platform_elem_type_output_type(%arg0: tensor<*xelem_type>,\n         %19 = shape.any %5, %6 : tensor<?xindex>, tensor<?xindex> -> tensor<?xindex>\n         %20 = shape.num_elements %19 : tensor<?xindex> -> index\n         %from_elements = tensor.from_elements %20 : tensor<1xindex>\n-        %21 = mhlo.dynamic_reshape %arg0, %from_elements : (tensor<*xelem_type>, tensor<1xindex>) -> tensor<?xelem_type>\n-        %22 = mhlo.dynamic_reshape %arg1, %from_elements : (tensor<*xelem_type>, tensor<1xindex>) -> tensor<?xelem_type>\n+        %21 = tensor.reshape %arg0(%from_elements) : (tensor<*xelem_type>, tensor<1xindex>) -> tensor<?xelem_type>\n+        %22 = tensor.reshape %arg1(%from_elements) : (tensor<*xelem_type>, tensor<1xindex>) -> tensor<?xelem_type>\n         %23 = chlo.broadcast_or %21, %22 : (tensor<?xelem_type>, tensor<?xelem_type>) -> tensor<?xelem_type>\n         %cast = tensor.cast %23 : tensor<?xelem_type> to tensor<*xelem_type>\n         scf.yield %cast : tensor<*xelem_type>\n@@ -53,10 +54,10 @@ func.func @BitwiseOr_platform_elem_type_output_type(%arg0: tensor<*xelem_type>,\n         %25 = scf.if %24 -> (tensor<*xelem_type>) {\n           %26 = shape.broadcast %19#0, %4 : tensor<?xindex>, tensor<1xindex> -> tensor<?xindex>\n           %cast = tensor.cast %26 : tensor<?xindex> to tensor<1xindex>\n-          %27 = mhlo.dynamic_reshape %arg0, %cast : (tensor<*xelem_type>, tensor<1xindex>) -> tensor<?xelem_type>\n+          %27 = tensor.reshape %arg0(%cast) : (tensor<*xelem_type>, tensor<1xindex>) -> tensor<?xelem_type>\n           %28 = shape.broadcast %19#1, %4 : tensor<?xindex>, tensor<1xindex> -> tensor<?xindex>\n           %cast_0 = tensor.cast %28 : tensor<?xindex> to tensor<1xindex>\n-          %29 = mhlo.dynamic_reshape %arg1, %cast_0 : (tensor<*xelem_type>, tensor<1xindex>) -> tensor<?xelem_type>\n+          %29 = tensor.reshape %arg1(%cast_0) : (tensor<*xelem_type>, tensor<1xindex>) -> tensor<?xelem_type>\n           %30 = chlo.broadcast_or %27, %29 : (tensor<?xelem_type>, tensor<?xelem_type>) -> tensor<?xelem_type>\n           %cast_1 = tensor.cast %30 : tensor<?xelem_type> to tensor<*xelem_type>\n           scf.yield %cast_1 : tensor<*xelem_type>\n@@ -65,10 +66,10 @@ func.func @BitwiseOr_platform_elem_type_output_type(%arg0: tensor<*xelem_type>,\n           %27 = scf.if %26 -> (tensor<*xelem_type>) {\n             %28 = shape.broadcast %19#0, %3 : tensor<?xindex>, tensor<2xindex> -> tensor<?xindex>\n             %cast = tensor.cast %28 : tensor<?xindex> to tensor<2xindex>\n-            %29 = mhlo.dynamic_reshape %arg0, %cast : (tensor<*xelem_type>, tensor<2xindex>) -> tensor<?x?xelem_type>\n+            %29 = tensor.reshape %arg0(%cast) : (tensor<*xelem_type>, tensor<2xindex>) -> tensor<?x?xelem_type>\n             %30 = shape.broadcast %19#1, %3 : tensor<?xindex>, tensor<2xindex> -> tensor<?xindex>\n             %cast_0 = tensor.cast %30 : tensor<?xindex> to tensor<2xindex>\n-            %31 = mhlo.dynamic_reshape %arg1, %cast_0 : (tensor<*xelem_type>, tensor<2xindex>) -> tensor<?x?xelem_type>\n+            %31 = tensor.reshape %arg1(%cast_0) : (tensor<*xelem_type>, tensor<2xindex>) -> tensor<?x?xelem_type>\n             %32 = chlo.broadcast_or %29, %31 : (tensor<?x?xelem_type>, tensor<?x?xelem_type>) -> tensor<?x?xelem_type>\n             %cast_1 = tensor.cast %32 : tensor<?x?xelem_type> to tensor<*xelem_type>\n             scf.yield %cast_1 : tensor<*xelem_type>\n@@ -77,10 +78,10 @@ func.func @BitwiseOr_platform_elem_type_output_type(%arg0: tensor<*xelem_type>,\n             %29 = scf.if %28 -> (tensor<*xelem_type>) {\n               %30 = shape.broadcast %19#0, %2 : tensor<?xindex>, tensor<3xindex> -> tensor<?xindex>\n               %cast = tensor.cast %30 : tensor<?xindex> to tensor<3xindex>\n-              %31 = mhlo.dynamic_reshape %arg0, %cast : (tensor<*xelem_type>, tensor<3xindex>) -> tensor<?x?x?xelem_type>\n+              %31 = tensor.reshape %arg0(%cast) : (tensor<*xelem_type>, tensor<3xindex>) -> tensor<?x?x?xelem_type>\n               %32 = shape.broadcast %19#1, %2 : tensor<?xindex>, tensor<3xindex> -> tensor<?xindex>\n               %cast_0 = tensor.cast %32 : tensor<?xindex> to tensor<3xindex>\n-              %33 = mhlo.dynamic_reshape %arg1, %cast_0 : (tensor<*xelem_type>, tensor<3xindex>) -> tensor<?x?x?xelem_type>\n+              %33 = tensor.reshape %arg1(%cast_0) : (tensor<*xelem_type>, tensor<3xindex>) -> tensor<?x?x?xelem_type>\n               %34 = chlo.broadcast_or %31, %33 : (tensor<?x?x?xelem_type>, tensor<?x?x?xelem_type>) -> tensor<?x?x?xelem_type>\n               %cast_1 = tensor.cast %34 : tensor<?x?x?xelem_type> to tensor<*xelem_type>\n               scf.yield %cast_1 : tensor<*xelem_type>\n@@ -89,10 +90,10 @@ func.func @BitwiseOr_platform_elem_type_output_type(%arg0: tensor<*xelem_type>,\n               %31 = scf.if %30 -> (tensor<*xelem_type>) {\n                 %32 = shape.broadcast %19#0, %1 : tensor<?xindex>, tensor<4xindex> -> tensor<?xindex>\n                 %cast = tensor.cast %32 : tensor<?xindex> to tensor<4xindex>\n-                %33 = mhlo.dynamic_reshape %arg0, %cast : (tensor<*xelem_type>, tensor<4xindex>) -> tensor<?x?x?x?xelem_type>\n+                %33 = tensor.reshape %arg0(%cast) : (tensor<*xelem_type>, tensor<4xindex>) -> tensor<?x?x?x?xelem_type>\n                 %34 = shape.broadcast %19#1, %1 : tensor<?xindex>, tensor<4xindex> -> tensor<?xindex>\n                 %cast_0 = tensor.cast %34 : tensor<?xindex> to tensor<4xindex>\n-                %35 = mhlo.dynamic_reshape %arg1, %cast_0 : (tensor<*xelem_type>, tensor<4xindex>) -> tensor<?x?x?x?xelem_type>\n+                %35 = tensor.reshape %arg1(%cast_0) : (tensor<*xelem_type>, tensor<4xindex>) -> tensor<?x?x?x?xelem_type>\n                 %36 = chlo.broadcast_or %33, %35 : (tensor<?x?x?x?xelem_type>, tensor<?x?x?x?xelem_type>) -> tensor<?x?x?x?xelem_type>\n                 %cast_1 = tensor.cast %36 : tensor<?x?x?x?xelem_type> to tensor<*xelem_type>\n                 scf.yield %cast_1 : tensor<*xelem_type>\n@@ -101,10 +102,10 @@ func.func @BitwiseOr_platform_elem_type_output_type(%arg0: tensor<*xelem_type>,\n                 cf.assert %32, \"Input for dynamic binary or n-ary op lowering was of a rank greater than 5\"\n                 %33 = shape.broadcast %19#0, %0 : tensor<?xindex>, tensor<5xindex> -> tensor<?xindex>\n                 %cast = tensor.cast %33 : tensor<?xindex> to tensor<5xindex>\n-                %34 = mhlo.dynamic_reshape %arg0, %cast : (tensor<*xelem_type>, tensor<5xindex>) -> tensor<?x?x?x?x?xelem_type>\n+                %34 = tensor.reshape %arg0(%cast) : (tensor<*xelem_type>, tensor<5xindex>) -> tensor<?x?x?x?x?xelem_type>\n                 %35 = shape.broadcast %19#1, %0 : tensor<?xindex>, tensor<5xindex> -> tensor<?xindex>\n                 %cast_0 = tensor.cast %35 : tensor<?xindex> to tensor<5xindex>\n-                %36 = mhlo.dynamic_reshape %arg1, %cast_0 : (tensor<*xelem_type>, tensor<5xindex>) -> tensor<?x?x?x?x?xelem_type>\n+                %36 = tensor.reshape %arg1(%cast_0) : (tensor<*xelem_type>, tensor<5xindex>) -> tensor<?x?x?x?x?xelem_type>\n                 %37 = chlo.broadcast_or %34, %36 : (tensor<?x?x?x?x?xelem_type>, tensor<?x?x?x?x?xelem_type>) -> tensor<?x?x?x?x?xelem_type>\n                 %cast_1 = tensor.cast %37 : tensor<?x?x?x?x?xelem_type> to tensor<*xelem_type>\n                 scf.yield %cast_1 : tensor<*xelem_type>\n@@ -124,6 +125,6 @@ func.func @BitwiseOr_platform_elem_type_output_type(%arg0: tensor<*xelem_type>,\n   %10 = shape.shape_of %arg0 : tensor<*xelem_type> -> tensor<?xindex>\n   %11 = shape.shape_of %arg1 : tensor<*xelem_type> -> tensor<?xindex>\n   %12 = shape.broadcast %10, %11 : tensor<?xindex>, tensor<?xindex> -> tensor<?xindex>\n-  %13 = mhlo.dynamic_reshape %9, %12 : (tensor<*xelem_type>, tensor<?xindex>) -> tensor<*xelem_type>\n+  %13 = tensor.reshape %9(%12) : (tensor<*xelem_type>, tensor<?xindex>) -> tensor<*xelem_type>\n   return %13 : tensor<*xelem_type>\n }"
        },
        {
            "sha": "6242dee1599822b1c786f7e11b5446f43788c79e",
            "filename": "tensorflow/core/kernels/mlir_generated/op_definitions/bitwise_xor.mlir.tmpl",
            "status": "modified",
            "additions": 18,
            "deletions": 17,
            "changes": 35,
            "blob_url": "https://github.com/tensorflow/tensorflow/blob/ce6202dd8482f022a0dcc1e6df95fa9e14b6b65f/tensorflow%2Fcore%2Fkernels%2Fmlir_generated%2Fop_definitions%2Fbitwise_xor.mlir.tmpl",
            "raw_url": "https://github.com/tensorflow/tensorflow/raw/ce6202dd8482f022a0dcc1e6df95fa9e14b6b65f/tensorflow%2Fcore%2Fkernels%2Fmlir_generated%2Fop_definitions%2Fbitwise_xor.mlir.tmpl",
            "contents_url": "https://api.github.com/repos/tensorflow/tensorflow/contents/tensorflow%2Fcore%2Fkernels%2Fmlir_generated%2Fop_definitions%2Fbitwise_xor.mlir.tmpl?ref=ce6202dd8482f022a0dcc1e6df95fa9e14b6b65f",
            "patch": "@@ -13,11 +13,12 @@ func.func @BitwiseXor_platform_elem_type_output_type(%arg0: tensor<*xelem_type>,\n   %6 = shape.shape_of %arg1 : tensor<*xelem_type> -> tensor<?xindex>\n   %7 = shape.num_elements %5 : tensor<?xindex> -> index\n   %8 = arith.cmpi eq, %7, %c1 : index\n+  %c_empty = arith.constant dense<> : tensor<0xindex>\n   %9 = scf.if %8 -> (tensor<*xelem_type>) {\n     %14 = shape.num_elements %6 : tensor<?xindex> -> index\n     %from_elements = tensor.from_elements %14 : tensor<1xindex>\n-    %15 = mhlo.reshape %arg0 : (tensor<*xelem_type>) -> tensor<elem_type>\n-    %16 = mhlo.dynamic_reshape %arg1, %from_elements : (tensor<*xelem_type>, tensor<1xindex>) -> tensor<?xelem_type>\n+    %15 = tensor.reshape %arg0(%c_empty) : (tensor<*xelem_type>, tensor<0xindex>) -> tensor<elem_type>\n+    %16 = tensor.reshape %arg1(%from_elements) : (tensor<*xelem_type>, tensor<1xindex>) -> tensor<?xelem_type>\n     %17 = chlo.broadcast_xor %15, %16 : (tensor<elem_type>, tensor<?xelem_type>) -> tensor<?xelem_type>\n     %cast = tensor.cast %17 : tensor<?xelem_type> to tensor<*xelem_type>\n     scf.yield %cast : tensor<*xelem_type>\n@@ -27,8 +28,8 @@ func.func @BitwiseXor_platform_elem_type_output_type(%arg0: tensor<*xelem_type>,\n     %16 = scf.if %15 -> (tensor<*xelem_type>) {\n       %17 = shape.num_elements %5 : tensor<?xindex> -> index\n       %from_elements = tensor.from_elements %17 : tensor<1xindex>\n-      %18 = mhlo.dynamic_reshape %arg0, %from_elements : (tensor<*xelem_type>, tensor<1xindex>) -> tensor<?xelem_type>\n-      %19 = mhlo.reshape %arg1 : (tensor<*xelem_type>) -> tensor<elem_type>\n+      %18 = tensor.reshape %arg0(%from_elements) : (tensor<*xelem_type>, tensor<1xindex>) -> tensor<?xelem_type>\n+      %19 = tensor.reshape %arg1(%c_empty) : (tensor<*xelem_type>, tensor<0xindex>) -> tensor<elem_type>\n       %20 = chlo.broadcast_xor %18, %19 : (tensor<?xelem_type>, tensor<elem_type>) -> tensor<?xelem_type>\n       %cast = tensor.cast %20 : tensor<?xelem_type> to tensor<*xelem_type>\n       scf.yield %cast : tensor<*xelem_type>\n@@ -38,8 +39,8 @@ func.func @BitwiseXor_platform_elem_type_output_type(%arg0: tensor<*xelem_type>,\n         %19 = shape.any %5, %6 : tensor<?xindex>, tensor<?xindex> -> tensor<?xindex>\n         %20 = shape.num_elements %19 : tensor<?xindex> -> index\n         %from_elements = tensor.from_elements %20 : tensor<1xindex>\n-        %21 = mhlo.dynamic_reshape %arg0, %from_elements : (tensor<*xelem_type>, tensor<1xindex>) -> tensor<?xelem_type>\n-        %22 = mhlo.dynamic_reshape %arg1, %from_elements : (tensor<*xelem_type>, tensor<1xindex>) -> tensor<?xelem_type>\n+        %21 = tensor.reshape %arg0(%from_elements) : (tensor<*xelem_type>, tensor<1xindex>) -> tensor<?xelem_type>\n+        %22 = tensor.reshape %arg1(%from_elements) : (tensor<*xelem_type>, tensor<1xindex>) -> tensor<?xelem_type>\n         %23 = chlo.broadcast_xor %21, %22 : (tensor<?xelem_type>, tensor<?xelem_type>) -> tensor<?xelem_type>\n         %cast = tensor.cast %23 : tensor<?xelem_type> to tensor<*xelem_type>\n         scf.yield %cast : tensor<*xelem_type>\n@@ -53,10 +54,10 @@ func.func @BitwiseXor_platform_elem_type_output_type(%arg0: tensor<*xelem_type>,\n         %25 = scf.if %24 -> (tensor<*xelem_type>) {\n           %26 = shape.broadcast %19#0, %4 : tensor<?xindex>, tensor<1xindex> -> tensor<?xindex>\n           %cast = tensor.cast %26 : tensor<?xindex> to tensor<1xindex>\n-          %27 = mhlo.dynamic_reshape %arg0, %cast : (tensor<*xelem_type>, tensor<1xindex>) -> tensor<?xelem_type>\n+          %27 = tensor.reshape %arg0(%cast) : (tensor<*xelem_type>, tensor<1xindex>) -> tensor<?xelem_type>\n           %28 = shape.broadcast %19#1, %4 : tensor<?xindex>, tensor<1xindex> -> tensor<?xindex>\n           %cast_0 = tensor.cast %28 : tensor<?xindex> to tensor<1xindex>\n-          %29 = mhlo.dynamic_reshape %arg1, %cast_0 : (tensor<*xelem_type>, tensor<1xindex>) -> tensor<?xelem_type>\n+          %29 = tensor.reshape %arg1(%cast_0) : (tensor<*xelem_type>, tensor<1xindex>) -> tensor<?xelem_type>\n           %30 = chlo.broadcast_xor %27, %29 : (tensor<?xelem_type>, tensor<?xelem_type>) -> tensor<?xelem_type>\n           %cast_1 = tensor.cast %30 : tensor<?xelem_type> to tensor<*xelem_type>\n           scf.yield %cast_1 : tensor<*xelem_type>\n@@ -65,10 +66,10 @@ func.func @BitwiseXor_platform_elem_type_output_type(%arg0: tensor<*xelem_type>,\n           %27 = scf.if %26 -> (tensor<*xelem_type>) {\n             %28 = shape.broadcast %19#0, %3 : tensor<?xindex>, tensor<2xindex> -> tensor<?xindex>\n             %cast = tensor.cast %28 : tensor<?xindex> to tensor<2xindex>\n-            %29 = mhlo.dynamic_reshape %arg0, %cast : (tensor<*xelem_type>, tensor<2xindex>) -> tensor<?x?xelem_type>\n+            %29 = tensor.reshape %arg0(%cast) : (tensor<*xelem_type>, tensor<2xindex>) -> tensor<?x?xelem_type>\n             %30 = shape.broadcast %19#1, %3 : tensor<?xindex>, tensor<2xindex> -> tensor<?xindex>\n             %cast_0 = tensor.cast %30 : tensor<?xindex> to tensor<2xindex>\n-            %31 = mhlo.dynamic_reshape %arg1, %cast_0 : (tensor<*xelem_type>, tensor<2xindex>) -> tensor<?x?xelem_type>\n+            %31 = tensor.reshape %arg1(%cast_0) : (tensor<*xelem_type>, tensor<2xindex>) -> tensor<?x?xelem_type>\n             %32 = chlo.broadcast_xor %29, %31 : (tensor<?x?xelem_type>, tensor<?x?xelem_type>) -> tensor<?x?xelem_type>\n             %cast_1 = tensor.cast %32 : tensor<?x?xelem_type> to tensor<*xelem_type>\n             scf.yield %cast_1 : tensor<*xelem_type>\n@@ -77,10 +78,10 @@ func.func @BitwiseXor_platform_elem_type_output_type(%arg0: tensor<*xelem_type>,\n             %29 = scf.if %28 -> (tensor<*xelem_type>) {\n               %30 = shape.broadcast %19#0, %2 : tensor<?xindex>, tensor<3xindex> -> tensor<?xindex>\n               %cast = tensor.cast %30 : tensor<?xindex> to tensor<3xindex>\n-              %31 = mhlo.dynamic_reshape %arg0, %cast : (tensor<*xelem_type>, tensor<3xindex>) -> tensor<?x?x?xelem_type>\n+              %31 = tensor.reshape %arg0(%cast) : (tensor<*xelem_type>, tensor<3xindex>) -> tensor<?x?x?xelem_type>\n               %32 = shape.broadcast %19#1, %2 : tensor<?xindex>, tensor<3xindex> -> tensor<?xindex>\n               %cast_0 = tensor.cast %32 : tensor<?xindex> to tensor<3xindex>\n-              %33 = mhlo.dynamic_reshape %arg1, %cast_0 : (tensor<*xelem_type>, tensor<3xindex>) -> tensor<?x?x?xelem_type>\n+              %33 = tensor.reshape %arg1(%cast_0) : (tensor<*xelem_type>, tensor<3xindex>) -> tensor<?x?x?xelem_type>\n               %34 = chlo.broadcast_xor %31, %33 : (tensor<?x?x?xelem_type>, tensor<?x?x?xelem_type>) -> tensor<?x?x?xelem_type>\n               %cast_1 = tensor.cast %34 : tensor<?x?x?xelem_type> to tensor<*xelem_type>\n               scf.yield %cast_1 : tensor<*xelem_type>\n@@ -89,10 +90,10 @@ func.func @BitwiseXor_platform_elem_type_output_type(%arg0: tensor<*xelem_type>,\n               %31 = scf.if %30 -> (tensor<*xelem_type>) {\n                 %32 = shape.broadcast %19#0, %1 : tensor<?xindex>, tensor<4xindex> -> tensor<?xindex>\n                 %cast = tensor.cast %32 : tensor<?xindex> to tensor<4xindex>\n-                %33 = mhlo.dynamic_reshape %arg0, %cast : (tensor<*xelem_type>, tensor<4xindex>) -> tensor<?x?x?x?xelem_type>\n+                %33 = tensor.reshape %arg0(%cast) : (tensor<*xelem_type>, tensor<4xindex>) -> tensor<?x?x?x?xelem_type>\n                 %34 = shape.broadcast %19#1, %1 : tensor<?xindex>, tensor<4xindex> -> tensor<?xindex>\n                 %cast_0 = tensor.cast %34 : tensor<?xindex> to tensor<4xindex>\n-                %35 = mhlo.dynamic_reshape %arg1, %cast_0 : (tensor<*xelem_type>, tensor<4xindex>) -> tensor<?x?x?x?xelem_type>\n+                %35 = tensor.reshape %arg1(%cast_0) : (tensor<*xelem_type>, tensor<4xindex>) -> tensor<?x?x?x?xelem_type>\n                 %36 = chlo.broadcast_xor %33, %35 : (tensor<?x?x?x?xelem_type>, tensor<?x?x?x?xelem_type>) -> tensor<?x?x?x?xelem_type>\n                 %cast_1 = tensor.cast %36 : tensor<?x?x?x?xelem_type> to tensor<*xelem_type>\n                 scf.yield %cast_1 : tensor<*xelem_type>\n@@ -101,10 +102,10 @@ func.func @BitwiseXor_platform_elem_type_output_type(%arg0: tensor<*xelem_type>,\n                 cf.assert %32, \"Input for dynamic binary or n-ary op lowering was of a rank greater than 5\"\n                 %33 = shape.broadcast %19#0, %0 : tensor<?xindex>, tensor<5xindex> -> tensor<?xindex>\n                 %cast = tensor.cast %33 : tensor<?xindex> to tensor<5xindex>\n-                %34 = mhlo.dynamic_reshape %arg0, %cast : (tensor<*xelem_type>, tensor<5xindex>) -> tensor<?x?x?x?x?xelem_type>\n+                %34 = tensor.reshape %arg0(%cast) : (tensor<*xelem_type>, tensor<5xindex>) -> tensor<?x?x?x?x?xelem_type>\n                 %35 = shape.broadcast %19#1, %0 : tensor<?xindex>, tensor<5xindex> -> tensor<?xindex>\n                 %cast_0 = tensor.cast %35 : tensor<?xindex> to tensor<5xindex>\n-                %36 = mhlo.dynamic_reshape %arg1, %cast_0 : (tensor<*xelem_type>, tensor<5xindex>) -> tensor<?x?x?x?x?xelem_type>\n+                %36 = tensor.reshape %arg1(%cast_0) : (tensor<*xelem_type>, tensor<5xindex>) -> tensor<?x?x?x?x?xelem_type>\n                 %37 = chlo.broadcast_xor %34, %36 : (tensor<?x?x?x?x?xelem_type>, tensor<?x?x?x?x?xelem_type>) -> tensor<?x?x?x?x?xelem_type>\n                 %cast_1 = tensor.cast %37 : tensor<?x?x?x?x?xelem_type> to tensor<*xelem_type>\n                 scf.yield %cast_1 : tensor<*xelem_type>\n@@ -124,6 +125,6 @@ func.func @BitwiseXor_platform_elem_type_output_type(%arg0: tensor<*xelem_type>,\n   %10 = shape.shape_of %arg0 : tensor<*xelem_type> -> tensor<?xindex>\n   %11 = shape.shape_of %arg1 : tensor<*xelem_type> -> tensor<?xindex>\n   %12 = shape.broadcast %10, %11 : tensor<?xindex>, tensor<?xindex> -> tensor<?xindex>\n-  %13 = mhlo.dynamic_reshape %9, %12 : (tensor<*xelem_type>, tensor<?xindex>) -> tensor<*xelem_type>\n+  %13 = tensor.reshape %9(%12) : (tensor<*xelem_type>, tensor<?xindex>) -> tensor<*xelem_type>\n   return %13 : tensor<*xelem_type>\n }"
        },
        {
            "sha": "a7ebb285b86b4fffefde19a0b994a68129f56794",
            "filename": "tensorflow/core/kernels/mlir_generated/op_definitions/cast.mlir.tmpl",
            "status": "modified",
            "additions": 2,
            "deletions": 2,
            "changes": 4,
            "blob_url": "https://github.com/tensorflow/tensorflow/blob/ce6202dd8482f022a0dcc1e6df95fa9e14b6b65f/tensorflow%2Fcore%2Fkernels%2Fmlir_generated%2Fop_definitions%2Fcast.mlir.tmpl",
            "raw_url": "https://github.com/tensorflow/tensorflow/raw/ce6202dd8482f022a0dcc1e6df95fa9e14b6b65f/tensorflow%2Fcore%2Fkernels%2Fmlir_generated%2Fop_definitions%2Fcast.mlir.tmpl",
            "contents_url": "https://api.github.com/repos/tensorflow/tensorflow/contents/tensorflow%2Fcore%2Fkernels%2Fmlir_generated%2Fop_definitions%2Fcast.mlir.tmpl?ref=ce6202dd8482f022a0dcc1e6df95fa9e14b6b65f",
            "patch": "@@ -2,8 +2,8 @@ func.func @Cast_platform_elem_type_output_type(%arg0: tensor<*xelem_type>) -> te\n   %0 = shape.shape_of %arg0 : tensor<*xelem_type> -> tensor<?xindex>\n   %1 = shape.num_elements %0 : tensor<?xindex> -> index\n   %from_elements = tensor.from_elements %1 : tensor<1xindex>\n-  %2 = mhlo.dynamic_reshape %arg0, %from_elements : (tensor<*xelem_type>, tensor<1xindex>) -> tensor<?xelem_type>\n+  %2 = tensor.reshape %arg0(%from_elements) : (tensor<*xelem_type>, tensor<1xindex>) -> tensor<?xelem_type>\n   %3 = mhlo.convert %2 : (tensor<?xelem_type>) -> tensor<?xoutput_type>\n-  %4 = mhlo.dynamic_reshape %3, %0 : (tensor<?xoutput_type>, tensor<?xindex>) -> tensor<*xoutput_type>\n+  %4 = tensor.reshape %3(%0) : (tensor<?xoutput_type>, tensor<?xindex>) -> tensor<*xoutput_type>\n   return %4 : tensor<*xoutput_type>\n }"
        },
        {
            "sha": "c6a60e309daec0bbf41b5e26d60f38450dc99f06",
            "filename": "tensorflow/core/kernels/mlir_generated/op_definitions/ceil.mlir.tmpl",
            "status": "modified",
            "additions": 2,
            "deletions": 2,
            "changes": 4,
            "blob_url": "https://github.com/tensorflow/tensorflow/blob/ce6202dd8482f022a0dcc1e6df95fa9e14b6b65f/tensorflow%2Fcore%2Fkernels%2Fmlir_generated%2Fop_definitions%2Fceil.mlir.tmpl",
            "raw_url": "https://github.com/tensorflow/tensorflow/raw/ce6202dd8482f022a0dcc1e6df95fa9e14b6b65f/tensorflow%2Fcore%2Fkernels%2Fmlir_generated%2Fop_definitions%2Fceil.mlir.tmpl",
            "contents_url": "https://api.github.com/repos/tensorflow/tensorflow/contents/tensorflow%2Fcore%2Fkernels%2Fmlir_generated%2Fop_definitions%2Fceil.mlir.tmpl?ref=ce6202dd8482f022a0dcc1e6df95fa9e14b6b65f",
            "patch": "@@ -2,8 +2,8 @@ func.func @Ceil_platform_elem_type_output_type(%arg0: tensor<*xelem_type>) -> te\n   %0 = shape.shape_of %arg0 : tensor<*xelem_type> -> tensor<?xindex>\n   %1 = shape.num_elements %0 : tensor<?xindex> -> index\n   %from_elements = tensor.from_elements %1 : tensor<1xindex>\n-  %2 = mhlo.dynamic_reshape %arg0, %from_elements : (tensor<*xelem_type>, tensor<1xindex>) -> tensor<?xelem_type>\n+  %2 = tensor.reshape %arg0(%from_elements) : (tensor<*xelem_type>, tensor<1xindex>) -> tensor<?xelem_type>\n   %3 = mhlo.ceil %2 : tensor<?xelem_type>\n-  %4 = mhlo.dynamic_reshape %3, %0 : (tensor<?xelem_type>, tensor<?xindex>) -> tensor<*xelem_type>\n+  %4 = tensor.reshape %3(%0) : (tensor<?xelem_type>, tensor<?xindex>) -> tensor<*xelem_type>\n   return %4 : tensor<*xelem_type>\n }"
        },
        {
            "sha": "bc897d0c33f6422b3d86cff46e27dd9a93fdf71e",
            "filename": "tensorflow/core/kernels/mlir_generated/op_definitions/complex.mlir.tmpl",
            "status": "modified",
            "additions": 18,
            "deletions": 17,
            "changes": 35,
            "blob_url": "https://github.com/tensorflow/tensorflow/blob/ce6202dd8482f022a0dcc1e6df95fa9e14b6b65f/tensorflow%2Fcore%2Fkernels%2Fmlir_generated%2Fop_definitions%2Fcomplex.mlir.tmpl",
            "raw_url": "https://github.com/tensorflow/tensorflow/raw/ce6202dd8482f022a0dcc1e6df95fa9e14b6b65f/tensorflow%2Fcore%2Fkernels%2Fmlir_generated%2Fop_definitions%2Fcomplex.mlir.tmpl",
            "contents_url": "https://api.github.com/repos/tensorflow/tensorflow/contents/tensorflow%2Fcore%2Fkernels%2Fmlir_generated%2Fop_definitions%2Fcomplex.mlir.tmpl?ref=ce6202dd8482f022a0dcc1e6df95fa9e14b6b65f",
            "patch": "@@ -13,11 +13,12 @@ func.func @Complex_platform_elem_type_output_type(%arg0: tensor<*xelem_type>, %a\n   %6 = shape.shape_of %arg1 : tensor<*xelem_type> -> tensor<?xindex>\n   %7 = shape.num_elements %5 : tensor<?xindex> -> index\n   %8 = arith.cmpi eq, %7, %c1 : index\n+  %c_empty = arith.constant dense<> : tensor<0xindex>\n   %9 = scf.if %8 -> (tensor<*xoutput_type>) {\n     %14 = shape.num_elements %6 : tensor<?xindex> -> index\n     %from_elements = tensor.from_elements %14 : tensor<1xindex>\n-    %15 = mhlo.reshape %arg0 : (tensor<*xelem_type>) -> tensor<elem_type>\n-    %16 = mhlo.dynamic_reshape %arg1, %from_elements : (tensor<*xelem_type>, tensor<1xindex>) -> tensor<?xelem_type>\n+    %15 = tensor.reshape %arg0(%c_empty) : (tensor<*xelem_type>, tensor<0xindex>) -> tensor<elem_type>\n+    %16 = tensor.reshape %arg1(%from_elements) : (tensor<*xelem_type>, tensor<1xindex>) -> tensor<?xelem_type>\n     %17 = chlo.broadcast_complex %15, %16 : (tensor<elem_type>, tensor<?xelem_type>) -> tensor<?xoutput_type>\n     %cast = tensor.cast %17 : tensor<?xoutput_type> to tensor<*xoutput_type>\n     scf.yield %cast : tensor<*xoutput_type>\n@@ -27,8 +28,8 @@ func.func @Complex_platform_elem_type_output_type(%arg0: tensor<*xelem_type>, %a\n     %16 = scf.if %15 -> (tensor<*xoutput_type>) {\n       %17 = shape.num_elements %5 : tensor<?xindex> -> index\n       %from_elements = tensor.from_elements %17 : tensor<1xindex>\n-      %18 = mhlo.dynamic_reshape %arg0, %from_elements : (tensor<*xelem_type>, tensor<1xindex>) -> tensor<?xelem_type>\n-      %19 = mhlo.reshape %arg1 : (tensor<*xelem_type>) -> tensor<elem_type>\n+      %18 = tensor.reshape %arg0(%from_elements) : (tensor<*xelem_type>, tensor<1xindex>) -> tensor<?xelem_type>\n+      %19 = tensor.reshape %arg1(%c_empty) : (tensor<*xelem_type>, tensor<0xindex>) -> tensor<elem_type>\n       %20 = chlo.broadcast_complex %18, %19 : (tensor<?xelem_type>, tensor<elem_type>) -> tensor<?xoutput_type>\n       %cast = tensor.cast %20 : tensor<?xoutput_type> to tensor<*xoutput_type>\n       scf.yield %cast : tensor<*xoutput_type>\n@@ -38,8 +39,8 @@ func.func @Complex_platform_elem_type_output_type(%arg0: tensor<*xelem_type>, %a\n         %19 = shape.any %5, %6 : tensor<?xindex>, tensor<?xindex> -> tensor<?xindex>\n         %20 = shape.num_elements %19 : tensor<?xindex> -> index\n         %from_elements = tensor.from_elements %20 : tensor<1xindex>\n-        %21 = mhlo.dynamic_reshape %arg0, %from_elements : (tensor<*xelem_type>, tensor<1xindex>) -> tensor<?xelem_type>\n-        %22 = mhlo.dynamic_reshape %arg1, %from_elements : (tensor<*xelem_type>, tensor<1xindex>) -> tensor<?xelem_type>\n+        %21 = tensor.reshape %arg0(%from_elements) : (tensor<*xelem_type>, tensor<1xindex>) -> tensor<?xelem_type>\n+        %22 = tensor.reshape %arg1(%from_elements) : (tensor<*xelem_type>, tensor<1xindex>) -> tensor<?xelem_type>\n         %23 = chlo.broadcast_complex %21, %22 : (tensor<?xelem_type>, tensor<?xelem_type>) -> tensor<?xoutput_type>\n         %cast = tensor.cast %23 : tensor<?xoutput_type> to tensor<*xoutput_type>\n         scf.yield %cast : tensor<*xoutput_type>\n@@ -53,10 +54,10 @@ func.func @Complex_platform_elem_type_output_type(%arg0: tensor<*xelem_type>, %a\n         %25 = scf.if %24 -> (tensor<*xoutput_type>) {\n           %26 = shape.broadcast %19#0, %4 : tensor<?xindex>, tensor<1xindex> -> tensor<?xindex>\n           %cast = tensor.cast %26 : tensor<?xindex> to tensor<1xindex>\n-          %27 = mhlo.dynamic_reshape %arg0, %cast : (tensor<*xelem_type>, tensor<1xindex>) -> tensor<?xelem_type>\n+          %27 = tensor.reshape %arg0(%cast) : (tensor<*xelem_type>, tensor<1xindex>) -> tensor<?xelem_type>\n           %28 = shape.broadcast %19#1, %4 : tensor<?xindex>, tensor<1xindex> -> tensor<?xindex>\n           %cast_0 = tensor.cast %28 : tensor<?xindex> to tensor<1xindex>\n-          %29 = mhlo.dynamic_reshape %arg1, %cast_0 : (tensor<*xelem_type>, tensor<1xindex>) -> tensor<?xelem_type>\n+          %29 = tensor.reshape %arg1(%cast_0) : (tensor<*xelem_type>, tensor<1xindex>) -> tensor<?xelem_type>\n           %30 = chlo.broadcast_complex %27, %29 : (tensor<?xelem_type>, tensor<?xelem_type>) -> tensor<?xoutput_type>\n           %cast_1 = tensor.cast %30 : tensor<?xoutput_type> to tensor<*xoutput_type>\n           scf.yield %cast_1 : tensor<*xoutput_type>\n@@ -65,10 +66,10 @@ func.func @Complex_platform_elem_type_output_type(%arg0: tensor<*xelem_type>, %a\n           %27 = scf.if %26 -> (tensor<*xoutput_type>) {\n             %28 = shape.broadcast %19#0, %3 : tensor<?xindex>, tensor<2xindex> -> tensor<?xindex>\n             %cast = tensor.cast %28 : tensor<?xindex> to tensor<2xindex>\n-            %29 = mhlo.dynamic_reshape %arg0, %cast : (tensor<*xelem_type>, tensor<2xindex>) -> tensor<?x?xelem_type>\n+            %29 = tensor.reshape %arg0(%cast) : (tensor<*xelem_type>, tensor<2xindex>) -> tensor<?x?xelem_type>\n             %30 = shape.broadcast %19#1, %3 : tensor<?xindex>, tensor<2xindex> -> tensor<?xindex>\n             %cast_0 = tensor.cast %30 : tensor<?xindex> to tensor<2xindex>\n-            %31 = mhlo.dynamic_reshape %arg1, %cast_0 : (tensor<*xelem_type>, tensor<2xindex>) -> tensor<?x?xelem_type>\n+            %31 = tensor.reshape %arg1(%cast_0) : (tensor<*xelem_type>, tensor<2xindex>) -> tensor<?x?xelem_type>\n             %32 = chlo.broadcast_complex %29, %31 : (tensor<?x?xelem_type>, tensor<?x?xelem_type>) -> tensor<?x?xoutput_type>\n             %cast_1 = tensor.cast %32 : tensor<?x?xoutput_type> to tensor<*xoutput_type>\n             scf.yield %cast_1 : tensor<*xoutput_type>\n@@ -77,10 +78,10 @@ func.func @Complex_platform_elem_type_output_type(%arg0: tensor<*xelem_type>, %a\n             %29 = scf.if %28 -> (tensor<*xoutput_type>) {\n               %30 = shape.broadcast %19#0, %2 : tensor<?xindex>, tensor<3xindex> -> tensor<?xindex>\n               %cast = tensor.cast %30 : tensor<?xindex> to tensor<3xindex>\n-              %31 = mhlo.dynamic_reshape %arg0, %cast : (tensor<*xelem_type>, tensor<3xindex>) -> tensor<?x?x?xelem_type>\n+              %31 = tensor.reshape %arg0(%cast) : (tensor<*xelem_type>, tensor<3xindex>) -> tensor<?x?x?xelem_type>\n               %32 = shape.broadcast %19#1, %2 : tensor<?xindex>, tensor<3xindex> -> tensor<?xindex>\n               %cast_0 = tensor.cast %32 : tensor<?xindex> to tensor<3xindex>\n-              %33 = mhlo.dynamic_reshape %arg1, %cast_0 : (tensor<*xelem_type>, tensor<3xindex>) -> tensor<?x?x?xelem_type>\n+              %33 = tensor.reshape %arg1(%cast_0) : (tensor<*xelem_type>, tensor<3xindex>) -> tensor<?x?x?xelem_type>\n               %34 = chlo.broadcast_complex %31, %33 : (tensor<?x?x?xelem_type>, tensor<?x?x?xelem_type>) -> tensor<?x?x?xoutput_type>\n               %cast_1 = tensor.cast %34 : tensor<?x?x?xoutput_type> to tensor<*xoutput_type>\n               scf.yield %cast_1 : tensor<*xoutput_type>\n@@ -89,10 +90,10 @@ func.func @Complex_platform_elem_type_output_type(%arg0: tensor<*xelem_type>, %a\n               %31 = scf.if %30 -> (tensor<*xoutput_type>) {\n                 %32 = shape.broadcast %19#0, %1 : tensor<?xindex>, tensor<4xindex> -> tensor<?xindex>\n                 %cast = tensor.cast %32 : tensor<?xindex> to tensor<4xindex>\n-                %33 = mhlo.dynamic_reshape %arg0, %cast : (tensor<*xelem_type>, tensor<4xindex>) -> tensor<?x?x?x?xelem_type>\n+                %33 = tensor.reshape %arg0(%cast) : (tensor<*xelem_type>, tensor<4xindex>) -> tensor<?x?x?x?xelem_type>\n                 %34 = shape.broadcast %19#1, %1 : tensor<?xindex>, tensor<4xindex> -> tensor<?xindex>\n                 %cast_0 = tensor.cast %34 : tensor<?xindex> to tensor<4xindex>\n-                %35 = mhlo.dynamic_reshape %arg1, %cast_0 : (tensor<*xelem_type>, tensor<4xindex>) -> tensor<?x?x?x?xelem_type>\n+                %35 = tensor.reshape %arg1(%cast_0) : (tensor<*xelem_type>, tensor<4xindex>) -> tensor<?x?x?x?xelem_type>\n                 %36 = chlo.broadcast_complex %33, %35 : (tensor<?x?x?x?xelem_type>, tensor<?x?x?x?xelem_type>) -> tensor<?x?x?x?xoutput_type>\n                 %cast_1 = tensor.cast %36 : tensor<?x?x?x?xoutput_type> to tensor<*xoutput_type>\n                 scf.yield %cast_1 : tensor<*xoutput_type>\n@@ -101,10 +102,10 @@ func.func @Complex_platform_elem_type_output_type(%arg0: tensor<*xelem_type>, %a\n                 cf.assert %32, \"Input for dynamic binary or n-ary op lowering was of a rank greater than 5\"\n                 %33 = shape.broadcast %19#0, %0 : tensor<?xindex>, tensor<5xindex> -> tensor<?xindex>\n                 %cast = tensor.cast %33 : tensor<?xindex> to tensor<5xindex>\n-                %34 = mhlo.dynamic_reshape %arg0, %cast : (tensor<*xelem_type>, tensor<5xindex>) -> tensor<?x?x?x?x?xelem_type>\n+                %34 = tensor.reshape %arg0(%cast) : (tensor<*xelem_type>, tensor<5xindex>) -> tensor<?x?x?x?x?xelem_type>\n                 %35 = shape.broadcast %19#1, %0 : tensor<?xindex>, tensor<5xindex> -> tensor<?xindex>\n                 %cast_0 = tensor.cast %35 : tensor<?xindex> to tensor<5xindex>\n-                %36 = mhlo.dynamic_reshape %arg1, %cast_0 : (tensor<*xelem_type>, tensor<5xindex>) -> tensor<?x?x?x?x?xelem_type>\n+                %36 = tensor.reshape %arg1(%cast_0) : (tensor<*xelem_type>, tensor<5xindex>) -> tensor<?x?x?x?x?xelem_type>\n                 %37 = chlo.broadcast_complex %34, %36 : (tensor<?x?x?x?x?xelem_type>, tensor<?x?x?x?x?xelem_type>) -> tensor<?x?x?x?x?xoutput_type>\n                 %cast_1 = tensor.cast %37 : tensor<?x?x?x?x?xoutput_type> to tensor<*xoutput_type>\n                 scf.yield %cast_1 : tensor<*xoutput_type>\n@@ -124,6 +125,6 @@ func.func @Complex_platform_elem_type_output_type(%arg0: tensor<*xelem_type>, %a\n   %10 = shape.shape_of %arg0 : tensor<*xelem_type> -> tensor<?xindex>\n   %11 = shape.shape_of %arg1 : tensor<*xelem_type> -> tensor<?xindex>\n   %12 = shape.broadcast %10, %11 : tensor<?xindex>, tensor<?xindex> -> tensor<?xindex>\n-  %13 = mhlo.dynamic_reshape %9, %12 : (tensor<*xoutput_type>, tensor<?xindex>) -> tensor<*xoutput_type>\n+  %13 = tensor.reshape %9(%12) : (tensor<*xoutput_type>, tensor<?xindex>) -> tensor<*xoutput_type>\n   return %13 : tensor<*xoutput_type>\n }"
        },
        {
            "sha": "7ad8f82d3922970b4b17ff26b7049e66be76648c",
            "filename": "tensorflow/core/kernels/mlir_generated/op_definitions/complex_abs.mlir.tmpl",
            "status": "modified",
            "additions": 2,
            "deletions": 2,
            "changes": 4,
            "blob_url": "https://github.com/tensorflow/tensorflow/blob/ce6202dd8482f022a0dcc1e6df95fa9e14b6b65f/tensorflow%2Fcore%2Fkernels%2Fmlir_generated%2Fop_definitions%2Fcomplex_abs.mlir.tmpl",
            "raw_url": "https://github.com/tensorflow/tensorflow/raw/ce6202dd8482f022a0dcc1e6df95fa9e14b6b65f/tensorflow%2Fcore%2Fkernels%2Fmlir_generated%2Fop_definitions%2Fcomplex_abs.mlir.tmpl",
            "contents_url": "https://api.github.com/repos/tensorflow/tensorflow/contents/tensorflow%2Fcore%2Fkernels%2Fmlir_generated%2Fop_definitions%2Fcomplex_abs.mlir.tmpl?ref=ce6202dd8482f022a0dcc1e6df95fa9e14b6b65f",
            "patch": "@@ -2,8 +2,8 @@ func.func @ComplexAbs_platform_elem_type_output_type(%arg0: tensor<*xelem_type>)\n   %0 = shape.shape_of %arg0 : tensor<*xelem_type> -> tensor<?xindex>\n   %1 = shape.num_elements %0 : tensor<?xindex> -> index\n   %from_elements = tensor.from_elements %1 : tensor<1xindex>\n-  %2 = mhlo.dynamic_reshape %arg0, %from_elements : (tensor<*xelem_type>, tensor<1xindex>) -> tensor<?xelem_type>\n+  %2 = tensor.reshape %arg0(%from_elements) : (tensor<*xelem_type>, tensor<1xindex>) -> tensor<?xelem_type>\n   %3 = mhlo.abs %2 : (tensor<?xelem_type>) -> tensor<?xoutput_type>\n-  %4 = mhlo.dynamic_reshape %3, %0 : (tensor<?xoutput_type>, tensor<?xindex>) -> tensor<*xoutput_type>\n+  %4 = tensor.reshape %3(%0) : (tensor<?xoutput_type>, tensor<?xindex>) -> tensor<*xoutput_type>\n   return %4 : tensor<*xoutput_type>\n }"
        },
        {
            "sha": "8e63be83fa105b8cf644d3df7d12aea01003c95e",
            "filename": "tensorflow/core/kernels/mlir_generated/op_definitions/conj.mlir.tmpl",
            "status": "modified",
            "additions": 2,
            "deletions": 2,
            "changes": 4,
            "blob_url": "https://github.com/tensorflow/tensorflow/blob/ce6202dd8482f022a0dcc1e6df95fa9e14b6b65f/tensorflow%2Fcore%2Fkernels%2Fmlir_generated%2Fop_definitions%2Fconj.mlir.tmpl",
            "raw_url": "https://github.com/tensorflow/tensorflow/raw/ce6202dd8482f022a0dcc1e6df95fa9e14b6b65f/tensorflow%2Fcore%2Fkernels%2Fmlir_generated%2Fop_definitions%2Fconj.mlir.tmpl",
            "contents_url": "https://api.github.com/repos/tensorflow/tensorflow/contents/tensorflow%2Fcore%2Fkernels%2Fmlir_generated%2Fop_definitions%2Fconj.mlir.tmpl?ref=ce6202dd8482f022a0dcc1e6df95fa9e14b6b65f",
            "patch": "@@ -2,8 +2,8 @@ func.func @Conj_platform_elem_type_output_type(%arg0: tensor<*xelem_type>) -> te\n   %0 = shape.shape_of %arg0 : tensor<*xelem_type> -> tensor<?xindex>\n   %1 = shape.num_elements %0 : tensor<?xindex> -> index\n   %from_elements = tensor.from_elements %1 : tensor<1xindex>\n-  %2 = mhlo.dynamic_reshape %arg0, %from_elements : (tensor<*xelem_type>, tensor<1xindex>) -> tensor<?xelem_type>\n+  %2 = tensor.reshape %arg0(%from_elements) : (tensor<*xelem_type>, tensor<1xindex>) -> tensor<?xelem_type>\n   %3 = chlo.conj %2 : tensor<?xelem_type> -> tensor<?xoutput_type>\n-  %4 = mhlo.dynamic_reshape %3, %0 : (tensor<?xoutput_type>, tensor<?xindex>) -> tensor<*xoutput_type>\n+  %4 = tensor.reshape %3(%0) : (tensor<?xoutput_type>, tensor<?xindex>) -> tensor<*xoutput_type>\n   return %4 : tensor<*xoutput_type>\n }"
        },
        {
            "sha": "1f7a59e1b8802747a4bf634d8e9f173452a57e26",
            "filename": "tensorflow/core/kernels/mlir_generated/op_definitions/cos.mlir.tmpl",
            "status": "modified",
            "additions": 2,
            "deletions": 2,
            "changes": 4,
            "blob_url": "https://github.com/tensorflow/tensorflow/blob/ce6202dd8482f022a0dcc1e6df95fa9e14b6b65f/tensorflow%2Fcore%2Fkernels%2Fmlir_generated%2Fop_definitions%2Fcos.mlir.tmpl",
            "raw_url": "https://github.com/tensorflow/tensorflow/raw/ce6202dd8482f022a0dcc1e6df95fa9e14b6b65f/tensorflow%2Fcore%2Fkernels%2Fmlir_generated%2Fop_definitions%2Fcos.mlir.tmpl",
            "contents_url": "https://api.github.com/repos/tensorflow/tensorflow/contents/tensorflow%2Fcore%2Fkernels%2Fmlir_generated%2Fop_definitions%2Fcos.mlir.tmpl?ref=ce6202dd8482f022a0dcc1e6df95fa9e14b6b65f",
            "patch": "@@ -2,8 +2,8 @@ func.func @Cos_platform_elem_type_output_type(%arg0: tensor<*xelem_type>) -> ten\n   %0 = shape.shape_of %arg0 : tensor<*xelem_type> -> tensor<?xindex>\n   %1 = shape.num_elements %0 : tensor<?xindex> -> index\n   %from_elements = tensor.from_elements %1 : tensor<1xindex>\n-  %2 = mhlo.dynamic_reshape %arg0, %from_elements : (tensor<*xelem_type>, tensor<1xindex>) -> tensor<?xelem_type>\n+  %2 = tensor.reshape %arg0(%from_elements) : (tensor<*xelem_type>, tensor<1xindex>) -> tensor<?xelem_type>\n   %3 = mhlo.cosine %2 : tensor<?xelem_type>\n-  %4 = mhlo.dynamic_reshape %3, %0 : (tensor<?xelem_type>, tensor<?xindex>) -> tensor<*xelem_type>\n+  %4 = tensor.reshape %3(%0) : (tensor<?xelem_type>, tensor<?xindex>) -> tensor<*xelem_type>\n   return %4 : tensor<*xelem_type>\n }"
        },
        {
            "sha": "f431fff754f6a0e13f6765f2d30fd56b623d7314",
            "filename": "tensorflow/core/kernels/mlir_generated/op_definitions/cosh.mlir.tmpl",
            "status": "modified",
            "additions": 2,
            "deletions": 2,
            "changes": 4,
            "blob_url": "https://github.com/tensorflow/tensorflow/blob/ce6202dd8482f022a0dcc1e6df95fa9e14b6b65f/tensorflow%2Fcore%2Fkernels%2Fmlir_generated%2Fop_definitions%2Fcosh.mlir.tmpl",
            "raw_url": "https://github.com/tensorflow/tensorflow/raw/ce6202dd8482f022a0dcc1e6df95fa9e14b6b65f/tensorflow%2Fcore%2Fkernels%2Fmlir_generated%2Fop_definitions%2Fcosh.mlir.tmpl",
            "contents_url": "https://api.github.com/repos/tensorflow/tensorflow/contents/tensorflow%2Fcore%2Fkernels%2Fmlir_generated%2Fop_definitions%2Fcosh.mlir.tmpl?ref=ce6202dd8482f022a0dcc1e6df95fa9e14b6b65f",
            "patch": "@@ -2,8 +2,8 @@ func.func @Cosh_platform_elem_type_output_type(%arg0: tensor<*xelem_type>) -> te\n   %0 = shape.shape_of %arg0 : tensor<*xelem_type> -> tensor<?xindex>\n   %1 = shape.num_elements %0 : tensor<?xindex> -> index\n   %from_elements = tensor.from_elements %1 : tensor<1xindex>\n-  %2 = mhlo.dynamic_reshape %arg0, %from_elements : (tensor<*xelem_type>, tensor<1xindex>) -> tensor<?xelem_type>\n+  %2 = tensor.reshape %arg0(%from_elements) : (tensor<*xelem_type>, tensor<1xindex>) -> tensor<?xelem_type>\n   %3 = chlo.cosh %2 : tensor<?xelem_type> -> tensor<?xoutput_type>\n-  %4 = mhlo.dynamic_reshape %3, %0 : (tensor<?xoutput_type>, tensor<?xindex>) -> tensor<*xoutput_type>\n+  %4 = tensor.reshape %3(%0) : (tensor<?xoutput_type>, tensor<?xindex>) -> tensor<*xoutput_type>\n   return %4 : tensor<*xoutput_type>\n }"
        },
        {
            "sha": "3ed4ea2ae829c44f67d645475331f25acb61a40b",
            "filename": "tensorflow/core/kernels/mlir_generated/op_definitions/digamma.mlir.tmpl",
            "status": "modified",
            "additions": 2,
            "deletions": 2,
            "changes": 4,
            "blob_url": "https://github.com/tensorflow/tensorflow/blob/ce6202dd8482f022a0dcc1e6df95fa9e14b6b65f/tensorflow%2Fcore%2Fkernels%2Fmlir_generated%2Fop_definitions%2Fdigamma.mlir.tmpl",
            "raw_url": "https://github.com/tensorflow/tensorflow/raw/ce6202dd8482f022a0dcc1e6df95fa9e14b6b65f/tensorflow%2Fcore%2Fkernels%2Fmlir_generated%2Fop_definitions%2Fdigamma.mlir.tmpl",
            "contents_url": "https://api.github.com/repos/tensorflow/tensorflow/contents/tensorflow%2Fcore%2Fkernels%2Fmlir_generated%2Fop_definitions%2Fdigamma.mlir.tmpl?ref=ce6202dd8482f022a0dcc1e6df95fa9e14b6b65f",
            "patch": "@@ -2,8 +2,8 @@ func.func @Digamma_platform_elem_type_output_type(%arg0: tensor<*xelem_type>) ->\n   %0 = shape.shape_of %arg0 : tensor<*xelem_type> -> tensor<?xindex>\n   %1 = shape.num_elements %0 : tensor<?xindex> -> index\n   %from_elements = tensor.from_elements %1 : tensor<1xindex>\n-  %2 = mhlo.dynamic_reshape %arg0, %from_elements : (tensor<*xelem_type>, tensor<1xindex>) -> tensor<?xelem_type>\n+  %2 = tensor.reshape %arg0(%from_elements) : (tensor<*xelem_type>, tensor<1xindex>) -> tensor<?xelem_type>\n   %3 = chlo.digamma %2 : tensor<?xelem_type> -> tensor<?xoutput_type>\n-  %4 = mhlo.dynamic_reshape %3, %0 : (tensor<?xoutput_type>, tensor<?xindex>) -> tensor<*xoutput_type>\n+  %4 = tensor.reshape %3(%0) : (tensor<?xoutput_type>, tensor<?xindex>) -> tensor<*xoutput_type>\n   return %4 : tensor<*xoutput_type>\n }"
        },
        {
            "sha": "b51816f57a3ef4773528f15cbc3cb63a3b38feac",
            "filename": "tensorflow/core/kernels/mlir_generated/op_definitions/div.mlir.tmpl",
            "status": "modified",
            "additions": 18,
            "deletions": 17,
            "changes": 35,
            "blob_url": "https://github.com/tensorflow/tensorflow/blob/ce6202dd8482f022a0dcc1e6df95fa9e14b6b65f/tensorflow%2Fcore%2Fkernels%2Fmlir_generated%2Fop_definitions%2Fdiv.mlir.tmpl",
            "raw_url": "https://github.com/tensorflow/tensorflow/raw/ce6202dd8482f022a0dcc1e6df95fa9e14b6b65f/tensorflow%2Fcore%2Fkernels%2Fmlir_generated%2Fop_definitions%2Fdiv.mlir.tmpl",
            "contents_url": "https://api.github.com/repos/tensorflow/tensorflow/contents/tensorflow%2Fcore%2Fkernels%2Fmlir_generated%2Fop_definitions%2Fdiv.mlir.tmpl?ref=ce6202dd8482f022a0dcc1e6df95fa9e14b6b65f",
            "patch": "@@ -13,11 +13,12 @@ func.func @Div_platform_elem_type_output_type(%arg0: tensor<*xelem_type>, %arg1:\n   %6 = shape.shape_of %arg1 : tensor<*xelem_type> -> tensor<?xindex>\n   %7 = shape.num_elements %5 : tensor<?xindex> -> index\n   %8 = arith.cmpi eq, %7, %c1 : index\n+  %c_empty = arith.constant dense<> : tensor<0xindex>\n   %9 = scf.if %8 -> (tensor<*xoutput_type>) {\n     %14 = shape.num_elements %6 : tensor<?xindex> -> index\n     %from_elements = tensor.from_elements %14 : tensor<1xindex>\n-    %15 = mhlo.reshape %arg0 : (tensor<*xelem_type>) -> tensor<elem_type>\n-    %16 = mhlo.dynamic_reshape %arg1, %from_elements : (tensor<*xelem_type>, tensor<1xindex>) -> tensor<?xelem_type>\n+    %15 = tensor.reshape %arg0(%c_empty) : (tensor<*xelem_type>, tensor<0xindex>) -> tensor<elem_type>\n+    %16 = tensor.reshape %arg1(%from_elements) : (tensor<*xelem_type>, tensor<1xindex>) -> tensor<?xelem_type>\n     %17 = chlo.broadcast_divide %15, %16 : (tensor<elem_type>, tensor<?xelem_type>) -> tensor<?xoutput_type>\n     %cast = tensor.cast %17 : tensor<?xoutput_type> to tensor<*xoutput_type>\n     scf.yield %cast : tensor<*xoutput_type>\n@@ -27,8 +28,8 @@ func.func @Div_platform_elem_type_output_type(%arg0: tensor<*xelem_type>, %arg1:\n     %16 = scf.if %15 -> (tensor<*xoutput_type>) {\n       %17 = shape.num_elements %5 : tensor<?xindex> -> index\n       %from_elements = tensor.from_elements %17 : tensor<1xindex>\n-      %18 = mhlo.dynamic_reshape %arg0, %from_elements : (tensor<*xelem_type>, tensor<1xindex>) -> tensor<?xelem_type>\n-      %19 = mhlo.reshape %arg1 : (tensor<*xelem_type>) -> tensor<elem_type>\n+      %18 = tensor.reshape %arg0(%from_elements) : (tensor<*xelem_type>, tensor<1xindex>) -> tensor<?xelem_type>\n+      %19 = tensor.reshape %arg1(%c_empty) : (tensor<*xelem_type>, tensor<0xindex>) -> tensor<elem_type>\n       %20 = chlo.broadcast_divide %18, %19 : (tensor<?xelem_type>, tensor<elem_type>) -> tensor<?xoutput_type>\n       %cast = tensor.cast %20 : tensor<?xoutput_type> to tensor<*xoutput_type>\n       scf.yield %cast : tensor<*xoutput_type>\n@@ -38,8 +39,8 @@ func.func @Div_platform_elem_type_output_type(%arg0: tensor<*xelem_type>, %arg1:\n         %19 = shape.any %5, %6 : tensor<?xindex>, tensor<?xindex> -> tensor<?xindex>\n         %20 = shape.num_elements %19 : tensor<?xindex> -> index\n         %from_elements = tensor.from_elements %20 : tensor<1xindex>\n-        %21 = mhlo.dynamic_reshape %arg0, %from_elements : (tensor<*xelem_type>, tensor<1xindex>) -> tensor<?xelem_type>\n-        %22 = mhlo.dynamic_reshape %arg1, %from_elements : (tensor<*xelem_type>, tensor<1xindex>) -> tensor<?xelem_type>\n+        %21 = tensor.reshape %arg0(%from_elements) : (tensor<*xelem_type>, tensor<1xindex>) -> tensor<?xelem_type>\n+        %22 = tensor.reshape %arg1(%from_elements) : (tensor<*xelem_type>, tensor<1xindex>) -> tensor<?xelem_type>\n         %23 = chlo.broadcast_divide %21, %22 : (tensor<?xelem_type>, tensor<?xelem_type>) -> tensor<?xoutput_type>\n         %cast = tensor.cast %23 : tensor<?xoutput_type> to tensor<*xoutput_type>\n         scf.yield %cast : tensor<*xoutput_type>\n@@ -53,10 +54,10 @@ func.func @Div_platform_elem_type_output_type(%arg0: tensor<*xelem_type>, %arg1:\n         %25 = scf.if %24 -> (tensor<*xoutput_type>) {\n           %26 = shape.broadcast %19#0, %4 : tensor<?xindex>, tensor<1xindex> -> tensor<?xindex>\n           %cast = tensor.cast %26 : tensor<?xindex> to tensor<1xindex>\n-          %27 = mhlo.dynamic_reshape %arg0, %cast : (tensor<*xelem_type>, tensor<1xindex>) -> tensor<?xelem_type>\n+          %27 = tensor.reshape %arg0(%cast) : (tensor<*xelem_type>, tensor<1xindex>) -> tensor<?xelem_type>\n           %28 = shape.broadcast %19#1, %4 : tensor<?xindex>, tensor<1xindex> -> tensor<?xindex>\n           %cast_0 = tensor.cast %28 : tensor<?xindex> to tensor<1xindex>\n-          %29 = mhlo.dynamic_reshape %arg1, %cast_0 : (tensor<*xelem_type>, tensor<1xindex>) -> tensor<?xelem_type>\n+          %29 = tensor.reshape %arg1(%cast_0) : (tensor<*xelem_type>, tensor<1xindex>) -> tensor<?xelem_type>\n           %30 = chlo.broadcast_divide %27, %29 : (tensor<?xelem_type>, tensor<?xelem_type>) -> tensor<?xoutput_type>\n           %cast_1 = tensor.cast %30 : tensor<?xoutput_type> to tensor<*xoutput_type>\n           scf.yield %cast_1 : tensor<*xoutput_type>\n@@ -65,10 +66,10 @@ func.func @Div_platform_elem_type_output_type(%arg0: tensor<*xelem_type>, %arg1:\n           %27 = scf.if %26 -> (tensor<*xoutput_type>) {\n             %28 = shape.broadcast %19#0, %3 : tensor<?xindex>, tensor<2xindex> -> tensor<?xindex>\n             %cast = tensor.cast %28 : tensor<?xindex> to tensor<2xindex>\n-            %29 = mhlo.dynamic_reshape %arg0, %cast : (tensor<*xelem_type>, tensor<2xindex>) -> tensor<?x?xelem_type>\n+            %29 = tensor.reshape %arg0(%cast) : (tensor<*xelem_type>, tensor<2xindex>) -> tensor<?x?xelem_type>\n             %30 = shape.broadcast %19#1, %3 : tensor<?xindex>, tensor<2xindex> -> tensor<?xindex>\n             %cast_0 = tensor.cast %30 : tensor<?xindex> to tensor<2xindex>\n-            %31 = mhlo.dynamic_reshape %arg1, %cast_0 : (tensor<*xelem_type>, tensor<2xindex>) -> tensor<?x?xelem_type>\n+            %31 = tensor.reshape %arg1(%cast_0) : (tensor<*xelem_type>, tensor<2xindex>) -> tensor<?x?xelem_type>\n             %32 = chlo.broadcast_divide %29, %31 : (tensor<?x?xelem_type>, tensor<?x?xelem_type>) -> tensor<?x?xoutput_type>\n             %cast_1 = tensor.cast %32 : tensor<?x?xoutput_type> to tensor<*xoutput_type>\n             scf.yield %cast_1 : tensor<*xoutput_type>\n@@ -77,10 +78,10 @@ func.func @Div_platform_elem_type_output_type(%arg0: tensor<*xelem_type>, %arg1:\n             %29 = scf.if %28 -> (tensor<*xoutput_type>) {\n               %30 = shape.broadcast %19#0, %2 : tensor<?xindex>, tensor<3xindex> -> tensor<?xindex>\n               %cast = tensor.cast %30 : tensor<?xindex> to tensor<3xindex>\n-              %31 = mhlo.dynamic_reshape %arg0, %cast : (tensor<*xelem_type>, tensor<3xindex>) -> tensor<?x?x?xelem_type>\n+              %31 = tensor.reshape %arg0(%cast) : (tensor<*xelem_type>, tensor<3xindex>) -> tensor<?x?x?xelem_type>\n               %32 = shape.broadcast %19#1, %2 : tensor<?xindex>, tensor<3xindex> -> tensor<?xindex>\n               %cast_0 = tensor.cast %32 : tensor<?xindex> to tensor<3xindex>\n-              %33 = mhlo.dynamic_reshape %arg1, %cast_0 : (tensor<*xelem_type>, tensor<3xindex>) -> tensor<?x?x?xelem_type>\n+              %33 = tensor.reshape %arg1(%cast_0) : (tensor<*xelem_type>, tensor<3xindex>) -> tensor<?x?x?xelem_type>\n               %34 = chlo.broadcast_divide %31, %33 : (tensor<?x?x?xelem_type>, tensor<?x?x?xelem_type>) -> tensor<?x?x?xoutput_type>\n               %cast_1 = tensor.cast %34 : tensor<?x?x?xoutput_type> to tensor<*xoutput_type>\n               scf.yield %cast_1 : tensor<*xoutput_type>\n@@ -89,10 +90,10 @@ func.func @Div_platform_elem_type_output_type(%arg0: tensor<*xelem_type>, %arg1:\n               %31 = scf.if %30 -> (tensor<*xoutput_type>) {\n                 %32 = shape.broadcast %19#0, %1 : tensor<?xindex>, tensor<4xindex> -> tensor<?xindex>\n                 %cast = tensor.cast %32 : tensor<?xindex> to tensor<4xindex>\n-                %33 = mhlo.dynamic_reshape %arg0, %cast : (tensor<*xelem_type>, tensor<4xindex>) -> tensor<?x?x?x?xelem_type>\n+                %33 = tensor.reshape %arg0(%cast) : (tensor<*xelem_type>, tensor<4xindex>) -> tensor<?x?x?x?xelem_type>\n                 %34 = shape.broadcast %19#1, %1 : tensor<?xindex>, tensor<4xindex> -> tensor<?xindex>\n                 %cast_0 = tensor.cast %34 : tensor<?xindex> to tensor<4xindex>\n-                %35 = mhlo.dynamic_reshape %arg1, %cast_0 : (tensor<*xelem_type>, tensor<4xindex>) -> tensor<?x?x?x?xelem_type>\n+                %35 = tensor.reshape %arg1(%cast_0) : (tensor<*xelem_type>, tensor<4xindex>) -> tensor<?x?x?x?xelem_type>\n                 %36 = chlo.broadcast_divide %33, %35 : (tensor<?x?x?x?xelem_type>, tensor<?x?x?x?xelem_type>) -> tensor<?x?x?x?xoutput_type>\n                 %cast_1 = tensor.cast %36 : tensor<?x?x?x?xoutput_type> to tensor<*xoutput_type>\n                 scf.yield %cast_1 : tensor<*xoutput_type>\n@@ -101,10 +102,10 @@ func.func @Div_platform_elem_type_output_type(%arg0: tensor<*xelem_type>, %arg1:\n                 cf.assert %32, \"Input for dynamic binary or n-ary op lowering was of a rank greater than 5\"\n                 %33 = shape.broadcast %19#0, %0 : tensor<?xindex>, tensor<5xindex> -> tensor<?xindex>\n                 %cast = tensor.cast %33 : tensor<?xindex> to tensor<5xindex>\n-                %34 = mhlo.dynamic_reshape %arg0, %cast : (tensor<*xelem_type>, tensor<5xindex>) -> tensor<?x?x?x?x?xelem_type>\n+                %34 = tensor.reshape %arg0(%cast) : (tensor<*xelem_type>, tensor<5xindex>) -> tensor<?x?x?x?x?xelem_type>\n                 %35 = shape.broadcast %19#1, %0 : tensor<?xindex>, tensor<5xindex> -> tensor<?xindex>\n                 %cast_0 = tensor.cast %35 : tensor<?xindex> to tensor<5xindex>\n-                %36 = mhlo.dynamic_reshape %arg1, %cast_0 : (tensor<*xelem_type>, tensor<5xindex>) -> tensor<?x?x?x?x?xelem_type>\n+                %36 = tensor.reshape %arg1(%cast_0) : (tensor<*xelem_type>, tensor<5xindex>) -> tensor<?x?x?x?x?xelem_type>\n                 %37 = chlo.broadcast_divide %34, %36 : (tensor<?x?x?x?x?xelem_type>, tensor<?x?x?x?x?xelem_type>) -> tensor<?x?x?x?x?xoutput_type>\n                 %cast_1 = tensor.cast %37 : tensor<?x?x?x?x?xoutput_type> to tensor<*xoutput_type>\n                 scf.yield %cast_1 : tensor<*xoutput_type>\n@@ -124,6 +125,6 @@ func.func @Div_platform_elem_type_output_type(%arg0: tensor<*xelem_type>, %arg1:\n   %10 = shape.shape_of %arg0 : tensor<*xelem_type> -> tensor<?xindex>\n   %11 = shape.shape_of %arg1 : tensor<*xelem_type> -> tensor<?xindex>\n   %12 = shape.broadcast %10, %11 : tensor<?xindex>, tensor<?xindex> -> tensor<?xindex>\n-  %13 = mhlo.dynamic_reshape %9, %12 : (tensor<*xoutput_type>, tensor<?xindex>) -> tensor<*xoutput_type>\n+  %13 = tensor.reshape %9(%12) : (tensor<*xoutput_type>, tensor<?xindex>) -> tensor<*xoutput_type>\n   return %13 : tensor<*xoutput_type>\n }"
        },
        {
            "sha": "584c245aa20fdfd5f241f3e6771320f70df4df75",
            "filename": "tensorflow/core/kernels/mlir_generated/op_definitions/div_no_nan.mlir.tmpl",
            "status": "modified",
            "additions": 18,
            "deletions": 17,
            "changes": 35,
            "blob_url": "https://github.com/tensorflow/tensorflow/blob/ce6202dd8482f022a0dcc1e6df95fa9e14b6b65f/tensorflow%2Fcore%2Fkernels%2Fmlir_generated%2Fop_definitions%2Fdiv_no_nan.mlir.tmpl",
            "raw_url": "https://github.com/tensorflow/tensorflow/raw/ce6202dd8482f022a0dcc1e6df95fa9e14b6b65f/tensorflow%2Fcore%2Fkernels%2Fmlir_generated%2Fop_definitions%2Fdiv_no_nan.mlir.tmpl",
            "contents_url": "https://api.github.com/repos/tensorflow/tensorflow/contents/tensorflow%2Fcore%2Fkernels%2Fmlir_generated%2Fop_definitions%2Fdiv_no_nan.mlir.tmpl?ref=ce6202dd8482f022a0dcc1e6df95fa9e14b6b65f",
            "patch": "@@ -14,11 +14,12 @@ func.func @DivNoNan_platform_elem_type_output_type(%arg0: tensor<*xelem_type>, %\n   %7 = shape.shape_of %arg1 : tensor<*xelem_type> -> tensor<?xindex>\n   %8 = shape.num_elements %6 : tensor<?xindex> -> index\n   %9 = arith.cmpi eq, %8, %c1 : index\n+  %c_empty = arith.constant dense<> : tensor<0xindex>\n   %10 = scf.if %9 -> (tensor<*xoutput_type>) {\n     %17 = shape.num_elements %7 : tensor<?xindex> -> index\n     %from_elements = tensor.from_elements %17 : tensor<1xindex>\n-    %18 = mhlo.reshape %arg0 : (tensor<*xelem_type>) -> tensor<elem_type>\n-    %19 = mhlo.dynamic_reshape %arg1, %from_elements : (tensor<*xelem_type>, tensor<1xindex>) -> tensor<?xelem_type>\n+    %18 = tensor.reshape %arg0(%c_empty) : (tensor<*xelem_type>, tensor<0xindex>) -> tensor<elem_type>\n+    %19 = tensor.reshape %arg1(%from_elements) : (tensor<*xelem_type>, tensor<1xindex>) -> tensor<?xelem_type>\n     %20 = chlo.broadcast_compare %19, %5 {comparison_direction = #chlo<comparison_direction EQ>} : (tensor<?xelem_type>, tensor<output_type>) -> tensor<?xi1>\n     %21 = chlo.broadcast_divide %18, %19 : (tensor<elem_type>, tensor<?xelem_type>) -> tensor<?xoutput_type>\n     %22 = chlo.broadcast_select %20, %5, %21 : (tensor<?xi1>, tensor<output_type>, tensor<?xoutput_type>) -> tensor<?xoutput_type>\n@@ -30,8 +31,8 @@ func.func @DivNoNan_platform_elem_type_output_type(%arg0: tensor<*xelem_type>, %\n     %19 = scf.if %18 -> (tensor<*xoutput_type>) {\n       %20 = shape.num_elements %6 : tensor<?xindex> -> index\n       %from_elements = tensor.from_elements %20 : tensor<1xindex>\n-      %21 = mhlo.dynamic_reshape %arg0, %from_elements : (tensor<*xelem_type>, tensor<1xindex>) -> tensor<?xelem_type>\n-      %22 = mhlo.reshape %arg1 : (tensor<*xelem_type>) -> tensor<elem_type>\n+      %21 = tensor.reshape %arg0(%from_elements) : (tensor<*xelem_type>, tensor<1xindex>) -> tensor<?xelem_type>\n+      %22 = tensor.reshape %arg1(%c_empty) : (tensor<*xelem_type>, tensor<0xindex>) -> tensor<elem_type>\n       %23 = chlo…
      %22 = mhlo.dynamic_reshape %arg0, %from_elements : (tensor<*xelem_type>, tensor<1xindex>) -> tensor<?xelem_type>\n-      %23 = mhlo.reshape %arg1 : (tensor<*xelem_type>) -> tensor<elem_type>\n+      %22 = tensor.reshape %arg0(%from_elements) : (tensor<*xelem_type>, tensor<1xindex>) -> tensor<?xelem_type>\n+      %23 = tensor.reshape %arg1(%c_empty) : (tensor<*xelem_type>, tensor<0xindex>) -> tensor<elem_type>\n       %24 = chlo.broadcast_compare %22, %5 {comparison_direction = #chlo<comparison_direction EQ>} : (tensor<?xelem_type>, tensor<elem_type>) -> tensor<?xi1>\n       %25 = mhlo.log_plus_one %23 : tensor<elem_type>\n       %26 = chlo.broadcast_multiply %22, %25 : (tensor<?xelem_type>, tensor<elem_type>) -> tensor<?xelem_type>\n@@ -45,8 +46,8 @@ func.func @Xlog1py_platform_elem_type_output_type(%arg0: tensor<*xelem_type>, %a\n         %23 = shape.any %6, %7 : tensor<?xindex>, tensor<?xindex> -> tensor<?xindex>\n         %24 = shape.num_elements %23 : tensor<?xindex> -> index\n         %from_elements = tensor.from_elements %24 : tensor<1xindex>\n-        %25 = mhlo.dynamic_reshape %arg0, %from_elements : (tensor<*xelem_type>, tensor<1xindex>) -> tensor<?xelem_type>\n-        %26 = mhlo.dynamic_reshape %arg1, %from_elements : (tensor<*xelem_type>, tensor<1xindex>) -> tensor<?xelem_type>\n+        %25 = tensor.reshape %arg0(%from_elements) : (tensor<*xelem_type>, tensor<1xindex>) -> tensor<?xelem_type>\n+        %26 = tensor.reshape %arg1(%from_elements) : (tensor<*xelem_type>, tensor<1xindex>) -> tensor<?xelem_type>\n         %27 = chlo.broadcast_compare %25, %5 {comparison_direction = #chlo<comparison_direction EQ>} : (tensor<?xelem_type>, tensor<elem_type>) -> tensor<?xi1>\n         %28 = mhlo.log_plus_one %26 : tensor<?xelem_type>\n         %29 = chlo.broadcast_multiply %25, %28 : (tensor<?xelem_type>, tensor<?xelem_type>) -> tensor<?xelem_type>\n@@ -63,10 +64,10 @@ func.func @Xlog1py_platform_elem_type_output_type(%arg0: tensor<*xelem_type>, %a\n         %29 = scf.if %28 -> (tensor<*xelem_type>) {\n           %30 = shape.broadcast %23#0, %4 : tensor<?xindex>, tensor<1xindex> -> tensor<?xindex>\n           %cast = tensor.cast %30 : tensor<?xindex> to tensor<1xindex>\n-          %31 = mhlo.dynamic_reshape %arg0, %cast : (tensor<*xelem_type>, tensor<1xindex>) -> tensor<?xelem_type>\n+          %31 = tensor.reshape %arg0(%cast) : (tensor<*xelem_type>, tensor<1xindex>) -> tensor<?xelem_type>\n           %32 = shape.broadcast %23#1, %4 : tensor<?xindex>, tensor<1xindex> -> tensor<?xindex>\n           %cast_0 = tensor.cast %32 : tensor<?xindex> to tensor<1xindex>\n-          %33 = mhlo.dynamic_reshape %arg1, %cast_0 : (tensor<*xelem_type>, tensor<1xindex>) -> tensor<?xelem_type>\n+          %33 = tensor.reshape %arg1(%cast_0) : (tensor<*xelem_type>, tensor<1xindex>) -> tensor<?xelem_type>\n           %34 = chlo.broadcast_compare %31, %5 {comparison_direction = #chlo<comparison_direction EQ>} : (tensor<?xelem_type>, tensor<elem_type>) -> tensor<?xi1>\n           %35 = mhlo.log_plus_one %33 : tensor<?xelem_type>\n           %36 = chlo.broadcast_multiply %31, %35 : (tensor<?xelem_type>, tensor<?xelem_type>) -> tensor<?xelem_type>\n@@ -78,10 +79,10 @@ func.func @Xlog1py_platform_elem_type_output_type(%arg0: tensor<*xelem_type>, %a\n           %31 = scf.if %30 -> (tensor<*xelem_type>) {\n             %32 = shape.broadcast %23#0, %3 : tensor<?xindex>, tensor<2xindex> -> tensor<?xindex>\n             %cast = tensor.cast %32 : tensor<?xindex> to tensor<2xindex>\n-            %33 = mhlo.dynamic_reshape %arg0, %cast : (tensor<*xelem_type>, tensor<2xindex>) -> tensor<?x?xelem_type>\n+            %33 = tensor.reshape %arg0(%cast) : (tensor<*xelem_type>, tensor<2xindex>) -> tensor<?x?xelem_type>\n             %34 = shape.broadcast %23#1, %3 : tensor<?xindex>, tensor<2xindex> -> tensor<?xindex>\n             %cast_0 = tensor.cast %34 : tensor<?xindex> to tensor<2xindex>\n-            %35 = mhlo.dynamic_reshape %arg1, %cast_0 : (tensor<*xelem_type>, tensor<2xindex>) -> tensor<?x?xelem_type>\n+            %35 = tensor.reshape %arg1(%cast_0) : (tensor<*xelem_type>, tensor<2xindex>) -> tensor<?x?xelem_type>\n             %36 = chlo.broadcast_compare %33, %5 {comparison_direction = #chlo<comparison_direction EQ>} : (tensor<?x?xelem_type>, tensor<elem_type>) -> tensor<?x?xi1>\n             %37 = mhlo.log_plus_one %35 : tensor<?x?xelem_type>\n             %38 = chlo.broadcast_multiply %33, %37 : (tensor<?x?xelem_type>, tensor<?x?xelem_type>) -> tensor<?x?xelem_type>\n@@ -93,10 +94,10 @@ func.func @Xlog1py_platform_elem_type_output_type(%arg0: tensor<*xelem_type>, %a\n             %33 = scf.if %32 -> (tensor<*xelem_type>) {\n               %34 = shape.broadcast %23#0, %2 : tensor<?xindex>, tensor<3xindex> -> tensor<?xindex>\n               %cast = tensor.cast %34 : tensor<?xindex> to tensor<3xindex>\n-              %35 = mhlo.dynamic_reshape %arg0, %cast : (tensor<*xelem_type>, tensor<3xindex>) -> tensor<?x?x?xelem_type>\n+              %35 = tensor.reshape %arg0(%cast) : (tensor<*xelem_type>, tensor<3xindex>) -> tensor<?x?x?xelem_type>\n               %36 = shape.broadcast %23#1, %2 : tensor<?xindex>, tensor<3xindex> -> tensor<?xindex>\n               %cast_0 = tensor.cast %36 : tensor<?xindex> to tensor<3xindex>\n-              %37 = mhlo.dynamic_reshape %arg1, %cast_0 : (tensor<*xelem_type>, tensor<3xindex>) -> tensor<?x?x?xelem_type>\n+              %37 = tensor.reshape %arg1(%cast_0) : (tensor<*xelem_type>, tensor<3xindex>) -> tensor<?x?x?xelem_type>\n               %38 = chlo.broadcast_compare %35, %5 {comparison_direction = #chlo<comparison_direction EQ>} : (tensor<?x?x?xelem_type>, tensor<elem_type>) -> tensor<?x?x?xi1>\n               %39 = mhlo.log_plus_one %37 : tensor<?x?x?xelem_type>\n               %40 = chlo.broadcast_multiply %35, %39 : (tensor<?x?x?xelem_type>, tensor<?x?x?xelem_type>) -> tensor<?x?x?xelem_type>\n@@ -108,10 +109,10 @@ func.func @Xlog1py_platform_elem_type_output_type(%arg0: tensor<*xelem_type>, %a\n               %35 = scf.if %34 -> (tensor<*xelem_type>) {\n                 %36 = shape.broadcast %23#0, %1 : tensor<?xindex>, tensor<4xindex> -> tensor<?xindex>\n                 %cast = tensor.cast %36 : tensor<?xindex> to tensor<4xindex>\n-                %37 = mhlo.dynamic_reshape %arg0, %cast : (tensor<*xelem_type>, tensor<4xindex>) -> tensor<?x?x?x?xelem_type>\n+                %37 = tensor.reshape %arg0(%cast) : (tensor<*xelem_type>, tensor<4xindex>) -> tensor<?x?x?x?xelem_type>\n                 %38 = shape.broadcast %23#1, %1 : tensor<?xindex>, tensor<4xindex> -> tensor<?xindex>\n                 %cast_0 = tensor.cast %38 : tensor<?xindex> to tensor<4xindex>\n-                %39 = mhlo.dynamic_reshape %arg1, %cast_0 : (tensor<*xelem_type>, tensor<4xindex>) -> tensor<?x?x?x?xelem_type>\n+                %39 = tensor.reshape %arg1(%cast_0) : (tensor<*xelem_type>, tensor<4xindex>) -> tensor<?x?x?x?xelem_type>\n                 %40 = chlo.broadcast_compare %37, %5 {comparison_direction = #chlo<comparison_direction EQ>} : (tensor<?x?x?x?xelem_type>, tensor<elem_type>) -> tensor<?x?x?x?xi1>\n                 %41 = mhlo.log_plus_one %39 : tensor<?x?x?x?xelem_type>\n                 %42 = chlo.broadcast_multiply %37, %41 : (tensor<?x?x?x?xelem_type>, tensor<?x?x?x?xelem_type>) -> tensor<?x?x?x?xelem_type>\n@@ -123,10 +124,10 @@ func.func @Xlog1py_platform_elem_type_output_type(%arg0: tensor<*xelem_type>, %a\n                 cf.assert %36, \"Input for dynamic binary or n-ary op lowering was of a rank greater than 5\"\n                 %37 = shape.broadcast %23#0, %0 : tensor<?xindex>, tensor<5xindex> -> tensor<?xindex>\n                 %cast = tensor.cast %37 : tensor<?xindex> to tensor<5xindex>\n-                %38 = mhlo.dynamic_reshape %arg0, %cast : (tensor<*xelem_type>, tensor<5xindex>) -> tensor<?x?x?x?x?xelem_type>\n+                %38 = tensor.reshape %arg0(%cast) : (tensor<*xelem_type>, tensor<5xindex>) -> tensor<?x?x?x?x?xelem_type>\n                 %39 = shape.broadcast %23#1, %0 : tensor<?xindex>, tensor<5xindex> -> tensor<?xindex>\n                 %cast_0 = tensor.cast %39 : tensor<?xindex> to tensor<5xindex>\n-                %40 = mhlo.dynamic_reshape %arg1, %cast_0 : (tensor<*xelem_type>, tensor<5xindex>) -> tensor<?x?x?x?x?xelem_type>\n+                %40 = tensor.reshape %arg1(%cast_0) : (tensor<*xelem_type>, tensor<5xindex>) -> tensor<?x?x?x?x?xelem_type>\n                 %41 = chlo.broadcast_compare %38, %5 {comparison_direction = #chlo<comparison_direction EQ>} : (tensor<?x?x?x?x?xelem_type>, tensor<elem_type>) -> tensor<?x?x?x?x?xi1>\n                 %42 = mhlo.log_plus_one %40 : tensor<?x?x?x?x?xelem_type>\n                 %43 = chlo.broadcast_multiply %38, %42 : (tensor<?x?x?x?x?xelem_type>, tensor<?x?x?x?x?xelem_type>) -> tensor<?x?x?x?x?xelem_type>\n@@ -152,6 +153,6 @@ func.func @Xlog1py_platform_elem_type_output_type(%arg0: tensor<*xelem_type>, %a\n   %14 = shape.shape_of %arg1 : tensor<*xelem_type> -> tensor<?xindex>\n   %15 = shape.broadcast %13, %14 : tensor<?xindex>, tensor<?xindex> -> tensor<?xindex>\n   %16 = shape.broadcast %11, %12, %15 : tensor<?xindex>, tensor<?xindex>, tensor<?xindex> -> tensor<?xindex>\n-  %17 = mhlo.dynamic_reshape %10, %16 : (tensor<*xelem_type>, tensor<?xindex>) -> tensor<*xelem_type>\n+  %17 = tensor.reshape %10(%16) : (tensor<*xelem_type>, tensor<?xindex>) -> tensor<*xelem_type>\n   return %17 : tensor<*xelem_type>\n }"
        },
        {
            "sha": "06c20a8226e00d0e8a92aee121d70678da1960e0",
            "filename": "tensorflow/core/kernels/mlir_generated/op_definitions/xlogy.mlir.tmpl",
            "status": "modified",
            "additions": 18,
            "deletions": 17,
            "changes": 35,
            "blob_url": "https://github.com/tensorflow/tensorflow/blob/ce6202dd8482f022a0dcc1e6df95fa9e14b6b65f/tensorflow%2Fcore%2Fkernels%2Fmlir_generated%2Fop_definitions%2Fxlogy.mlir.tmpl",
            "raw_url": "https://github.com/tensorflow/tensorflow/raw/ce6202dd8482f022a0dcc1e6df95fa9e14b6b65f/tensorflow%2Fcore%2Fkernels%2Fmlir_generated%2Fop_definitions%2Fxlogy.mlir.tmpl",
            "contents_url": "https://api.github.com/repos/tensorflow/tensorflow/contents/tensorflow%2Fcore%2Fkernels%2Fmlir_generated%2Fop_definitions%2Fxlogy.mlir.tmpl?ref=ce6202dd8482f022a0dcc1e6df95fa9e14b6b65f",
            "patch": "@@ -14,11 +14,12 @@ func.func @Xlogy_platform_elem_type_output_type(%arg0: tensor<*xelem_type>, %arg\n   %7 = shape.shape_of %arg1 : tensor<*xelem_type> -> tensor<?xindex>\n   %8 = shape.num_elements %6 : tensor<?xindex> -> index\n   %9 = arith.cmpi eq, %8, %c1 : index\n+  %c_empty = arith.constant dense<> : tensor<0xindex>\n   %10 = scf.if %9 -> (tensor<*xelem_type>) {\n     %18 = shape.num_elements %7 : tensor<?xindex> -> index\n     %from_elements = tensor.from_elements %18 : tensor<1xindex>\n-    %19 = mhlo.reshape %arg0 : (tensor<*xelem_type>) -> tensor<elem_type>\n-    %20 = mhlo.dynamic_reshape %arg1, %from_elements : (tensor<*xelem_type>, tensor<1xindex>) -> tensor<?xelem_type>\n+    %19 = tensor.reshape %arg0(%c_empty) : (tensor<*xelem_type>, tensor<0xindex>) -> tensor<elem_type>\n+    %20 = tensor.reshape %arg1(%from_elements) : (tensor<*xelem_type>, tensor<1xindex>) -> tensor<?xelem_type>\n     %21 = chlo.broadcast_compare %19, %5 {comparison_direction = #chlo<comparison_direction EQ>} : (tensor<elem_type>, tensor<elem_type>) -> tensor<i1>\n     %22 = mhlo.log %20 : tensor<?xelem_type>\n     %23 = chlo.broadcast_multiply %19, %22 : (tensor<elem_type>, tensor<?xelem_type>) -> tensor<?xelem_type>\n@@ -31,8 +32,8 @@ func.func @Xlogy_platform_elem_type_output_type(%arg0: tensor<*xelem_type>, %arg\n     %20 = scf.if %19 -> (tensor<*xelem_type>) {\n       %21 = shape.num_elements %6 : tensor<?xindex> -> index\n       %from_elements = tensor.from_elements %21 : tensor<1xindex>\n-      %22 = mhlo.dynamic_reshape %arg0, %from_elements : (tensor<*xelem_type>, tensor<1xindex>) -> tensor<?xelem_type>\n-      %23 = mhlo.reshape %arg1 : (tensor<*xelem_type>) -> tensor<elem_type>\n+      %22 = tensor.reshape %arg0(%from_elements) : (tensor<*xelem_type>, tensor<1xindex>) -> tensor<?xelem_type>\n+      %23 = tensor.reshape %arg1(%c_empty) : (tensor<*xelem_type>, tensor<0xindex>) -> tensor<elem_type>\n       %24 = chlo.broadcast_compare %22, %5 {comparison_direction = #chlo<comparison_direction EQ>} : (tensor<?xelem_type>, tensor<elem_type>) -> tensor<?xi1>\n       %25 = mhlo.log %23 : tensor<elem_type>\n       %26 = chlo.broadcast_multiply %22, %25 : (tensor<?xelem_type>, tensor<elem_type>) -> tensor<?xelem_type>\n@@ -45,8 +46,8 @@ func.func @Xlogy_platform_elem_type_output_type(%arg0: tensor<*xelem_type>, %arg\n         %23 = shape.any %6, %7 : tensor<?xindex>, tensor<?xindex> -> tensor<?xindex>\n         %24 = shape.num_elements %23 : tensor<?xindex> -> index\n         %from_elements = tensor.from_elements %24 : tensor<1xindex>\n-        %25 = mhlo.dynamic_reshape %arg0, %from_elements : (tensor<*xelem_type>, tensor<1xindex>) -> tensor<?xelem_type>\n-        %26 = mhlo.dynamic_reshape %arg1, %from_elements : (tensor<*xelem_type>, tensor<1xindex>) -> tensor<?xelem_type>\n+        %25 = tensor.reshape %arg0(%from_elements) : (tensor<*xelem_type>, tensor<1xindex>) -> tensor<?xelem_type>\n+        %26 = tensor.reshape %arg1(%from_elements) : (tensor<*xelem_type>, tensor<1xindex>) -> tensor<?xelem_type>\n         %27 = chlo.broadcast_compare %25, %5 {comparison_direction = #chlo<comparison_direction EQ>} : (tensor<?xelem_type>, tensor<elem_type>) -> tensor<?xi1>\n         %28 = mhlo.log %26 : tensor<?xelem_type>\n         %29 = chlo.broadcast_multiply %25, %28 : (tensor<?xelem_type>, tensor<?xelem_type>) -> tensor<?xelem_type>\n@@ -63,10 +64,10 @@ func.func @Xlogy_platform_elem_type_output_type(%arg0: tensor<*xelem_type>, %arg\n         %29 = scf.if %28 -> (tensor<*xelem_type>) {\n           %30 = shape.broadcast %23#0, %4 : tensor<?xindex>, tensor<1xindex> -> tensor<?xindex>\n           %cast = tensor.cast %30 : tensor<?xindex> to tensor<1xindex>\n-          %31 = mhlo.dynamic_reshape %arg0, %cast : (tensor<*xelem_type>, tensor<1xindex>) -> tensor<?xelem_type>\n+          %31 = tensor.reshape %arg0(%cast) : (tensor<*xelem_type>, tensor<1xindex>) -> tensor<?xelem_type>\n           %32 = shape.broadcast %23#1, %4 : tensor<?xindex>, tensor<1xindex> -> tensor<?xindex>\n           %cast_0 = tensor.cast %32 : tensor<?xindex> to tensor<1xindex>\n-          %33 = mhlo.dynamic_reshape %arg1, %cast_0 : (tensor<*xelem_type>, tensor<1xindex>) -> tensor<?xelem_type>\n+          %33 = tensor.reshape %arg1(%cast_0) : (tensor<*xelem_type>, tensor<1xindex>) -> tensor<?xelem_type>\n           %34 = chlo.broadcast_compare %31, %5 {comparison_direction = #chlo<comparison_direction EQ>} : (tensor<?xelem_type>, tensor<elem_type>) -> tensor<?xi1>\n           %35 = mhlo.log %33 : tensor<?xelem_type>\n           %36 = chlo.broadcast_multiply %31, %35 : (tensor<?xelem_type>, tensor<?xelem_type>) -> tensor<?xelem_type>\n@@ -78,10 +79,10 @@ func.func @Xlogy_platform_elem_type_output_type(%arg0: tensor<*xelem_type>, %arg\n           %31 = scf.if %30 -> (tensor<*xelem_type>) {\n             %32 = shape.broadcast %23#0, %3 : tensor<?xindex>, tensor<2xindex> -> tensor<?xindex>\n             %cast = tensor.cast %32 : tensor<?xindex> to tensor<2xindex>\n-            %33 = mhlo.dynamic_reshape %arg0, %cast : (tensor<*xelem_type>, tensor<2xindex>) -> tensor<?x?xelem_type>\n+            %33 = tensor.reshape %arg0(%cast) : (tensor<*xelem_type>, tensor<2xindex>) -> tensor<?x?xelem_type>\n             %34 = shape.broadcast %23#1, %3 : tensor<?xindex>, tensor<2xindex> -> tensor<?xindex>\n             %cast_0 = tensor.cast %34 : tensor<?xindex> to tensor<2xindex>\n-            %35 = mhlo.dynamic_reshape %arg1, %cast_0 : (tensor<*xelem_type>, tensor<2xindex>) -> tensor<?x?xelem_type>\n+            %35 = tensor.reshape %arg1(%cast_0) : (tensor<*xelem_type>, tensor<2xindex>) -> tensor<?x?xelem_type>\n             %36 = chlo.broadcast_compare %33, %5 {comparison_direction = #chlo<comparison_direction EQ>} : (tensor<?x?xelem_type>, tensor<elem_type>) -> tensor<?x?xi1>\n             %37 = mhlo.log %35 : tensor<?x?xelem_type>\n             %38 = chlo.broadcast_multiply %33, %37 : (tensor<?x?xelem_type>, tensor<?x?xelem_type>) -> tensor<?x?xelem_type>\n@@ -93,10 +94,10 @@ func.func @Xlogy_platform_elem_type_output_type(%arg0: tensor<*xelem_type>, %arg\n             %33 = scf.if %32 -> (tensor<*xelem_type>) {\n               %34 = shape.broadcast %23#0, %2 : tensor<?xindex>, tensor<3xindex> -> tensor<?xindex>\n               %cast = tensor.cast %34 : tensor<?xindex> to tensor<3xindex>\n-              %35 = mhlo.dynamic_reshape %arg0, %cast : (tensor<*xelem_type>, tensor<3xindex>) -> tensor<?x?x?xelem_type>\n+              %35 = tensor.reshape %arg0(%cast) : (tensor<*xelem_type>, tensor<3xindex>) -> tensor<?x?x?xelem_type>\n               %36 = shape.broadcast %23#1, %2 : tensor<?xindex>, tensor<3xindex> -> tensor<?xindex>\n               %cast_0 = tensor.cast %36 : tensor<?xindex> to tensor<3xindex>\n-              %37 = mhlo.dynamic_reshape %arg1, %cast_0 : (tensor<*xelem_type>, tensor<3xindex>) -> tensor<?x?x?xelem_type>\n+              %37 = tensor.reshape %arg1(%cast_0) : (tensor<*xelem_type>, tensor<3xindex>) -> tensor<?x?x?xelem_type>\n               %38 = chlo.broadcast_compare %35, %5 {comparison_direction = #chlo<comparison_direction EQ>} : (tensor<?x?x?xelem_type>, tensor<elem_type>) -> tensor<?x?x?xi1>\n               %39 = mhlo.log %37 : tensor<?x?x?xelem_type>\n               %40 = chlo.broadcast_multiply %35, %39 : (tensor<?x?x?xelem_type>, tensor<?x?x?xelem_type>) -> tensor<?x?x?xelem_type>\n@@ -108,10 +109,10 @@ func.func @Xlogy_platform_elem_type_output_type(%arg0: tensor<*xelem_type>, %arg\n               %35 = scf.if %34 -> (tensor<*xelem_type>) {\n                 %36 = shape.broadcast %23#0, %1 : tensor<?xindex>, tensor<4xindex> -> tensor<?xindex>\n                 %cast = tensor.cast %36 : tensor<?xindex> to tensor<4xindex>\n-                %37 = mhlo.dynamic_reshape %arg0, %cast : (tensor<*xelem_type>, tensor<4xindex>) -> tensor<?x?x?x?xelem_type>\n+                %37 = tensor.reshape %arg0(%cast) : (tensor<*xelem_type>, tensor<4xindex>) -> tensor<?x?x?x?xelem_type>\n                 %38 = shape.broadcast %23#1, %1 : tensor<?xindex>, tensor<4xindex> -> tensor<?xindex>\n                 %cast_0 = tensor.cast %38 : tensor<?xindex> to tensor<4xindex>\n-                %39 = mhlo.dynamic_reshape %arg1, %cast_0 : (tensor<*xelem_type>, tensor<4xindex>) -> tensor<?x?x?x?xelem_type>\n+                %39 = tensor.reshape %arg1(%cast_0) : (tensor<*xelem_type>, tensor<4xindex>) -> tensor<?x?x?x?xelem_type>\n                 %40 = chlo.broadcast_compare %37, %5 {comparison_direction = #chlo<comparison_direction EQ>} : (tensor<?x?x?x?xelem_type>, tensor<elem_type>) -> tensor<?x?x?x?xi1>\n                 %41 = mhlo.log %39 : tensor<?x?x?x?xelem_type>\n                 %42 = chlo.broadcast_multiply %37, %41 : (tensor<?x?x?x?xelem_type>, tensor<?x?x?x?xelem_type>) -> tensor<?x?x?x?xelem_type>\n@@ -123,10 +124,10 @@ func.func @Xlogy_platform_elem_type_output_type(%arg0: tensor<*xelem_type>, %arg\n                 cf.assert %36, \"Input for dynamic binary or n-ary op lowering was of a rank greater than 5\"\n                 %37 = shape.broadcast %23#0, %0 : tensor<?xindex>, tensor<5xindex> -> tensor<?xindex>\n                 %cast = tensor.cast %37 : tensor<?xindex> to tensor<5xindex>\n-                %38 = mhlo.dynamic_reshape %arg0, %cast : (tensor<*xelem_type>, tensor<5xindex>) -> tensor<?x?x?x?x?xelem_type>\n+                %38 = tensor.reshape %arg0(%cast) : (tensor<*xelem_type>, tensor<5xindex>) -> tensor<?x?x?x?x?xelem_type>\n                 %39 = shape.broadcast %23#1, %0 : tensor<?xindex>, tensor<5xindex> -> tensor<?xindex>\n                 %cast_0 = tensor.cast %39 : tensor<?xindex> to tensor<5xindex>\n-                %40 = mhlo.dynamic_reshape %arg1, %cast_0 : (tensor<*xelem_type>, tensor<5xindex>) -> tensor<?x?x?x?x?xelem_type>\n+                %40 = tensor.reshape %arg1(%cast_0) : (tensor<*xelem_type>, tensor<5xindex>) -> tensor<?x?x?x?x?xelem_type>\n                 %41 = chlo.broadcast_compare %38, %5 {comparison_direction = #chlo<comparison_direction EQ>} : (tensor<?x?x?x?x?xelem_type>, tensor<elem_type>) -> tensor<?x?x?x?x?xi1>\n                 %42 = mhlo.log %40 : tensor<?x?x?x?x?xelem_type>\n                 %43 = chlo.broadcast_multiply %38, %42 : (tensor<?x?x?x?x?xelem_type>, tensor<?x?x?x?x?xelem_type>) -> tensor<?x?x?x?x?xelem_type>\n@@ -152,6 +153,6 @@ func.func @Xlogy_platform_elem_type_output_type(%arg0: tensor<*xelem_type>, %arg\n   %14 = shape.shape_of %arg1 : tensor<*xelem_type> -> tensor<?xindex>\n   %15 = shape.broadcast %13, %14 : tensor<?xindex>, tensor<?xindex> -> tensor<?xindex>\n   %16 = shape.broadcast %11, %12, %15 : tensor<?xindex>, tensor<?xindex>, tensor<?xindex> -> tensor<?xindex>\n-  %17 = mhlo.dynamic_reshape %10, %16 : (tensor<*xelem_type>, tensor<?xindex>) -> tensor<*xelem_type>\n+  %17 = tensor.reshape %10(%16) : (tensor<*xelem_type>, tensor<?xindex>) -> tensor<*xelem_type>\n   return %17 : tensor<*xelem_type>\n }"
        },
        {
            "sha": "172ba62d10c28ca70185003bcd211d479b7be3da",
            "filename": "tensorflow/core/kernels/mlir_generated/op_definitions/xlogy_cmplx.mlir.tmpl",
            "status": "modified",
            "additions": 18,
            "deletions": 17,
            "changes": 35,
            "blob_url": "https://github.com/tensorflow/tensorflow/blob/ce6202dd8482f022a0dcc1e6df95fa9e14b6b65f/tensorflow%2Fcore%2Fkernels%2Fmlir_generated%2Fop_definitions%2Fxlogy_cmplx.mlir.tmpl",
            "raw_url": "https://github.com/tensorflow/tensorflow/raw/ce6202dd8482f022a0dcc1e6df95fa9e14b6b65f/tensorflow%2Fcore%2Fkernels%2Fmlir_generated%2Fop_definitions%2Fxlogy_cmplx.mlir.tmpl",
            "contents_url": "https://api.github.com/repos/tensorflow/tensorflow/contents/tensorflow%2Fcore%2Fkernels%2Fmlir_generated%2Fop_definitions%2Fxlogy_cmplx.mlir.tmpl?ref=ce6202dd8482f022a0dcc1e6df95fa9e14b6b65f",
            "patch": "@@ -14,11 +14,12 @@ func.func @Xlogy_platform_elem_type_output_type(%arg0: tensor<*xelem_type>, %arg\n   %7 = shape.shape_of %arg1 : tensor<*xelem_type> -> tensor<?xindex>\n   %8 = shape.num_elements %6 : tensor<?xindex> -> index\n   %9 = arith.cmpi eq, %8, %c1 : index\n+  %c_empty = arith.constant dense<> : tensor<0xindex>\n   %10 = scf.if %9 -> (tensor<*xelem_type>) {\n     %18 = shape.num_elements %7 : tensor<?xindex> -> index\n     %from_elements = tensor.from_elements %18 : tensor<1xindex>\n-    %19 = mhlo.reshape %arg0 : (tensor<*xelem_type>) -> tensor<elem_type>\n-    %20 = mhlo.dynamic_reshape %arg1, %from_elements : (tensor<*xelem_type>, tensor<1xindex>) -> tensor<?xelem_type>\n+    %19 = tensor.reshape %arg0(%c_empty) : (tensor<*xelem_type>, tensor<0xindex>) -> tensor<elem_type>\n+    %20 = tensor.reshape %arg1(%from_elements) : (tensor<*xelem_type>, tensor<1xindex>) -> tensor<?xelem_type>\n     %21 = chlo.broadcast_compare %19, %5 {comparison_direction = #chlo<comparison_direction EQ>} : (tensor<elem_type>, tensor<elem_type>) -> tensor<i1>\n     %22 = mhlo.log %20 : tensor<?xelem_type>\n     %23 = chlo.broadcast_multiply %19, %22 : (tensor<elem_type>, tensor<?xelem_type>) -> tensor<?xelem_type>\n@@ -31,8 +32,8 @@ func.func @Xlogy_platform_elem_type_output_type(%arg0: tensor<*xelem_type>, %arg\n     %20 = scf.if %19 -> (tensor<*xelem_type>) {\n       %21 = shape.num_elements %6 : tensor<?xindex> -> index\n       %from_elements = tensor.from_elements %21 : tensor<1xindex>\n-      %22 = mhlo.dynamic_reshape %arg0, %from_elements : (tensor<*xelem_type>, tensor<1xindex>) -> tensor<?xelem_type>\n-      %23 = mhlo.reshape %arg1 : (tensor<*xelem_type>) -> tensor<elem_type>\n+      %22 = tensor.reshape %arg0(%from_elements) : (tensor<*xelem_type>, tensor<1xindex>) -> tensor<?xelem_type>\n+      %23 = tensor.reshape %arg1(%c_empty) : (tensor<*xelem_type>, tensor<0xindex>) -> tensor<elem_type>\n       %24 = chlo.broadcast_compare %22, %5 {comparison_direction = #chlo<comparison_direction EQ>} : (tensor<?xelem_type>, tensor<elem_type>) -> tensor<?xi1>\n       %25 = mhlo.log %23 : tensor<elem_type>\n       %26 = chlo.broadcast_multiply %22, %25 : (tensor<?xelem_type>, tensor<elem_type>) -> tensor<?xelem_type>\n@@ -45,8 +46,8 @@ func.func @Xlogy_platform_elem_type_output_type(%arg0: tensor<*xelem_type>, %arg\n         %23 = shape.any %6, %7 : tensor<?xindex>, tensor<?xindex> -> tensor<?xindex>\n         %24 = shape.num_elements %23 : tensor<?xindex> -> index\n         %from_elements = tensor.from_elements %24 : tensor<1xindex>\n-        %25 = mhlo.dynamic_reshape %arg0, %from_elements : (tensor<*xelem_type>, tensor<1xindex>) -> tensor<?xelem_type>\n-        %26 = mhlo.dynamic_reshape %arg1, %from_elements : (tensor<*xelem_type>, tensor<1xindex>) -> tensor<?xelem_type>\n+        %25 = tensor.reshape %arg0(%from_elements) : (tensor<*xelem_type>, tensor<1xindex>) -> tensor<?xelem_type>\n+        %26 = tensor.reshape %arg1(%from_elements) : (tensor<*xelem_type>, tensor<1xindex>) -> tensor<?xelem_type>\n         %27 = chlo.broadcast_compare %25, %5 {comparison_direction = #chlo<comparison_direction EQ>} : (tensor<?xelem_type>, tensor<elem_type>) -> tensor<?xi1>\n         %28 = mhlo.log %26 : tensor<?xelem_type>\n         %29 = chlo.broadcast_multiply %25, %28 : (tensor<?xelem_type>, tensor<?xelem_type>) -> tensor<?xelem_type>\n@@ -63,10 +64,10 @@ func.func @Xlogy_platform_elem_type_output_type(%arg0: tensor<*xelem_type>, %arg\n         %29 = scf.if %28 -> (tensor<*xelem_type>) {\n           %30 = shape.broadcast %23#0, %4 : tensor<?xindex>, tensor<1xindex> -> tensor<?xindex>\n           %cast = tensor.cast %30 : tensor<?xindex> to tensor<1xindex>\n-          %31 = mhlo.dynamic_reshape %arg0, %cast : (tensor<*xelem_type>, tensor<1xindex>) -> tensor<?xelem_type>\n+          %31 = tensor.reshape %arg0(%cast) : (tensor<*xelem_type>, tensor<1xindex>) -> tensor<?xelem_type>\n           %32 = shape.broadcast %23#1, %4 : tensor<?xindex>, tensor<1xindex> -> tensor<?xindex>\n           %cast_0 = tensor.cast %32 : tensor<?xindex> to tensor<1xindex>\n-          %33 = mhlo.dynamic_reshape %arg1, %cast_0 : (tensor<*xelem_type>, tensor<1xindex>) -> tensor<?xelem_type>\n+          %33 = tensor.reshape %arg1(%cast_0) : (tensor<*xelem_type>, tensor<1xindex>) -> tensor<?xelem_type>\n           %34 = chlo.broadcast_compare %31, %5 {comparison_direction = #chlo<comparison_direction EQ>} : (tensor<?xelem_type>, tensor<elem_type>) -> tensor<?xi1>\n           %35 = mhlo.log %33 : tensor<?xelem_type>\n           %36 = chlo.broadcast_multiply %31, %35 : (tensor<?xelem_type>, tensor<?xelem_type>) -> tensor<?xelem_type>\n@@ -78,10 +79,10 @@ func.func @Xlogy_platform_elem_type_output_type(%arg0: tensor<*xelem_type>, %arg\n           %31 = scf.if %30 -> (tensor<*xelem_type>) {\n             %32 = shape.broadcast %23#0, %3 : tensor<?xindex>, tensor<2xindex> -> tensor<?xindex>\n             %cast = tensor.cast %32 : tensor<?xindex> to tensor<2xindex>\n-            %33 = mhlo.dynamic_reshape %arg0, %cast : (tensor<*xelem_type>, tensor<2xindex>) -> tensor<?x?xelem_type>\n+            %33 = tensor.reshape %arg0(%cast) : (tensor<*xelem_type>, tensor<2xindex>) -> tensor<?x?xelem_type>\n             %34 = shape.broadcast %23#1, %3 : tensor<?xindex>, tensor<2xindex> -> tensor<?xindex>\n             %cast_0 = tensor.cast %34 : tensor<?xindex> to tensor<2xindex>\n-            %35 = mhlo.dynamic_reshape %arg1, %cast_0 : (tensor<*xelem_type>, tensor<2xindex>) -> tensor<?x?xelem_type>\n+            %35 = tensor.reshape %arg1(%cast_0) : (tensor<*xelem_type>, tensor<2xindex>) -> tensor<?x?xelem_type>\n             %36 = chlo.broadcast_compare %33, %5 {comparison_direction = #chlo<comparison_direction EQ>} : (tensor<?x?xelem_type>, tensor<elem_type>) -> tensor<?x?xi1>\n             %37 = mhlo.log %35 : tensor<?x?xelem_type>\n             %38 = chlo.broadcast_multiply %33, %37 : (tensor<?x?xelem_type>, tensor<?x?xelem_type>) -> tensor<?x?xelem_type>\n@@ -93,10 +94,10 @@ func.func @Xlogy_platform_elem_type_output_type(%arg0: tensor<*xelem_type>, %arg\n             %33 = scf.if %32 -> (tensor<*xelem_type>) {\n               %34 = shape.broadcast %23#0, %2 : tensor<?xindex>, tensor<3xindex> -> tensor<?xindex>\n               %cast = tensor.cast %34 : tensor<?xindex> to tensor<3xindex>\n-              %35 = mhlo.dynamic_reshape %arg0, %cast : (tensor<*xelem_type>, tensor<3xindex>) -> tensor<?x?x?xelem_type>\n+              %35 = tensor.reshape %arg0(%cast) : (tensor<*xelem_type>, tensor<3xindex>) -> tensor<?x?x?xelem_type>\n               %36 = shape.broadcast %23#1, %2 : tensor<?xindex>, tensor<3xindex> -> tensor<?xindex>\n               %cast_0 = tensor.cast %36 : tensor<?xindex> to tensor<3xindex>\n-              %37 = mhlo.dynamic_reshape %arg1, %cast_0 : (tensor<*xelem_type>, tensor<3xindex>) -> tensor<?x?x?xelem_type>\n+              %37 = tensor.reshape %arg1(%cast_0) : (tensor<*xelem_type>, tensor<3xindex>) -> tensor<?x?x?xelem_type>\n               %38 = chlo.broadcast_compare %35, %5 {comparison_direction = #chlo<comparison_direction EQ>} : (tensor<?x?x?xelem_type>, tensor<elem_type>) -> tensor<?x?x?xi1>\n               %39 = mhlo.log %37 : tensor<?x?x?xelem_type>\n               %40 = chlo.broadcast_multiply %35, %39 : (tensor<?x?x?xelem_type>, tensor<?x?x?xelem_type>) -> tensor<?x?x?xelem_type>\n@@ -108,10 +109,10 @@ func.func @Xlogy_platform_elem_type_output_type(%arg0: tensor<*xelem_type>, %arg\n               %35 = scf.if %34 -> (tensor<*xelem_type>) {\n                 %36 = shape.broadcast %23#0, %1 : tensor<?xindex>, tensor<4xindex> -> tensor<?xindex>\n                 %cast = tensor.cast %36 : tensor<?xindex> to tensor<4xindex>\n-                %37 = mhlo.dynamic_reshape %arg0, %cast : (tensor<*xelem_type>, tensor<4xindex>) -> tensor<?x?x?x?xelem_type>\n+                %37 = tensor.reshape %arg0(%cast) : (tensor<*xelem_type>, tensor<4xindex>) -> tensor<?x?x?x?xelem_type>\n                 %38 = shape.broadcast %23#1, %1 : tensor<?xindex>, tensor<4xindex> -> tensor<?xindex>\n                 %cast_0 = tensor.cast %38 : tensor<?xindex> to tensor<4xindex>\n-                %39 = mhlo.dynamic_reshape %arg1, %cast_0 : (tensor<*xelem_type>, tensor<4xindex>) -> tensor<?x?x?x?xelem_type>\n+                %39 = tensor.reshape %arg1(%cast_0) : (tensor<*xelem_type>, tensor<4xindex>) -> tensor<?x?x?x?xelem_type>\n                 %40 = chlo.broadcast_compare %37, %5 {comparison_direction = #chlo<comparison_direction EQ>} : (tensor<?x?x?x?xelem_type>, tensor<elem_type>) -> tensor<?x?x?x?xi1>\n                 %41 = mhlo.log %39 : tensor<?x?x?x?xelem_type>\n                 %42 = chlo.broadcast_multiply %37, %41 : (tensor<?x?x?x?xelem_type>, tensor<?x?x?x?xelem_type>) -> tensor<?x?x?x?xelem_type>\n@@ -123,10 +124,10 @@ func.func @Xlogy_platform_elem_type_output_type(%arg0: tensor<*xelem_type>, %arg\n                 cf.assert %36, \"Input for dynamic binary or n-ary op lowering was of a rank greater than 5\"\n                 %37 = shape.broadcast %23#0, %0 : tensor<?xindex>, tensor<5xindex> -> tensor<?xindex>\n                 %cast = tensor.cast %37 : tensor<?xindex> to tensor<5xindex>\n-                %38 = mhlo.dynamic_reshape %arg0, %cast : (tensor<*xelem_type>, tensor<5xindex>) -> tensor<?x?x?x?x?xelem_type>\n+                %38 = tensor.reshape %arg0(%cast) : (tensor<*xelem_type>, tensor<5xindex>) -> tensor<?x?x?x?x?xelem_type>\n                 %39 = shape.broadcast %23#1, %0 : tensor<?xindex>, tensor<5xindex> -> tensor<?xindex>\n                 %cast_0 = tensor.cast %39 : tensor<?xindex> to tensor<5xindex>\n-                %40 = mhlo.dynamic_reshape %arg1, %cast_0 : (tensor<*xelem_type>, tensor<5xindex>) -> tensor<?x?x?x?x?xelem_type>\n+                %40 = tensor.reshape %arg1(%cast_0) : (tensor<*xelem_type>, tensor<5xindex>) -> tensor<?x?x?x?x?xelem_type>\n                 %41 = chlo.broadcast_compare %38, %5 {comparison_direction = #chlo<comparison_direction EQ>} : (tensor<?x?x?x?x?xelem_type>, tensor<elem_type>) -> tensor<?x?x?x?x?xi1>\n                 %42 = mhlo.log %40 : tensor<?x?x?x?x?xelem_type>\n                 %43 = chlo.broadcast_multiply %38, %42 : (tensor<?x?x?x?x?xelem_type>, tensor<?x?x?x?x?xelem_type>) -> tensor<?x?x?x?x?xelem_type>\n@@ -152,6 +153,6 @@ func.func @Xlogy_platform_elem_type_output_type(%arg0: tensor<*xelem_type>, %arg\n   %14 = shape.shape_of %arg1 : tensor<*xelem_type> -> tensor<?xindex>\n   %15 = shape.broadcast %13, %14 : tensor<?xindex>, tensor<?xindex> -> tensor<?xindex>\n   %16 = shape.broadcast %11, %12, %15 : tensor<?xindex>, tensor<?xindex>, tensor<?xindex> -> tensor<?xindex>\n-  %17 = mhlo.dynamic_reshape %10, %16 : (tensor<*xelem_type>, tensor<?xindex>) -> tensor<*xelem_type>\n+  %17 = tensor.reshape %10(%16) : (tensor<*xelem_type>, tensor<?xindex>) -> tensor<*xelem_type>\n   return %17 : tensor<*xelem_type>\n }"
        },
        {
            "sha": "2e356ee029d61288f61ed50f6adcb7f865410abf",
            "filename": "tensorflow/core/kernels/mlir_generated/op_definitions/zeros_like.mlir.tmpl",
            "status": "modified",
            "additions": 2,
            "deletions": 2,
            "changes": 4,
            "blob_url": "https://github.com/tensorflow/tensorflow/blob/ce6202dd8482f022a0dcc1e6df95fa9e14b6b65f/tensorflow%2Fcore%2Fkernels%2Fmlir_generated%2Fop_definitions%2Fzeros_like.mlir.tmpl",
            "raw_url": "https://github.com/tensorflow/tensorflow/raw/ce6202dd8482f022a0dcc1e6df95fa9e14b6b65f/tensorflow%2Fcore%2Fkernels%2Fmlir_generated%2Fop_definitions%2Fzeros_like.mlir.tmpl",
            "contents_url": "https://api.github.com/repos/tensorflow/tensorflow/contents/tensorflow%2Fcore%2Fkernels%2Fmlir_generated%2Fop_definitions%2Fzeros_like.mlir.tmpl?ref=ce6202dd8482f022a0dcc1e6df95fa9e14b6b65f",
            "patch": "@@ -2,8 +2,8 @@ func.func @ZerosLike_platform_elem_type_output_type(%arg0: tensor<*xelem_type>)\n   %0 = shape.shape_of %arg0 : tensor<*xelem_type> -> tensor<?xindex>\n   %1 = shape.num_elements %0 : tensor<?xindex> -> index\n   %from_elements = tensor.from_elements %1 : tensor<1xindex>\n-  %2 = mhlo.dynamic_reshape %arg0, %from_elements : (tensor<*xelem_type>, tensor<1xindex>) -> tensor<?xelem_type>\n+  %2 = tensor.reshape %arg0(%from_elements) : (tensor<*xelem_type>, tensor<1xindex>) -> tensor<?xelem_type>\n   %3 = \"chlo.constant_like\"(%2) {value = 0 : elem_type} : (tensor<?xelem_type>) -> tensor<?xelem_type>\n-  %4 = mhlo.dynamic_reshape %3, %0 : (tensor<?xelem_type>, tensor<?xindex>) -> tensor<*xelem_type>\n+  %4 = tensor.reshape %3(%0) : (tensor<?xelem_type>, tensor<?xindex>) -> tensor<*xelem_type>\n   return %4 : tensor<*xelem_type>\n }"
        },
        {
            "sha": "fba3c56744dd896fb7458c8aba3768b4bb49f412",
            "filename": "tensorflow/core/kernels/mlir_generated/op_definitions/zeros_like_cmplx.mlir.tmpl",
            "status": "modified",
            "additions": 2,
            "deletions": 2,
            "changes": 4,
            "blob_url": "https://github.com/tensorflow/tensorflow/blob/ce6202dd8482f022a0dcc1e6df95fa9e14b6b65f/tensorflow%2Fcore%2Fkernels%2Fmlir_generated%2Fop_definitions%2Fzeros_like_cmplx.mlir.tmpl",
            "raw_url": "https://github.com/tensorflow/tensorflow/raw/ce6202dd8482f022a0dcc1e6df95fa9e14b6b65f/tensorflow%2Fcore%2Fkernels%2Fmlir_generated%2Fop_definitions%2Fzeros_like_cmplx.mlir.tmpl",
            "contents_url": "https://api.github.com/repos/tensorflow/tensorflow/contents/tensorflow%2Fcore%2Fkernels%2Fmlir_generated%2Fop_definitions%2Fzeros_like_cmplx.mlir.tmpl?ref=ce6202dd8482f022a0dcc1e6df95fa9e14b6b65f",
            "patch": "@@ -2,8 +2,8 @@ func.func @ZerosLike_platform_elem_type_output_type(%arg0: tensor<*xelem_type>)\n   %0 = shape.shape_of %arg0 : tensor<*xelem_type> -> tensor<?xindex>\n   %1 = shape.num_elements %0 : tensor<?xindex> -> index\n   %from_elements = tensor.from_elements %1 : tensor<1xindex>\n-  %2 = mhlo.dynamic_reshape %arg0, %from_elements : (tensor<*xelem_type>, tensor<1xindex>) -> tensor<?xelem_type>\n+  %2 = tensor.reshape %arg0(%from_elements) : (tensor<*xelem_type>, tensor<1xindex>) -> tensor<?xelem_type>\n   %3 = \"chlo.constant_like\"(%2) {value = #complex.number<:scalar_type 0.000000e+00, 0.000000e+00> : elem_type} : (tensor<?xelem_type>) -> tensor<?xelem_type>\n-  %4 = mhlo.dynamic_reshape %3, %0 : (tensor<?xelem_type>, tensor<?xindex>) -> tensor<*xelem_type>\n+  %4 = tensor.reshape %3(%0) : (tensor<?xelem_type>, tensor<?xindex>) -> tensor<*xelem_type>\n   return %4 : tensor<*xelem_type>\n }"
        },
        {
            "sha": "a198ad24516f48993b8e7d4f15af960f6417ac24",
            "filename": "tensorflow/core/kernels/mlir_generated/op_definitions/zeros_like_float.mlir.tmpl",
            "status": "modified",
            "additions": 2,
            "deletions": 2,
            "changes": 4,
            "blob_url": "https://github.com/tensorflow/tensorflow/blob/ce6202dd8482f022a0dcc1e6df95fa9e14b6b65f/tensorflow%2Fcore%2Fkernels%2Fmlir_generated%2Fop_definitions%2Fzeros_like_float.mlir.tmpl",
            "raw_url": "https://github.com/tensorflow/tensorflow/raw/ce6202dd8482f022a0dcc1e6df95fa9e14b6b65f/tensorflow%2Fcore%2Fkernels%2Fmlir_generated%2Fop_definitions%2Fzeros_like_float.mlir.tmpl",
            "contents_url": "https://api.github.com/repos/tensorflow/tensorflow/contents/tensorflow%2Fcore%2Fkernels%2Fmlir_generated%2Fop_definitions%2Fzeros_like_float.mlir.tmpl?ref=ce6202dd8482f022a0dcc1e6df95fa9e14b6b65f",
            "patch": "@@ -2,8 +2,8 @@ func.func @ZerosLike_platform_elem_type_output_type(%arg0: tensor<*xelem_type>)\n   %0 = shape.shape_of %arg0 : tensor<*xelem_type> -> tensor<?xindex>\n   %1 = shape.num_elements %0 : tensor<?xindex> -> index\n   %from_elements = tensor.from_elements %1 : tensor<1xindex>\n-  %2 = mhlo.dynamic_reshape %arg0, %from_elements : (tensor<*xelem_type>, tensor<1xindex>) -> tensor<?xelem_type>\n+  %2 = tensor.reshape %arg0(%from_elements) : (tensor<*xelem_type>, tensor<1xindex>) -> tensor<?xelem_type>\n   %3 = \"chlo.constant_like\"(%2) {value = 0.000000e+00 : elem_type} : (tensor<?xelem_type>) -> tensor<?xelem_type>\n-  %4 = mhlo.dynamic_reshape %3, %0 : (tensor<?xelem_type>, tensor<?xindex>) -> tensor<*xelem_type>\n+  %4 = tensor.reshape %3(%0) : (tensor<?xelem_type>, tensor<?xindex>) -> tensor<*xelem_type>\n   return %4 : tensor<*xelem_type>\n }"
        },
        {
            "sha": "2fd61121fc0f995a24ba3867d1c1d913fdedd64b",
            "filename": "tensorflow/core/kernels/mlir_generated/op_definitions/zeta.mlir.tmpl",
            "status": "modified",
            "additions": 18,
            "deletions": 17,
            "changes": 35,
            "blob_url": "https://github.com/tensorflow/tensorflow/blob/ce6202dd8482f022a0dcc1e6df95fa9e14b6b65f/tensorflow%2Fcore%2Fkernels%2Fmlir_generated%2Fop_definitions%2Fzeta.mlir.tmpl",
            "raw_url": "https://github.com/tensorflow/tensorflow/raw/ce6202dd8482f022a0dcc1e6df95fa9e14b6b65f/tensorflow%2Fcore%2Fkernels%2Fmlir_generated%2Fop_definitions%2Fzeta.mlir.tmpl",
            "contents_url": "https://api.github.com/repos/tensorflow/tensorflow/contents/tensorflow%2Fcore%2Fkernels%2Fmlir_generated%2Fop_definitions%2Fzeta.mlir.tmpl?ref=ce6202dd8482f022a0dcc1e6df95fa9e14b6b65f",
            "patch": "@@ -13,11 +13,12 @@ func.func @Zeta_platform_elem_type_output_type(%arg0: tensor<*xelem_type>, %arg1\n   %6 = shape.shape_of %arg1 : tensor<*xelem_type> -> tensor<?xindex>\n   %7 = shape.num_elements %5 : tensor<?xindex> -> index\n   %8 = arith.cmpi eq, %7, %c1 : index\n+  %c_empty = arith.constant dense<> : tensor<0xindex>\n   %9 = scf.if %8 -> (tensor<*xoutput_type>) {\n     %14 = shape.num_elements %6 : tensor<?xindex> -> index\n     %from_elements = tensor.from_elements %14 : tensor<1xindex>\n-    %15 = mhlo.reshape %arg0 : (tensor<*xelem_type>) -> tensor<elem_type>\n-    %16 = mhlo.dynamic_reshape %arg1, %from_elements : (tensor<*xelem_type>, tensor<1xindex>) -> tensor<?xelem_type>\n+    %15 = tensor.reshape %arg0(%c_empty) : (tensor<*xelem_type>, tensor<0xindex>) -> tensor<elem_type>\n+    %16 = tensor.reshape %arg1(%from_elements) : (tensor<*xelem_type>, tensor<1xindex>) -> tensor<?xelem_type>\n     %17 = chlo.broadcast_zeta %15, %16 : (tensor<elem_type>, tensor<?xelem_type>) -> tensor<?xoutput_type>\n     %cast = tensor.cast %17 : tensor<?xoutput_type> to tensor<*xoutput_type>\n     scf.yield %cast : tensor<*xoutput_type>\n@@ -27,8 +28,8 @@ func.func @Zeta_platform_elem_type_output_type(%arg0: tensor<*xelem_type>, %arg1\n     %16 = scf.if %15 -> (tensor<*xoutput_type>) {\n       %17 = shape.num_elements %5 : tensor<?xindex> -> index\n       %from_elements = tensor.from_elements %17 : tensor<1xindex>\n-      %18 = mhlo.dynamic_reshape %arg0, %from_elements : (tensor<*xelem_type>, tensor<1xindex>) -> tensor<?xelem_type>\n-      %19 = mhlo.reshape %arg1 : (tensor<*xelem_type>) -> tensor<elem_type>\n+      %18 = tensor.reshape %arg0(%from_elements) : (tensor<*xelem_type>, tensor<1xindex>) -> tensor<?xelem_type>\n+      %19 = tensor.reshape %arg1(%c_empty) : (tensor<*xelem_type>, tensor<0xindex>) -> tensor<elem_type>\n       %20 = chlo.broadcast_zeta %18, %19 : (tensor<?xelem_type>, tensor<elem_type>) -> tensor<?xoutput_type>\n       %cast = tensor.cast %20 : tensor<?xoutput_type> to tensor<*xoutput_type>\n       scf.yield %cast : tensor<*xoutput_type>\n@@ -38,8 +39,8 @@ func.func @Zeta_platform_elem_type_output_type(%arg0: tensor<*xelem_type>, %arg1\n         %19 = shape.any %5, %6 : tensor<?xindex>, tensor<?xindex> -> tensor<?xindex>\n         %20 = shape.num_elements %19 : tensor<?xindex> -> index\n         %from_elements = tensor.from_elements %20 : tensor<1xindex>\n-        %21 = mhlo.dynamic_reshape %arg0, %from_elements : (tensor<*xelem_type>, tensor<1xindex>) -> tensor<?xelem_type>\n-        %22 = mhlo.dynamic_reshape %arg1, %from_elements : (tensor<*xelem_type>, tensor<1xindex>) -> tensor<?xelem_type>\n+        %21 = tensor.reshape %arg0(%from_elements) : (tensor<*xelem_type>, tensor<1xindex>) -> tensor<?xelem_type>\n+        %22 = tensor.reshape %arg1(%from_elements) : (tensor<*xelem_type>, tensor<1xindex>) -> tensor<?xelem_type>\n         %23 = chlo.broadcast_zeta %21, %22 : (tensor<?xelem_type>, tensor<?xelem_type>) -> tensor<?xoutput_type>\n         %cast = tensor.cast %23 : tensor<?xoutput_type> to tensor<*xoutput_type>\n         scf.yield %cast : tensor<*xoutput_type>\n@@ -53,10 +54,10 @@ func.func @Zeta_platform_elem_type_output_type(%arg0: tensor<*xelem_type>, %arg1\n         %25 = scf.if %24 -> (tensor<*xoutput_type>) {\n           %26 = shape.broadcast %19#0, %4 : tensor<?xindex>, tensor<1xindex> -> tensor<?xindex>\n           %cast = tensor.cast %26 : tensor<?xindex> to tensor<1xindex>\n-          %27 = mhlo.dynamic_reshape %arg0, %cast : (tensor<*xelem_type>, tensor<1xindex>) -> tensor<?xelem_type>\n+          %27 = tensor.reshape %arg0(%cast) : (tensor<*xelem_type>, tensor<1xindex>) -> tensor<?xelem_type>\n           %28 = shape.broadcast %19#1, %4 : tensor<?xindex>, tensor<1xindex> -> tensor<?xindex>\n           %cast_0 = tensor.cast %28 : tensor<?xindex> to tensor<1xindex>\n-          %29 = mhlo.dynamic_reshape %arg1, %cast_0 : (tensor<*xelem_type>, tensor<1xindex>) -> tensor<?xelem_type>\n+          %29 = tensor.reshape %arg1(%cast_0) : (tensor<*xelem_type>, tensor<1xindex>) -> tensor<?xelem_type>\n           %30 = chlo.broadcast_zeta %27, %29 : (tensor<?xelem_type>, tensor<?xelem_type>) -> tensor<?xoutput_type>\n           %cast_1 = tensor.cast %30 : tensor<?xoutput_type> to tensor<*xoutput_type>\n           scf.yield %cast_1 : tensor<*xoutput_type>\n@@ -65,10 +66,10 @@ func.func @Zeta_platform_elem_type_output_type(%arg0: tensor<*xelem_type>, %arg1\n           %27 = scf.if %26 -> (tensor<*xoutput_type>) {\n             %28 = shape.broadcast %19#0, %3 : tensor<?xindex>, tensor<2xindex> -> tensor<?xindex>\n             %cast = tensor.cast %28 : tensor<?xindex> to tensor<2xindex>\n-            %29 = mhlo.dynamic_reshape %arg0, %cast : (tensor<*xelem_type>, tensor<2xindex>) -> tensor<?x?xelem_type>\n+            %29 = tensor.reshape %arg0(%cast) : (tensor<*xelem_type>, tensor<2xindex>) -> tensor<?x?xelem_type>\n             %30 = shape.broadcast %19#1, %3 : tensor<?xindex>, tensor<2xindex> -> tensor<?xindex>\n             %cast_0 = tensor.cast %30 : tensor<?xindex> to tensor<2xindex>\n-            %31 = mhlo.dynamic_reshape %arg1, %cast_0 : (tensor<*xelem_type>, tensor<2xindex>) -> tensor<?x?xelem_type>\n+            %31 = tensor.reshape %arg1(%cast_0) : (tensor<*xelem_type>, tensor<2xindex>) -> tensor<?x?xelem_type>\n             %32 = chlo.broadcast_zeta %29, %31 : (tensor<?x?xelem_type>, tensor<?x?xelem_type>) -> tensor<?x?xoutput_type>\n             %cast_1 = tensor.cast %32 : tensor<?x?xoutput_type> to tensor<*xoutput_type>\n             scf.yield %cast_1 : tensor<*xoutput_type>\n@@ -77,10 +78,10 @@ func.func @Zeta_platform_elem_type_output_type(%arg0: tensor<*xelem_type>, %arg1\n             %29 = scf.if %28 -> (tensor<*xoutput_type>) {\n               %30 = shape.broadcast %19#0, %2 : tensor<?xindex>, tensor<3xindex> -> tensor<?xindex>\n               %cast = tensor.cast %30 : tensor<?xindex> to tensor<3xindex>\n-              %31 = mhlo.dynamic_reshape %arg0, %cast : (tensor<*xelem_type>, tensor<3xindex>) -> tensor<?x?x?xelem_type>\n+              %31 = tensor.reshape %arg0(%cast) : (tensor<*xelem_type>, tensor<3xindex>) -> tensor<?x?x?xelem_type>\n               %32 = shape.broadcast %19#1, %2 : tensor<?xindex>, tensor<3xindex> -> tensor<?xindex>\n               %cast_0 = tensor.cast %32 : tensor<?xindex> to tensor<3xindex>\n-              %33 = mhlo.dynamic_reshape %arg1, %cast_0 : (tensor<*xelem_type>, tensor<3xindex>) -> tensor<?x?x?xelem_type>\n+              %33 = tensor.reshape %arg1(%cast_0) : (tensor<*xelem_type>, tensor<3xindex>) -> tensor<?x?x?xelem_type>\n               %34 = chlo.broadcast_zeta %31, %33 : (tensor<?x?x?xelem_type>, tensor<?x?x?xelem_type>) -> tensor<?x?x?xoutput_type>\n               %cast_1 = tensor.cast %34 : tensor<?x?x?xoutput_type> to tensor<*xoutput_type>\n               scf.yield %cast_1 : tensor<*xoutput_type>\n@@ -89,10 +90,10 @@ func.func @Zeta_platform_elem_type_output_type(%arg0: tensor<*xelem_type>, %arg1\n               %31 = scf.if %30 -> (tensor<*xoutput_type>) {\n                 %32 = shape.broadcast %19#0, %1 : tensor<?xindex>, tensor<4xindex> -> tensor<?xindex>\n                 %cast = tensor.cast %32 : tensor<?xindex> to tensor<4xindex>\n-                %33 = mhlo.dynamic_reshape %arg0, %cast : (tensor<*xelem_type>, tensor<4xindex>) -> tensor<?x?x?x?xelem_type>\n+                %33 = tensor.reshape %arg0(%cast) : (tensor<*xelem_type>, tensor<4xindex>) -> tensor<?x?x?x?xelem_type>\n                 %34 = shape.broadcast %19#1, %1 : tensor<?xindex>, tensor<4xindex> -> tensor<?xindex>\n                 %cast_0 = tensor.cast %34 : tensor<?xindex> to tensor<4xindex>\n-                %35 = mhlo.dynamic_reshape %arg1, %cast_0 : (tensor<*xelem_type>, tensor<4xindex>) -> tensor<?x?x?x?xelem_type>\n+                %35 = tensor.reshape %arg1(%cast_0) : (tensor<*xelem_type>, tensor<4xindex>) -> tensor<?x?x?x?xelem_type>\n                 %36 = chlo.broadcast_zeta %33, %35 : (tensor<?x?x?x?xelem_type>, tensor<?x?x?x?xelem_type>) -> tensor<?x?x?x?xoutput_type>\n                 %cast_1 = tensor.cast %36 : tensor<?x?x?x?xoutput_type> to tensor<*xoutput_type>\n                 scf.yield %cast_1 : tensor<*xoutput_type>\n@@ -101,10 +102,10 @@ func.func @Zeta_platform_elem_type_output_type(%arg0: tensor<*xelem_type>, %arg1\n                 cf.assert %32, \"Input for dynamic binary or n-ary op lowering was of a rank greater than 5\"\n                 %33 = shape.broadcast %19#0, %0 : tensor<?xindex>, tensor<5xindex> -> tensor<?xindex>\n                 %cast = tensor.cast %33 : tensor<?xindex> to tensor<5xindex>\n-                %34 = mhlo.dynamic_reshape %arg0, %cast : (tensor<*xelem_type>, tensor<5xindex>) -> tensor<?x?x?x?x?xelem_type>\n+                %34 = tensor.reshape %arg0(%cast) : (tensor<*xelem_type>, tensor<5xindex>) -> tensor<?x?x?x?x?xelem_type>\n                 %35 = shape.broadcast %19#1, %0 : tensor<?xindex>, tensor<5xindex> -> tensor<?xindex>\n                 %cast_0 = tensor.cast %35 : tensor<?xindex> to tensor<5xindex>\n-                %36 = mhlo.dynamic_reshape %arg1, %cast_0 : (tensor<*xelem_type>, tensor<5xindex>) -> tensor<?x?x?x?x?xelem_type>\n+                %36 = tensor.reshape %arg1(%cast_0) : (tensor<*xelem_type>, tensor<5xindex>) -> tensor<?x?x?x?x?xelem_type>\n                 %37 = chlo.broadcast_zeta %34, %36 : (tensor<?x?x?x?x?xelem_type>, tensor<?x?x?x?x?xelem_type>) -> tensor<?x?x?x?x?xoutput_type>\n                 %cast_1 = tensor.cast %37 : tensor<?x?x?x?x?xoutput_type> to tensor<*xoutput_type>\n                 scf.yield %cast_1 : tensor<*xoutput_type>\n@@ -124,6 +125,6 @@ func.func @Zeta_platform_elem_type_output_type(%arg0: tensor<*xelem_type>, %arg1\n   %10 = shape.shape_of %arg0 : tensor<*xelem_type> -> tensor<?xindex>\n   %11 = shape.shape_of %arg1 : tensor<*xelem_type> -> tensor<?xindex>\n   %12 = shape.broadcast %10, %11 : tensor<?xindex>, tensor<?xindex> -> tensor<?xindex>\n-  %13 = mhlo.dynamic_reshape %9, %12 : (tensor<*xoutput_type>, tensor<?xindex>) -> tensor<*xoutput_type>\n+  %13 = tensor.reshape %9(%12) : (tensor<*xoutput_type>, tensor<?xindex>) -> tensor<*xoutput_type>\n   return %13 : tensor<*xoutput_type>\n }"
        }
    ],
    "stats": {
        "total": 2037,
        "additions": 1086,
        "deletions": 951
    }
}