{
    "author": "liepieshov",
    "message": "Use `R\"hlo(...)hlo\"` for HLO text in `sample_text_test.cc`.\n\nThis improves readability and allows for better syntax highlighting of the embedded HLO strings.\n\nPiperOrigin-RevId: 820710394",
    "sha": "f910c98db0d9df848d9292d5c256f539c3590dfa",
    "files": [
        {
            "sha": "485ebbfd49081e3e7b1e44bdce5065ed2b4dbf56",
            "filename": "third_party/xla/xla/tests/sample_text_test.cc",
            "status": "modified",
            "additions": 4,
            "deletions": 4,
            "changes": 8,
            "blob_url": "https://github.com/tensorflow/tensorflow/blob/f910c98db0d9df848d9292d5c256f539c3590dfa/third_party%2Fxla%2Fxla%2Ftests%2Fsample_text_test.cc",
            "raw_url": "https://github.com/tensorflow/tensorflow/raw/f910c98db0d9df848d9292d5c256f539c3590dfa/third_party%2Fxla%2Fxla%2Ftests%2Fsample_text_test.cc",
            "contents_url": "https://api.github.com/repos/tensorflow/tensorflow/contents/third_party%2Fxla%2Fxla%2Ftests%2Fsample_text_test.cc?ref=f910c98db0d9df848d9292d5c256f539c3590dfa",
            "patch": "@@ -33,7 +33,7 @@ class SampleTextTest\n     : public HloPjRtInterpreterReferenceMixin<HloPjRtTestBase> {};\n \n TEST_F(SampleTextTest, Axpy) {\n-  const std::string& hlo_string = R\"(\n+  const std::string& hlo_string = R\"hlo(\n HloModule axpy_module:\n ENTRY %axpy.v5 (alpha: f32[], x: f32[2,4], y: f32[2,4]) -> f32[2,4] {\n   %alpha = f32[] parameter(0)\n@@ -43,20 +43,20 @@ ENTRY %axpy.v5 (alpha: f32[], x: f32[2,4], y: f32[2,4]) -> f32[2,4] {\n   %y = f32[2,4]{1,0} parameter(2)\n   ROOT %add = f32[2,4]{1,0} add(f32[2,4]{1,0} %multiply, f32[2,4]{1,0} %y)\n }\n-)\";\n+)hlo\";\n   EXPECT_TRUE(RunAndCompareNoHloPasses(hlo_string, ErrorSpec{0.0001}));\n }\n \n TEST_F(SampleTextTest, Tuple) {\n-  const std::string& hlo_string = R\"(\n+  const std::string& hlo_string = R\"hlo(\n HloModule TupleCreate_module:\n ENTRY %TupleCreate.v4 (v1: f32[], v2: f32[3], v3: f32[2,3]) -> (f32[], f32[3], f32[2,3]) {\n   %v1 = f32[] parameter(0)\n   %v2 = f32[3]{0} parameter(1)\n   %v3 = f32[2,3]{1,0} parameter(2)\n   ROOT %tuple = (f32[], f32[3]{0}, f32[2,3]{1,0}) tuple(f32[] %v1, f32[3]{0} %v2, f32[2,3]{1,0} %v3)\n }\n-)\";\n+)hlo\";\n   EXPECT_TRUE(RunAndCompare(hlo_string, nullopt));\n }\n "
        }
    ],
    "stats": {
        "total": 8,
        "additions": 4,
        "deletions": 4
    }
}